captcha_model.pth (torch, 159176 bytes, 8 tensors)

large_img_cnn.0.weight f4 [32, 3, 3, 3]
0	0xbda5f265	-0.08102874
1	0x3d49f010	0.049301207
2	0x3e35001f	0.17675827
3	0x3e003d4d	0.12523384
4	0x3b021280	0.0019847453
5	0xbd3984bc	-0.0452926
6	0x3c01c460	0.007920355
7	0xbdd880fa	-0.10571475
8	0xbe396ace	-0.18107149
9	0xbdf5c801	-0.12001038
10	0xbdc606b6	-0.09669249
11	0xbbe2f2c0	-0.0069259107
12	0xbe18a6b4	-0.14907342
13	0xbc7ba9f0	-0.0153603405
14	0x3e1f7d71	0.15575196
15	0x3de9b892	0.11412157
16	0x3e24e18b	0.16101663
17	0xbc904df0	-0.017615288
18	0xbe2faa4e	-0.1715481
19	0xbe3f6474	-0.18690664
20	0x3e254e29	0.16143097
21	0xbd77db3c	-0.060511813
22	0x3d2eb180	0.042649746
23	0xbd6a0844	-0.05713679
24	0xbd7bde2c	-0.061491176
25	0x3d6d8314	0.057986334
26	0xbc2e83f0	-0.010651574
27	0x3df61da2	0.12017371
28	0x3e341a4d	0.17588158
29	0xbe1a6d5b	-0.15080778
30	0xbddc29bd	-0.107501484
31	0x3d9b63a6	0.07587366
32	0xbdb80c8c	-0.08986768
33	0xbca32770	-0.019916266
34	0x3e44dbd1	0.19224478
35	0x3e29a64b	0.16567342
36	0xbe34c37f	-0.17652701
37	0xbdf43127	-0.119234376
38	0xbddcf4df	-0.10788893
39	0xbe0e68d6	-0.13907179
40	0xbd7995a4	-0.060933724
41	0xbdcfab7c	-0.1014013
42	0xbdf9b426	-0.12192564
43	0xbdbadc90	-0.091241
44	0xbe44fc17	-0.1923679
45	0x3d563150	0.05229312
46	0xbd00067c	-0.031256184
47	0xbe1a0364	-0.15040356
48	0xbd88aa34	-0.06673089
49	0x3d0df8c0	0.034661055
50	0x3e41a33f	0.1890993
51	0xbd3fdb74	-0.046840146
52	0x3e241049	0.16021837
53	0xbda1b20e	-0.07895289
54	0x3c82e370	0.015977591
55	0xbda8c213	-0.08240142
56	0xbe27c0e4	-0.16382176
57	0x3c89f5e8	0.01684089
58	0x3e28510b	0.16437165
59	0xbe1daf7d	-0.15398975
60	0x3e012025	0.12609918
61	0xbe27501a	-0.1633915
62	0xbb7a7640	-0.0038217455
63	0x3e15f1cd	0.14643021
64	0xbd9e299f	-0.07722782
65	0x3c869ec0	0.01643312
66	0x3be87220	0.007093683
67	0x3e3d862d	0.18508215
68	0x3da18d0a	0.07888229
69	0x3d9e94fe	0.07743262
70	0x3d3f27b4	0.046668723
71	0x3dd7a876	0.10530178
72	0x3e1932bf	0.14960764
73	0x3da8afce	0.08236657
74	0x3dc449fa	0.095844224
75	0x3c4ae160	0.012382835
76	0x3dec7eb2	0.11547603
77	0xbe2235af	-0.15840791
78	0xbd327160	-0.043565154
79	0x3d6e099c	0.058114633
80	0x3a4fe800	0.0007930994
81	0xbde03d7b	-0.109492265
82	0x3ce21e98	0.027602479
83	0xbdffd9b8	-0.124926984
84	0xbdc04740	-0.0938859
85	0xbe01e2e6	-0.12684211
86	0x3df0c33a	0.117559865
87	0x3df31202	0.11868669
88	0xbdc1c43a	-0.09461255
89	0x3b8e89c0	0.004349917
90	0x3e24bce1	0.16087677
91	0x3e29e00f	0.16589378
92	0xbd6e9370	-0.058246076
93	0xbe2dc230	-0.16968608
94	0x3da8c022	0.082397714
95	0xbe0346bc	-0.12819952
96	0xbd44a658	-0.0480102
97	0x3e0c3db3	0.13695411
98	0x3d117300	0.035510063
99	0x3c824670	0.015902728
100	0xbc5b5790	-0.013387576
101	0x3e0ef293	0.13959722
102	0xbc6c1b80	-0.014410853
103	0xbc734680	-0.0148483515
104	0xbc830cf8	-0.015997395
105	0x3e0f2e6f	0.13982557
106	0xbdc49470	-0.09598625
107	0x3e35a9cb	0.17740552
108	0x3d375080	0.044754505
109	0xbd22ae1c	-0.039716825
110	0x3df29bd6	0.118461296
111	0x3e1ddf9b	0.1541733
112	0xbe14de8a	-0.14538017
113	0xbe247a1a	-0.16062203
114	0xbd849af6	-0.06474869
115	0xbe18bb49	-0.14915194
116	0xbdbfc5a8	-0.09363872
117	0x3d95c636	0.07313196
118	0x3e1322b7	0.14368711
119	0x3e1d7da3	0.15379958
120	0xbe0497da	-0.12948552
121	0x3e00f097	0.12591778
122	0x3ceb6618	0.028735206
123	0xbe2af9a4	-0.16696793
124	0x3da90aa2	0.08253981
125	0xbd47a8b4	-0.048744872
126	0xbe305c7f	-0.17222784
127	0xbde247bb	-0.11048838
128	0x3d62534c	0.05525522
129	0xbd1b2874	-0.037880376
130	0xbe140718	-0.14455831
131	0xbb9a5820	-0.0047102123
132	0xbcea9840	-0.028637052
133	0x3e1a0649	0.1504146
134	0x3e3027a3	0.1720262
135	0xbe1073da	-0.14106694
136	0x3d2a9048	0.041641504
137	0xbdf61ee3	-0.1201761
138	0xbcc75df8	-0.0243368
139	0xbdd1ca00	-0.102436066
140	0xbdb7d606	-0.089763686
141	0x3d110318	0.03540334
142	0x3ddd7792	0.10813822
143	0xbdfaf25b	-0.12253257
144	0xbd9d77c9	-0.07688863
145	0xbdc5de67	-0.096615605
146	0x3c538810	0.012910858
147	0x3cec0e40	0.028815389
148	0x3e11b4b5	0.1422909
149	0x3ca857f8	0.02054976
150	0x3e18be85	0.14916427
151	0x3b4b3700	0.0031008124
152	0x3e354463	0.17701869
153	0xbe2433ad	-0.16035338
154	0x3de6e54a	0.11274202
155	0xbe325688	-0.17415822
156	0xbd5a6a50	-0.053324044
157	0xbe145c3b	-0.14488308
158	0xbe434b5a	-0.19071713
159	0xbcd6d148	-0.02622284
160	0xbd18c340	-0.03729558
161	0x3daa32d2	0.083104745
162	0x3e433661	0.19063713
163	0xbda66721	-0.08125139
164	0x3e02057f	0.12697409
165	0x3d7d247c	0.061802372
166	0x3e0679b1	0.13132359
167	0xbd687b18	-0.056758016
168	0x3d6acfc4	0.057327047
169	0x3e42c83f	0.190217
170	0x3e248813	0.16067533
171	0x3cf22678	0.029559359
172	0xbdbd50ef	-0.092439525
173	0xbe0f905d	-0.14019914
174	0xbba7b400	-0.005117893
175	0x3dc5bfba	0.096557096
176	0x3db9469a	0.09046669
177	0x3c2c4af0	0.010515913
178	0x3e2b47e9	0.1672665
179	0x3db67486	0.08908944
180	0x3e28fc7f	0.1650257
181	0x3d96983a	0.07353254
182	0x3d9f0ef6	0.077665254
183	0xbe2bcf05	-0.1677819
184	0x3e43d983	0.19125943
185	0x3d313448	0.04326275
186	0xbbcccfa0	-0.0062503368
187	0x3c237e40	0.009978831
188	0xbd2b9768	-0.04189244
189	0xbe12bfde	-0.14331004
190	0xbd189960	-0.037255645
191	0xbd452fc8	-0.04814127
192	0x3e0685ed	0.13137026
193	0x3dc7018a	0.097170904
194	0x3d9b7846	0.075913
195	0x3d6fd9f4	0.058557466
196	0x3d97d56a	0.074137524
197	0xbe1778ac	-0.14792126
198	0xbe23cafc	-0.15995401
199	0xbe23173c	-0.15926832
200	0x3e130115	0.14355882
201	0x3c8ee820	0.01744467
202	0xbc1a1550	-0.009404495
203	0xbcc25090	-0.023720056
204	0x3cf68350	0.030091912
205	0xbe18bbbb	-0.14915363
206	0xbd4425e8	-0.047887713
207	0x3e2f5ff5	0.17126448
208	0xbe1ad090	-0.15118623
209	0xbe0884ce	-0.13331911
210	0xbd8d416c	-0.06897244
211	0x3d3dad84	0.046308056
212	0x3dc0d6be	0.09415959
213	0xbdd5de1d	-0.10442755
214	0xbc5151e0	-0.012775868
215	0xbdc210b7	-0.09475844
216	0xbdc1a79a	-0.094557956
217	0x3e2acb53	0.16679125
218	0x3e272db9	0.16326036
219	0x3dde420e	0.10852443
220	0xbca57dc8	-0.020201579
221	0xbe41fa09	-0.18943037
222	0xbe1af809	-0.1513368
223	0xbd5f6314	-0.054537848
224	0x3d9d71ce	0.07687722
225	0xbe3b4362	-0.18287423
226	0x3e2abddd	0.1667399
227	0x3e1001d1	0.14063193
228	0x3e1bd623	0.15218405
229	0x3dc1f91e	0.094713435
230	0x3e0ae351	0.13563277
231	0x3e009aa9	0.12558998
232	0xbd8bd6cc	-0.06828079
233	0x3d2a6b68	0.041606337
234	0x3dc5a5f6	0.09650795
235	0xbaad3b80	-0.0013216585
236	0x3dd518e6	0.104051396
237	0x3e341113	0.17584638
238	0xbd9fcef5	-0.07803146
239	0x3e17772b	0.14791553
240	0xbe3aef11	-0.18255259
241	0x3e20e9cd	0.15714188
242	0x3e42491f	0.18973206
243	0xbd5d5ca8	-0.054043442
244	0xbe366716	-0.17812762
245	0x3d398628	0.045293957
246	0x3db52cca	0.088464335
247	0xbe163db1	-0.14671971
248	0xbb764500	-0.0037577748
249	0xbd60d76c	-0.054892942
250	0xbde108d7	-0.10988014
251	0x3e235f3d	0.159543
252	0x3db8172e	0.08988796
253	0xbdcf76f8	-0.10130113
254	0xbce39e60	-0.02778548
255	0x3e2fdbb5	0.17173655

large_img_cnn.0.bias f4 [32]
0	0x3e148127	0.14502393
1	0xbdf6facf	-0.12059557
2	0xbc640ed0	-0.013919547
3	0x3ca45478	0.02005981
4	0xbc9c1a08	-0.019055381
5	0xbd8b9137	-0.06814807
6	0xbe249187	-0.1607114
7	0x3c8934f8	0.01674889
8	0xbd6c8cc8	-0.057751447
9	0x3c6599f0	0.014013752
10	0xbc14aa40	-0.009073794
11	0x3cf57fc0	0.029968143
12	0xbc4072f0	-0.011746153
13	0xbe10e6ce	-0.14150545
14	0xbd714fb0	-0.058913887
15	0x3d85d752	0.0653521
16	0xbd4940b8	-0.049133986
17	0xbe42e602	-0.19033054
18	0x3e2bcd9b	0.16777651
19	0xbe1f4076	-0.15551934
20	0xbc966538	-0.018358812
21	0xbcc48808	-0.023990646
22	0x3acca000	0.0015611649
23	0x3c34a650	0.01102598
24	0xbd8ff927	-0.07029944
25	0x3de511a6	0.11185007
26	0xbd0f7aa8	-0.035029083
27	0xbe30944d	-0.17244072
28	0xbe358250	-0.17725492
29	0x3e01e229	0.1268393
30	0x3dfc5b7e	0.12322138
31	0xbd326ab4	-0.04355879

large_img_cnn.3.weight f4 [64, 32, 3, 3]
0	0xbd05d0a2	-0.03266967
1	0xbcb9c0c2	-0.022674922
2	0x3be13cb8	0.0068736933
3	0xbd0b7098	-0.034042925
4	0x3cb97856	0.022640388
5	0xbd0d8b0a	-0.034556426
6	0xbd3f9798	-0.04677543
7	0x3c7b1974	0.015325893
8	0x3c4e2d04	0.012583975
9	0x3d3c9f45	0.04605033
10	0x3d0164ff	0.031590458
11	0xbd271eb9	-0.040800784
12	0x3d6b0ddf	0.057386275
13	0xbd191427	-0.037372734
14	0xbcaa3ac8	-0.020779982
15	0xbce3d647	-0.027812136
16	0x3cbb28ae	0.022846546
17	0xbb75cc60	-0.003750585
18	0xbd00da9e	-0.03145849
19	0x3d193133	0.037400436
20	0xbcca7da8	-0.02471812
21	0xbc383db4	-0.01124518
22	0x3d5e14f1	0.05421919
23	0xbc843cc8	-0.016142264
24	0x3c93754a	0.018000264
25	0xbcac26be	-0.021014567
26	0x3ae58680	0.0017511398
27	0xbbad5db8	-0.005290713
28	0xbc871d7c	-0.016493551
29	0x3d11d927	0.035607483
30	0x3bfdbb08	0.007743243
31	0xbbb12cb8	-0.005406942
32	0x3d40be5f	0.047056552
33	0xbd4b7e3a	-0.049680926
34	0x3c88c3c6	0.016694915
35	0x3cd7949a	0.026315976
36	0xbce4f9cc	-0.027951144
37	0xbd2f19a6	-0.04274907
38	0x3d027edf	0.031859275
39	0x3d2d3f53	0.04229672
40	0xbd6723b3	-0.05643053
41	0x3d6849fb	0.05671118
42	0x3a85b800	0.0010201931
43	0xbd4a34ba	-0.04936669
44	0xbd089f74	-0.03335519
45	0x3ca5f69e	0.020259198
46	0xbd0c36e8	-0.03423205
47	0xbd022117	-0.03176984
48	0x3d34ec83	0.044170868
49	0xbad436c0	-0.0016190633
50	0x3d1f1e97	0.038847532
51	0x3ca3e5ee	0.0200071
52	0x3d4e6b6f	0.050395425
53	0xbc185800	-0.009298325
54	0xbce9088d	-0.02844646
55	0xbd0c7b50	-0.034297287
56	0x3b7e8170	0.0038834475
57	0x3d0457e1	0.03231037
58	0xbb987968	-0.0046531446
59	0xbd65ca54	-0.05610116
60	0xbd3363ea	-0.043796457
61	0xbc7bf56c	-0.015378337
62	0x3d20911b	0.039200883
63	0x3abe8880	0.001453653
64	0x3cd8bc62	0.026457015
65	0x3c17a644	0.009255949
66	0x3c2811e4	0.010258172
67	0x3ccac416	0.024751704
68	0x3d6d9639	0.05800459
69	0xbd573c29	-0.052547608
70	0x3d20a99f	0.039224263
71	0xba244040	-0.00062656775
72	0xbaf37bc0	-0.0018576309
73	0x3d56471b	0.052313905
74	0x3c71fe24	0.0147700645
75	0xbce8caea	-0.02841707
76	0x3cd4c86a	0.025974471
77	0x3d448cf1	0.047985975
78	0xbd13dcce	-0.036099248
79	0xbac0f9c0	-0.0014722869
80	0xbcd183b6	-0.0255755
81	0x3d54afb9	0.051925395
82	0xbc968f14	-0.018378772
83	0xbcd642f0	-0.026154965
84	0xbd13fc4c	-0.03612928
85	0xbce2f812	-0.02770618
86	0x3cfe647a	0.03105377
87	0xbd68a7c6	-0.056800626
88	0x3caf93f2	0.02143285
89	0xbd110116	-0.035401426
90	0x3c29e5fc	0.010369774
91	0xbc041858	-0.008062445
92	0xbd6cc373	-0.057803582
93	0xba000580	-0.0004883632
94	0xbd674c70	-0.05646938
95	0x3cf4f942	0.029904012
96	0x3d12b9ab	0.035821598
97	0xbc360174	-0.011108745
98	0xbd18bfd0	-0.0372923
99	0xbd2681d6	-0.040651165
100	0x3caad34a	0.020852704
101	0xbd18e6f1	-0.037329618
102	0xbcae4bc4	-0.021276362
103	0x3d049199	0.032365415
104	0xbc0db624	-0.008649383
105	0x3d28e34b	0.04123239
106	0xbd178666	-0.036993407
107	0xbd40d223	-0.047075402
108	0x3c7f1c94	0.015570778
109	0xbd3763ac	-0.04477279
110	0x3ccaa2f6	0.024735909
111	0x3ca5fd2e	0.020262327
112	0x3bb86318	0.0056270473
113	0x3c6fbae4	0.014631961
114	0xbc4b5a10	-0.012411609
115	0x3d3d8ce9	0.04627696
116	0xbd36a97b	-0.044595223
117	0x3d3dba59	0.046320293
118	0x3d64f9a9	0.055902157
119	0x3d640d3d	0.055676688
120	0xbd39ed4d	-0.045392323
121	0xbd0d2d75	-0.03446718
122	0xbd17e952	-0.037087746
123	0x3cef2a2e	0.029194918
124	0xbd4ac52c	-0.049504444
125	0xbd0a1dde	-0.03371989
126	0xbd37f312	-0.044909544
127	0x3d642dc1	0.055707697
128	0x3c970272	0.018433783
129	0x3c1e74d4	0.009671409
130	0xbc846f08	-0.016166225
131	0x3d69dfe5	0.057098288
132	0x3d1c698b	0.03818659
133	0xbc78f4b0	-0.015195057
134	0xbcdb94b0	-0.026804298
135	0xbc96fde4	-0.018431611
136	0x3d30cf37	0.043166365
137	0x3c19d4fc	0.009389158
138	0xbcde9c02	-0.027174
139	0x3c2dec7c	0.010615464
140	0x3d1a4a3d	0.037668455
141	0x3c19562c	0.009358924
142	0x3cbf1e52	0.023329888
143	0xbd5f9752	-0.05458767
144	0xbc1d03a8	-0.009583391
145	0x3d6b97b1	0.05751771
146	0xbd13f5a0	-0.036122918
147	0x3ca1a3c2	0.019731406
148	0x3d4b0e2b	0.04957406
149	0x3c98a082	0.018631224
150	0xbd00c2e0	-0.031435847
151	0x3d532713	0.051550936
152	0x3d23b713	0.039969515
153	0xbd6928b2	-0.056923576
154	0xb9e32e00	-0.00043331087
155	0xbcc3fb3e	-0.023923513
156	0x3c7099d4	0.014685113
157	0xbca0f51e	-0.019648131
158	0x3bb8db88	0.0056414045
159	0x3d6d6809	0.057960544
160	0xbc16871c	-0.009187486
161	0xbd29da68	-0.041468054
162	0x3c11a83c	0.008890208
163	0xb8ed6600	-0.000113200396
164	0x3b76d570	0.003766384
165	0x3d398965	0.045297045
166	0x3d52a8f5	0.05143066
167	0x3d0457a1	0.032310132
168	0x3c509b24	0.012732301
169	0xbd1b915e	-0.03798043
170	0xbccf90e6	-0.025337648
171	0x3bb9d258	0.005670827
172	0xbd443bea	-0.0479087
173	0x3cf86e2e	0.030325975
174	0xbd08c558	-0.033391327
175	0x3c5fe1f4	0.013664711
176	0x3d3e79e9	0.04650298
177	0xbc8d37c0	-0.017238498
178	0xbd22718e	-0.039659075
179	0xbcc016ea	-0.023448426
180	0xbc819a60	-0.015820682
181	0xbd6e0016	-0.05810555
182	0xbcba3dbc	-0.022734515
183	0xbd04db0c	-0.032435462
184	0x3cecaef6	0.028892022
185	0xbce2c875	-0.027683476
186	0x3d52a739	0.051429007
187	0x3b9aae38	0.0047204755
188	0x3d198ce1	0.03748787
189	0xbd1bbcd5	-0.03802188
190	0x3d3b95c5	0.04579713
191	0x3d54f295	0.051989157
192	0xbcc8ef08	-0.024528041
193	0xbd331a92	-0.04372651
194	0x3d190a69	0.037363444
195	0xbc6a4708	-0.014299162
196	0xbc859900	-0.016308308
197	0x3ca330d6	0.019920748
198	0x3d65295f	0.055947658
199	0xbc2cb08c	-0.010540139
200	0x3c3e757c	0.01162469
201	0xbd266e5e	-0.040632598
202	0xbca7683e	-0.020435449
203	0x3d3fe155	0.046845753
204	0xbc583594	-0.013196368
205	0xbcad0b1e	-0.021123465
206	0x3ba46238	0.0050165914
207	0x3d5dfff3	0.05419917
208	0x3d6ea6ed	0.05826466
209	0x3c48aa94	0.0122477
210	0x3c08d494	0.008351464
211	0x3baf7c48	0.0053553917
212	0xbd24e068	-0.040253073
213	0x3d6e38a1	0.058159474
214	0xbd55cdc7	-0.052198198
215	0x3cd6a80e	0.026203182
216	0xbd6aaec3	-0.057295572
217	0x3c5ea2d4	0.013588626
218	0x3c60dc6c	0.013724428
219	0xbcd505d8	-0.026003763
220	0x3d49d24d	0.049272824
221	0xbcbdca9e	-0.023167904
222	0x3d49c36f	0.049258646
223	0x3d34881d	0.04407512
224	0x3cee66f6	0.02910183
225	0x3ac01bc0	0.0014656708
226	0xbce2548a	-0.027628202
227	0x3d2be8af	0.04196995
228	0x3b8fbdd8	0.004386645
229	0xbd389ceb	-0.045071524
230	0x3d39ae0b	0.045331996
231	0xbd3375a8	-0.043813378
232	0xbcdb3478	-0.026758417
233	0xbd116ae9	-0.035502348
234	0xbbf2b410	-0.007406719
235	0xbd3f9aa6	-0.046778344
236	0xbd3738ad	-0.044731785
237	0xbd2d522c	-0.042314693
238	0xba594c80	-0.00082892925
239	0x3cd5164e	0.026011612
240	0x3d11de13	0.035612177
241	0xbd53ea1e	-0.051736943
242	0xbc4bb034	-0.012432147
243	0x3b32c650	0.0027278848
244	0x3c27d2b4	0.010243107
245	0xbb475290	-0.0030414201
246	0xbd018306	-0.031619094
247	0xbcb2a998	-0.021809384
248	0x3a47c5c0	0.00076207146
249	0xbac3f360	-0.0014949851
250	0xbc8fa64c	-0.017535351
251	0x3d137b05	0.036005992
252	0xbcc501c6	-0.024048697
253	0xbbac9c08	-0.005267624
254	0xbcedf9fa	-0.029049862
255	0x3caa700a	0.020805378

large_img_cnn.3.bias f4 [64]
0	0x3c13c134	0.009018231
1	0x3cfba0b2	0.030716274
2	0x3a544340	0.0008097179
3	0xbd67ee18	-0.05662355
4	0x3ab3c9e0	0.001371678
5	0xb8cf0c00	-9.872764e-05
6	0x3bd87458	0.006605666
7	0x3ce32d7e	0.027731653
8	0x3d235cf9	0.039883588
9	0xbcc1b732	-0.023646925
10	0xbd415db0	-0.047208488
11	0x3b57fdc0	0.0032957643
12	0x3d42901b	0.04750071
13	0xbd6edc30	-0.058315456
14	0x3ccef3ba	0.025262702
15	0x3cc43e8e	0.02395561
16	0x3d475ed7	0.04867443
17	0xbd5bf3f7	-0.05369946
18	0xbd66726d	-0.05626147
19	0xbd04fe7e	-0.032469265
20	0xbcab9732	-0.020946119
21	0x3c6d56bc	0.014486011
22	0xbbb4b180	-0.0055143237
23	0xbcd7b776	-0.026332598
24	0x3c36c97c	0.011156436
25	0xbcbdf2a0	-0.023186982
26	0xbc6469ac	-0.01394121
27	0x3d5248f7	0.051339116
28	0x3d178e09	0.03700069
29	0xbd63b686	-0.05559399
30	0xbd0e511a	-0.034745313
31	0xbca19d34	-0.01972828
32	0xbd44eb8b	-0.048076194
33	0xbc73aba4	-0.014872465
34	0x3bfc1098	0.007692408
35	0x3d19fb71	0.03759331
36	0x3bea1b28	0.0071443506
37	0x3d60f741	0.0549233
38	0x3c7f078c	0.015565764
39	0x3d5a84b3	0.053349208
40	0x3c9bfd46	0.019041669
41	0x3cfcbac2	0.030850772
42	0x3d6cf107	0.05784705
43	0x3bcc2d68	0.006230999
44	0xbb2b3460	-0.0026123747
45	0xbc5742a0	-0.013138443
46	0x3d603517	0.05473813
47	0x3c05939c	0.008152869
48	0xbcb3686a	-0.021900374
49	0x3a088740	0.0005208142
50	0x3c91e1de	0.017807897
51	0x3ceb9242	0.028756265
52	0xbd4f0b4c	-0.050547883
53	0x3d4d853d	0.050175894
54	0x3c06e364	0.008232925
55	0x3cb03fbe	0.02151477
56	0x3d677161	0.05650461
57	0xbd6f8891	-0.05847985
58	0xbd6b1264	-0.057390586
59	0x3d4c8c11	0.049938265
60	0xbca232fe	-0.019799706
61	0xbd66bb48	-0.05633095
62	0x3c8c7726	0.017146658
63	0xbcf32576	-0.029680949

small_img_cnn.0.weight f4 [32, 3, 3, 3]
0	0x3dd269a6	0.10274057
1	0x3d7e1984	0.062036052
2	0x3e323109	0.17401518
3	0x3dda125a	0.106480315
4	0xbe100284	-0.1406346
5	0x3ddd2432	0.10797919
6	0x3d94e952	0.07271065
7	0xbe05df38	-0.13073432
8	0x3d58ba40	0.052911997
9	0xbcfb9460	-0.0307104
10	0xbd479318	-0.048724264
11	0xbddd1f26	-0.10796957
12	0x3b954fa0	0.004556611
13	0x3e282d8b	0.16423623
14	0x3dc5f4b6	0.096658155
15	0xbdadef71	-0.084929354
16	0x3d8f71d6	0.07004134
17	0x3dbb6d76	0.091517374
18	0x3e139c89	0.14415182
19	0x3dea0976	0.11427586
20	0x3e2574fd	0.16157909
21	0x3d4bb220	0.04973042
22	0x3e17c48b	0.14821069
23	0x3e3d867f	0.18508337
24	0xbe113cf3	-0.14183407
25	0x3de56956	0.11201732
26	0xbe381d48	-0.1797992
27	0xbe2f1387	-0.17097293
28	0x3dc1c3a2	0.09461142
29	0x3e04d163	0.129705
30	0x3cc36460	0.023851573
31	0xbca73c50	-0.020414501
32	0x3e3c20f7	0.1837195
33	0xbc5c7e50	-0.01345785
34	0xbe2e4cc2	-0.17021468
35	0x3e086c2b	0.13322513
36	0xbe2fcd5e	-0.17168185
37	0x3ca5cfc0	0.020240664
38	0x3e1818db	0.14853232
39	0xbcb3a0a8	-0.021927193
40	0xbd8b05e1	-0.06788231
41	0x3a948f00	0.0011334121
42	0xbe2c6c03	-0.16838078
43	0x3d2a13ac	0.041522667
44	0xbe2ab6c5	-0.16671284
45	0xbd54ac2c	-0.05192201
46	0x3b7f1a80	0.0038925707
47	0x3d8e2ac6	0.06941752
48	0xbe252a83	-0.16129498
49	0xbe0226d6	-0.12710127
50	0x3dcd430a	0.10022552
51	0x3da3c3a6	0.07996301
52	0xbd0df23c	-0.03465484
53	0xbd0b5f80	-0.034026623
54	0xbde6c35f	-0.11267733
55	0x3d1cd264	0.03828658
56	0xbd180778	-0.037116498
57	0x3d103cc0	0.035214186
58	0x3dd3dda6	0.103450105
59	0x3a236200	0.00062325597
60	0xbe2e204b	-0.17004506
61	0xbdc26e89	-0.09493739
62	0x3d6e729c	0.05821477
63	0xbd2b33f0	-0.04179758
64	0xbe10030a	-0.1406366
65	0x3cfa5cf0	0.030561894
66	0x3e1ecf89	0.15508856
67	0xbd8e9a47	-0.0696302
68	0x3e080e81	0.13286783
69	0xbd2d3ecc	-0.042296216
70	0xbcc39db0	-0.023878902
71	0x3d02edc8	0.031965047
72	0x3d7ad47c	0.061237797
73	0xbc8e35b0	-0.017359585
74	0xbdac1c8f	-0.084038846
75	0x3e15f717	0.14645039
76	0x3d63844c	0.05554609
77	0xbdc77585	-0.09739212
78	0xbe08863e	-0.1333246
79	0x3df72796	0.12068097
80	0xbe3a0097	-0.18164288
81	0x3cd95690	0.026530534
82	0x3d35643c	0.044285044
83	0xbc3a5f00	-0.011375189
84	0x3d69cef0	0.057082117
85	0x3d715ffc	0.05892943
86	0x3df13cb6	0.11779158
87	0xbdfa0fd1	-0.12210048
88	0xbe00457e	-0.12526509
89	0xbe19e34c	-0.15028113
90	0xbdd4aefb	-0.103849374
91	0xbda58f08	-0.08083922
92	0x3dc6df02	0.09710504
93	0xbe306866	-0.17227325
94	0xbe22f778	-0.15914714
95	0xbe0b70e3	-0.13617282
96	0xbdc73e96	-0.09728734
97	0xbd0dd50c	-0.034627005
98	0xbe1362da	-0.14393178
99	0xbdbbb440	-0.09165239
100	0xbd0ddf24	-0.03463663
101	0xbe0cad11	-0.13737895
102	0xbe08f6fd	-0.13375469
103	0xbda54512	-0.08069815
104	0xbd9ddb17	-0.07707804
105	0xbe22f5c8	-0.1591407
106	0x3ce99fc0	0.028518558
107	0xbd57bf48	-0.052672654
108	0xbdfb06c4	-0.1225715
109	0xbd2b3f5c	-0.04180847
110	0xbe086a50	-0.13321805
111	0x3dd754c6	0.10514216
112	0x3d8a6886	0.067582175
113	0x3da4b06e	0.08041464
114	0x3e388edb	0.18023245
115	0xbe32f6cf	-0.17476963
116	0x3d5db0e8	0.05412379
117	0x3e194211	0.14966609
118	0x3ccdea40	0.025136113
119	0xbdb3794b	-0.08763369
120	0x3e3482d3	0.1762803
121	0xbc1d2700	-0.009591818
122	0x3d519668	0.05116883
123	0xbdc9d914	-0.098558575
124	0xbe365d8c	-0.17809123
125	0xbe272038	-0.16320884
126	0x3dc9b5b2	0.09849109
127	0x3e029eeb	0.12755935
128	0xbe27ea25	-0.16397913
129	0x3c551c40	0.013007224
130	0xbdf74988	-0.12074572
131	0x3e2a53ad	0.16633482
132	0xbc61c1c0	-0.013779104
133	0x3be29560	0.0069147795
134	0xbd154b70	-0.036448896
135	0x3bad8000	0.0052948
136	0xbd9798e5	-0.07402209
137	0x3deb2ae2	0.114827886
138	0xbdef6a00	-0.1169014
139	0xbd80393a	-0.06260915
140	0xbdb1da6f	-0.08684241
141	0xbc9cc8e8	-0.019138768
142	0x3e12f73d	0.14352126
143	0x3e23c431	0.1599281
144	0x3db97556	0.09055583
145	0xbdef3c20	-0.1168139
146	0x3d0e768c	0.034781024
147	0x3e12fd75	0.14354499
148	0x3da9ae3a	0.08285184
149	0xbe113aea	-0.1418263
150	0xbc32c690	-0.010911599
151	0x3c537e30	0.012908503
152	0xbd108f7c	-0.035293087
153	0x3dbd9f26	0.09258871
154	0x3e18b4e7	0.14912759
155	0x3d23c994	0.03998716
156	0xbdd2df5b	-0.10296508
157	0x3c378910	0.011202112
158	0xbe3861e4	-0.18006092
159	0xbdac8e49	-0.08425576
160	0xbb40b2c0	-0.0029403418
161	0x3d072a0c	0.032999083
162	0x3e23f6ab	0.16012065
163	0x3d5432ac	0.051806137
164	0x3dddadae	0.108241424
165	0xbd7564bc	-0.05991052
166	0xbe1631e0	-0.14667463
167	0xbcb2e610	-0.021838218
168	0x3dbdba0a	0.09264
169	0xbd934804	-0.0719147
170	0xbd30be64	-0.04315032
171	0xbe0d0afd	-0.13773723
172	0xbddbc526	-0.107309625
173	0x3d5c9710	0.053855002
174	0xbd1a2e7c	-0.037641987
175	0x3ba0ba40	0.004905015
176	0xbda93ede	-0.08263944
177	0x3de05dbe	0.1095538
178	0x3e410d15	0.18852647
179	0xbc3a8b20	-0.011385709
180	0xbdb6cab5	-0.08925382
181	0xbe3efa4e	-0.18650171
182	0xbd39b324	-0.045336857
183	0xbde966cc	-0.1139656
184	0x3d1df9f8	0.038568467
185	0x3e3a7277	0.18207727
186	0xbc1d1860	-0.009588331
187	0xbdc7d18c	-0.09756765
188	0xbe2bc0da	-0.16772786
189	0xbe0f8804	-0.1401673
190	0xbe3ad7da	-0.18246403
191	0x3daa85ea	0.08326323
192	0x3dcd5f42	0.100279346
193	0x3e0ec73d	0.13943191
194	0xbe3f802d	-0.18701239
195	0xbd6ad400	-0.057331085
196	0x3e312045	0.17297466
197	0x3d78aaec	0.06070988
198	0xbcd6a818	-0.0262032
199	0x3d8edc6e	0.069756374
200	0x3de0996e	0.109667644
201	0xbcc78050	-0.024353176
202	0xbe2e3071	-0.17010666
203	0x3e2498ab	0.16073863
204	0x3d73d794	0.059531763
205	0xbcc97f90	-0.02459696
206	0xbe091ad6	-0.13389143
207	0x3db6b3de	0.08921026
208	0xbd77476c	-0.060370848
209	0xbbda81c0	-0.0066682994
210	0xbdf02bb7	-0.11727088
211	0xbdcd1123	-0.10013034
212	0x3e3847ed	0.17996188
213	0xbdfefb17	-0.12450235
214	0xbe01cd9a	-0.12676087
215	0x3dc65312	0.09683813
216	0x3dcfe08e	0.10150252
217	0x3ddf0a06	0.10890584
218	0x3e0a2d49	0.13493837
219	0xbda83434	-0.08213082
220	0x3e2d247d	0.1690845
221	0xbe3f45da	-0.1867899
222	0xbd22d024	-0.03974928
223	0x3e13e013	0.14440946
224	0x3e17c8f5	0.14822753
225	0xbbfa0fa0	-0.007631257
226	0x3ddec872	0.10878076
227	0x3c583770	0.013196811
228	0xbd53dd40	-0.051724672
229	0xbd088c38	-0.033336848
230	0x3e049a91	0.12949587
231	0x3c970a00	0.018437386
232	0x3d275294	0.040850237
233	0xbe3622b6	-0.17786679
234	0x3d880bda	0.066428855
235	0xbdb4c0b0	-0.08825815
236	0x3e25f759	0.16207637
237	0xbdf4a873	-0.11946192
238	0x3e3ce3d3	0.18446283
239	0x3e0a374f	0.13497661
240	0xbe03a3b6	-0.1285542
241	0xbc717760	-0.014737934
242	0x3dff50ba	0.12466569
243	0x3dc7e672	0.09760751
244	0x3df02396	0.117255375
245	0xbe2be212	-0.16785458
246	0x3e016393	0.12635641
247	0xbd0d0a28	-0.034433514
248	0x3e2367c9	0.1595756
249	0xbe2dbe67	-0.16967164
250	0xbd243b60	-0.040095687
251	0xbdbfddd9	-0.09368486
252	0x3dade77e	0.08491419
253	0x3e13cbb1	0.14433171
254	0x3d3a71e4	0.04551877
255	0xbe1a1019	-0.15045203

small_img_cnn.0.bias f4 [32]
0	0x3dab325a	0.08359213
1	0x3ce9b938	0.028530702
2	0xbe208328	-0.15675032
3	0xbe138260	-0.14405203
4	0x3d254b48	0.040354997
5	0x3ca0c968	0.019627288
6	0xbe3c6022	-0.18396047
7	0xbc9b5978	-0.01896356
8	0xbd5bab00	-0.053629875
9	0x3dc372de	0.095433936
10	0x3e03404b	0.12817495
11	0x3dcf5592	0.10123743
12	0xbd4cf954	-0.050042465
13	0xbd1c54cc	-0.038166806
14	0x3e37295d	0.17886873
15	0xbd5336d8	-0.051565975
16	0x3dec688e	0.1154338
17	0xba56b400	-0.0008190274
18	0xbe02cba0	-0.1277299
19	0xbdec8d30	-0.11550367
20	0x3d814fba	0.06314035
21	0xbe36d53f	-0.17854784
22	0xbd173d60	-0.036923766
23	0xbd61a080	-0.055084705
24	0x3df6f462	0.12058331
25	0xbe1f2235	-0.15540393
26	0xbd09d55c	-0.03365074
27	0xbdb43e44	-0.08800939
28	0xbdae620c	-0.08514795
29	0x3cbfb748	0.023402825
30	0x3e0c30df	0.13690518
31	0xbe111356	-0.14167532

small_img_cnn.3.weight f4 [64, 32, 3, 3]
0	0xbce581f9	-0.028016077
1	0x3d4f49ed	0.05060761
2	0x3bf25278	0.007395085
3	0x3cf6179e	0.030040558
4	0xbc42d5ec	-0.011891823
5	0x3d2ccf65	0.042189974
6	0x3cfead0a	0.03108837
7	0xbc805ae6	-0.015668344
8	0xbceab47c	-0.028650515
9	0xbd5f5f96	-0.054534517
10	0x3d5154e3	0.051106345
11	0xbd0130f2	-0.03154082
12	0xbd36e2f6	-0.04465004
13	0x3d1d0ffd	0.038345326
14	0xbcb70002	-0.02233887
15	0xbd4b4888	-0.049629718
16	0x3d149e4b	0.036283772
17	0xbc98395c	-0.018582039
18	0xbd3dbf08	-0.04632476
19	0xbb0fd290	-0.0021945573
20	0x3d16072f	0.036627945
21	0x3c3eabcc	0.011637639
22	0x3d5a6d1b	0.053326707
23	0xbd5c7142	-0.05381895
24	0x3c5eca6c	0.013598066
25	0x3ca37eba	0.019957889
26	0x3c3f1f4c	0.011665177
27	0xbaae9380	-0.0013319105
28	0xbce0d15a	-0.027443577
29	0xbc2cb9cc	-0.010542344
30	0xbc2770c0	-0.010219753
31	0xbd1a5899	-0.03768215
32	0x3c6ea9ec	0.01456688
33	0xbcde0dba	-0.027106155
34	0x3d312c49	0.043255124
35	0xbcf02713	-0.029315507
36	0xbd2eac61	-0.042644862
37	0x3c27db54	0.010245163
38	0xbaf9e740	-0.001906611
39	0x3d335489	0.04378179
40	0xbd6744c7	-0.056462076
41	0x3c0ea78c	0.0087069385
42	0xbd6fe0d2	-0.058564015
43	0xbd17e227	-0.03708091
44	0x3d2a0399	0.041507337
45	0xbd54918e	-0.051896624
46	0xbcb33ada	-0.021878649
47	0x3c1658b4	0.009176422
48	0x3cc89506	0.024485122
49	0xbcded882	-0.027202848
50	0xbcae0fb4	-0.021247722
51	0xbb515050	-0.003193874
52	0xbc6cda68	-0.014456369
53	0x3c34e95c	0.011041965
54	0xbd343913	-0.043999743
55	0xbc08a838	-0.008340888
56	0x3d42d263	0.04756392
57	0xbcd23088	-0.025657907
58	0xbd0c1864	-0.03420295
59	0x3d2d123f	0.04225373
60	0x3d659953	0.056054424
61	0xbd4b7b06	-0.04967787
62	0xbbc68d70	-0.006059341
63	0xbcd2b13c	-0.025719278
64	0x3d1494b3	0.036274623
65	0xbcf70a6c	-0.030156337
66	0xbc13ea48	-0.009028025
67	0x3b99fcd8	0.004699331
68	0xbd1f1a20	-0.038843274
69	0x3c6a5884	0.01430333
70	0x3d2289d5	0.039682228
71	0xbbf8bf48	-0.007591162
72	0xbbf4a7a0	-0.0074662715
73	0x3d6cedfd	0.05784415
74	0x3cb5446e	0.022127356
75	0xbd16746c	-0.036732122
76	0x3c046274	0.008080114
77	0x3b6889d0	0.0035482533
78	0xbba56060	-0.005046889
79	0xbcf9ebfe	-0.030508038
80	0x3bd83058	0.00659756
81	0xbd65c16c	-0.056092665
82	0x3aac9980	0.0013168305
83	0x3c394114	0.01130702
84	0x3c74c194	0.014938731
85	0x3babcfc8	0.0052432753
86	0x3d359883	0.0443349
87	0x3c0c0fec	0.008548718
88	0x3d65fe1b	0.056150537
89	0x3d2d3b71	0.042293016
90	0xbc7cb760	-0.015424579
91	0xbbd8ce28	-0.0066163726
92	0x3d433d6b	0.047665995
93	0x3d0ce6fd	0.034399975
94	0xbd6b76ae	-0.05748623
95	0x3d5e3959	0.05425391
96	0xbd30bffa	-0.043151833
97	0x3cad53c2	0.021158103
98	0x3d3f0ac1	0.046641115
99	0xbd47977c	-0.04872845
100	0x3d688ff1	0.0567779
101	0xbcc388e6	-0.02386899
102	0x3c2bcfac	0.010486525
103	0x3d3e8423	0.046512734
104	0xbbd96860	-0.006634757
105	0x3968e200	0.00022209436
106	0xbd574e30	-0.0525648
107	0x3c09bf14	0.008407373
108	0x3ba29c48	0.004962478
109	0x3d0ff7b1	0.035148326
110	0xbc888686	-0.016665708
111	0x3c5452b4	0.012959171
112	0x3d345471	0.044025842
113	0xbb21cc10	-0.002468828
114	0xbd5bd500	-0.05366993
115	0x3ab382e0	0.001369562
116	0x3d3adbb7	0.045619693
117	0x3d3dcb2f	0.04633635
118	0xbcfe1608	-0.031016365
119	0x3d309c13	0.043117594
120	0x3d348519	0.044072244
121	0x3d569d09	0.052395854
122	0xbd49ed5a	-0.04929862
123	0x3d5f1643	0.05446459
124	0xbd38ccd3	-0.04511721
125	0x3ca20b5a	0.019780803
126	0xbcc0b0ee	-0.023521867
127	0xbd70ab74	-0.05875726
128	0xbcdb522e	-0.026772585
129	0xbc621130	-0.013798043
130	0x3d48c8d9	0.04901967
131	0xbc8d3388	-0.017236486
132	0xbd13ac18	-0.036052793
133	0xbd277d81	-0.040891174
134	0xbd0d046e	-0.034428053
135	0x3b5b5810	0.0033469237
136	0xbd656fc4	-0.05601479
137	0xbcf8b286	-0.030358564
138	0xbd26f4b8	-0.040760726
139	0xbc743df8	-0.014907353
140	0x3c00f06c	0.007869821
141	0x3b9680e8	0.0045930035
142	0xbbac0550	-0.0052496567
143	0x3c84a876	0.01619361
144	0x3d62ea6b	0.05539934
145	0x3d65d23b	0.056108695
146	0x3ba5f718	0.0050648563
147	0x3d4a7583	0.049428474
148	0x3d1fc871	0.039009515
149	0xbcb6bff0	-0.02230832
150	0x3d18d88d	0.037315894
151	0xbd0fce10	-0.035108626
152	0x3c7a04fc	0.015259977
153	0xbd4b1a28	-0.04958549
154	0xbca90c34	-0.020635702
155	0xbcd9c156	-0.026581448
156	0xbd207da5	-0.039182324
157	0xbd6d29e0	-0.057901263
158	0xbd02c7ea	-0.031928934
159	0xbd123020	-0.035690427
160	0x3d12a7c5	0.03580453
161	0x3ca0535a	0.019570995
162	0x3c94f1f2	0.018181775
163	0xbd3377cc	-0.04381542
164	0xbd4b875e	-0.049689643
165	0x3c50385c	0.01270875
166	0xbcc832f8	-0.024438366
167	0x3d2f6885	0.042824287
168	0x3b5073d0	0.003180731
169	0xbd651dba	-0.055936553
170	0xbd4118d4	-0.04714282
171	0x3d549711	0.05190188
172	0x3aff5560	0.00194804
173	0xbc3f9cd4	-0.011695106
174	0x3aff7100	0.0019488633
175	0xbc8bb1ea	-0.01705261
176	0x3c7cc534	0.015427876
177	0x3d056e6d	0.032576013
178	0x3d359019	0.044326875
179	0x3c9c0036	0.01904307
180	0xbd170642	-0.036871202
181	0x3d3f38e7	0.046685126
182	0xbd070108	-0.032959968
183	0x3d3209e5	0.043466467
184	0x3d48a1e1	0.048982505
185	0xbb40d5a0	-0.0029424205
186	0xbcd3e7ce	-0.025867369
187	0x3cea18e2	0.028576318
188	0xbcbde7b2	-0.02318177
189	0xbb5308a0	-0.0032201186
190	0xbd480acf	-0.048838433
191	0x3748f000	1.1976808e-05
192	0xbd5d29ac	-0.05399482
193	0xbd4683f5	-0.048465688
194	0xbc8d5878	-0.0172541
195	0xbc329834	-0.010900546
196	0xbc06561c	-0.008199241
197	0xbd6d3c1f	-0.057918664
198	0x3ba9a878	0.0051775537
199	0x3d2536dd	0.040335525
200	0x3ce568b2	0.028004024
201	0x3d57c379	0.05267665
202	0x3d2c056f	0.04199737
203	0xba0d0e00	-0.00053808093
204	0x3cc51632	0.024058435
205	0x3d128469	0.035770807
206	0xbd304e6f	-0.04304355
207	0x3c7e67ec	0.015527707
208	0xbc1981f0	-0.009369358
209	0x37515000	1.2475997e-05
210	0xbcd559bc	-0.026043765
211	0xbd70d480	-0.058796406
212	0x3d02b38b	0.031909507
213	0xbc7f4008	-0.015579231
214	0xbd0b695a	-0.034036018
215	0xbd43295a	-0.047646858
216	0x3bd20cc8	0.006410215
217	0x3d448d83	0.04798652
218	0x3c4efdd4	0.0126337595
219	0xbbdd6660	-0.006756589
220	0xbb9e5130	-0.0048314556
221	0x3d5d91fd	0.054094303
222	0x3d633f4f	0.055480298
223	0xbd4ee352	-0.05050976
224	0x3d427d0b	0.04748253
225	0xbd2da326	-0.04239192
226	0x3d433afb	0.04766367
227	0x3d22ee63	0.039778125
228	0x3b613050	0.0034361072
229	0xbb2eaaa0	-0.0026651993
230	0xbd0bf70c	-0.03417115
231	0xbd4994a4	-0.04921402
232	0xbd4f5f04	-0.050627723
233	0x3d6c2841	0.057655577
234	0xbc262418	-0.010140441
235	0x3d2c1915	0.042016108
236	0x3c710c6c	0.014712434
237	0xbc1bd360	-0.009510845
238	0x3c362dd4	0.011119325
239	0xbcf529f2	-0.029927228
240	0x3ce2c872	0.02768347
241	0x3c62068c	0.013795506
242	0xbd60a08a	-0.054840602
243	0x3d1e112b	0.03859059
244	0xbd0bb6b1	-0.034109775
245	0x3bf60498	0.007507872
246	0x3ca3ef4e	0.02001157
247	0x3d3a45d1	0.04547674
248	0xbd45b258	-0.048265785
249	0x3cdeba0a	0.02718832
250	0xbcbf0b1a	-0.023320723
251	0xbb61af50	-0.003443677
252	0x3c9fecba	0.01952206
253	0xbd5a4e4a	-0.05329732
254	0x3b11eb20	0.002226539
255	0x3cb4a85a	0.022052933

small_img_cnn.3.bias f4 [64]
0	0xbd2816a0	-0.041037202
1	0x3bd1e5a8	0.006405551
2	0xbd3f3850	-0.046684563
3	0x3b078ba0	0.0020682588
4	0x3d62b7fb	0.05535124
5	0x3d0db8d9	0.034600113
6	0x3cf00d0e	0.0293031
7	0x3ccf6abe	0.025319453
8	0xbbbbc128	-0.005729813
9	0x3bacf6b8	0.0052784346
10	0xbcd7dabe	-0.026349422
11	0x3d69c211	0.05706984
12	0x3d6d5c1b	0.057949167
13	0x3a574700	0.0008212179
14	0xbd0911d0	-0.033464253
15	0x3d40c06b	0.047058504
16	0x3c280614	0.010255355
17	0x3c71c48c	0.014756333
18	0x3b4a4df0	0.0030869208
19	0x3b689c70	0.0035493635
20	0xbd35b8e5	-0.044365782
21	0xbd29f2e6	-0.04149141
22	0x3b9d22e8	0.004795421
23	0xbd57e974	-0.052712873
24	0x3cf34eae	0.029700603
25	0x3cefd226	0.029275011
26	0x3d443f27	0.04791179
27	0xbce03080	-0.027366877
28	0x3c614094	0.013748307
29	0x3d35c8b1	0.044380847
30	0x3d59827d	0.05310296
31	0xbd59a727	-0.053137925
32	0x3c671acc	0.01410551
33	0xbcfab29a	-0.030602742
34	0xbcf46f23	-0.02983815
35	0x3ca40d06	0.020025741
36	0xbd355f50	-0.04428035
37	0xbcb99666	-0.022654723
38	0xbcddb842	-0.0270654
39	0xbafe12c0	-0.001938425
40	0x3b587090	0.0033026077
41	0x3cc850da	0.024452616
42	0x3d2d2009	0.04226688
43	0xbbc09ec0	-0.0058782995
44	0x3d518c2b	0.051159065
45	0xbca657e6	-0.020305585
46	0xbc8a8702	-0.01691008
47	0x3b7fc4f0	0.0039027296
48	0xbd131b67	-0.035914805
49	0x3d4e6a79	0.05039451
50	0x3d188011	0.03723151
51	0x3d017f3b	0.031615477
52	0x3c10d79c	0.008840468
53	0x3d1bb813	0.038017344
54	0xbd406d4f	-0.046979245
55	0x3d085c2d	0.03329103
56	0x3d3c534b	0.045977872
57	0xbb0b10d0	-0.0021219738
58	0xbcc3d058	-0.023903057
59	0xbd6d290f	-0.057900485
60	0x3d0a3403	0.03374101
61	0x3d40453d	0.04694103
62	0x3d290f51	0.041274372
63	0xbc547c38	-0.012969069
