mbis.pth (torch, 766690 bytes, 36 tensors)

field_cnn.0.weight f4 [32, 3, 3, 3]
0	0xbce2c71d	-0.027682835
1	0xbeb86410	-0.36013842
2	0xbee0b290	-0.43886232
3	0xbddaa748	-0.106764376
4	0xbe442884	-0.1915608
5	0xbe80f3d9	-0.2518604
6	0xbe4d7240	-0.20063114
7	0xbd59fa1d	-0.053217042
8	0xbe93876c	-0.28814256
9	0x3f10859a	0.5645386
10	0x3dc62af4	0.096761614
11	0x3d9a19d0	0.075244546
12	0x3f078726	0.52940595
13	0x3e82c3a8	0.255399
14	0x3e156216	0.14588198
15	0x3dae15a8	0.08500224
16	0xbd5dbb12	-0.054133482
17	0x3e3bf173	0.18353824
18	0x3ec40046	0.3828146
19	0x3ed59754	0.41717017
20	0x3ecde4a5	0.40213504
21	0x3f3afcee	0.7304219
22	0x3f41ba24	0.75674653
23	0x3f477ba0	0.7792301
24	0x3f45a54c	0.7720535
25	0x3f208c0c	0.62713695
26	0x3f4e33e3	0.8054792
27	0x3c2dcad4	0.01060744
28	0xbe996ff1	-0.29968217
29	0xbdd9e39d	-0.10639117
30	0x3df6b8b7	0.1204695
31	0xbdef5327	-0.11685782
32	0xbc6d83c5	-0.014496748
33	0xbdadcff8	-0.084869325
34	0xbe3b57a8	-0.18295157
35	0xbe61822a	-0.2202231
36	0x3ef60e13	0.48057613
37	0x3e703b8f	0.2346022
38	0x3d8fb94f	0.07017767
39	0x3eb42c83	0.3519021
40	0x3efca157	0.49341843
41	0x3f3231e4	0.6960738
42	0x3e7ea061	0.24865867
43	0x3ebd6ea7	0.36998484
44	0x3e8c7a5d	0.27437106
45	0xbdc0366a	-0.09385379
46	0xbc81b4dc	-0.01583331
47	0xbe156ed2	-0.14593056
48	0xbe344509	-0.1760446
49	0xbe03c6b1	-0.12868764
50	0xbec76b54	-0.38949072
51	0xbe45ec76	-0.19328484
52	0xbf000290	-0.5000391
53	0xbefbcfd5	-0.49182
54	0x3d1492b4	0.03627272
55	0x3e1e9ac9	0.15488733
56	0x3e0a6fde	0.13519236
57	0xbe04d37e	-0.12971303
58	0x3e27fddd	0.16405435
59	0x3d4f85fa	0.05066488
60	0xbd0030c7	-0.031296518
61	0x3e6b4e96	0.22979197
62	0x3e15cddd	0.14629312
63	0xbedd3714	-0.43206084
64	0xbda86ce6	-0.08223896
65	0xbe25d786	-0.16195497
66	0xbedd1ab5	-0.43184438
67	0xbea71289	-0.3263133
68	0xbe8961d9	-0.26832464
69	0x3d1ee399	0.038791273
70	0xbddd0b5c	-0.10793182
71	0x3d875c73	0.0660943
72	0xbdf09ee0	-0.11749053
73	0xbec7c231	-0.39015344
74	0xbf225f04	-0.6342623
75	0xbe84fd7e	-0.2597465
76	0xbe73aac0	-0.23795605
77	0xbea2b963	-0.31782064
78	0xbd407401	-0.04698563
79	0xbe802e22	-0.25035197
80	0xbe9a8ad5	-0.30184045
81	0x3ec202be	0.37892717
82	0x3d7cb339	0.061694358
83	0x3de8951d	0.11356566
84	0x3e5256d5	0.20540936
85	0x3e03aeff	0.12859724
86	0x3c0b3fb5	0.008499076
87	0x3e9a6571	0.3015552
88	0xbd6a2154	-0.05716069
89	0x3eae66de	0.34062856
90	0x3ea02095	0.31274858
91	0x3e3697f3	0.17831402
92	0x3ebb92f5	0.36635557
93	0xbdadf85e	-0.08494638
94	0x3f152b3f	0.58269113
95	0x3d926adf	0.0714929
96	0xbe0621bb	-0.13098805
97	0xbc3e6b0a	-0.0116222
98	0x3e927f53	0.28612766
99	0x3e92e1ca	0.28687888
100	0x3f0134a2	0.50470936
101	0x3ebdadbd	0.37046614
102	0x3ea34c65	0.31894222
103	0x3eb749fc	0.35798633
104	0x3e913532	0.28360897
105	0xbcac3114	-0.021019496
106	0x3e10501c	0.1409306
107	0x3f05e87a	0.52307856
108	0xbe064cfb	-0.13115303
109	0xbeaaabea	-0.33334285
110	0x3ed73228	0.42030454
111	0xbf08a52e	-0.53377044
112	0xbf300bf2	-0.6876823
113	0x3de0174c	0.109419435
114	0xbf6282b1	-0.8848067
115	0xbf2f587c	-0.6849439
116	0x3dcdd3a2	0.100501314
117	0xbba5942f	-0.0050530653
118	0x3d4c8a36	0.049936496
119	0x3f197c33	0.5995514
120	0xbed7cbb8	-0.42147613
121	0xbe965343	-0.293604
122	0x3de221e8	0.11041623
123	0xbf18e996	-0.59731424
124	0xbdb2582e	-0.08708225
125	0x3e8c0ab9	0.2735193
126	0x3da81f27	0.08209067
127	0xbd64dab4	-0.055872634
128	0x3edd8626	0.4326641
129	0xbd120f9b	-0.035659414
130	0xbd34fd0f	-0.044186648
131	0x3eb3d759	0.35125235
132	0xbeaa1d67	-0.33225557
133	0x3e511de6	0.20421562
134	0x3e56422c	0.2092368
135	0x3eea2b35	0.4573609
136	0x3e3d09d1	0.18460776
137	0x3e91b405	0.28457657
138	0x3eab6a8b	0.33479723
139	0x3e8f9f0f	0.2805104
140	0x3e812a5f	0.2522764
141	0x3ec54a66	0.38533324
142	0x3ea1f811	0.31634572
143	0xbdba1aeb	-0.090871654
144	0x3e484a9f	0.19559716
145	0x3e367b76	0.17820534
146	0x3dd2005f	0.10253977
147	0x3e8e2c7c	0.27768314
148	0x3e42f075	0.1903704
149	0x3e869321	0.26284125
150	0xbe48304c	-0.19549674
151	0xbd18f3dd	-0.03734194
152	0x3cb93bf7	0.022611601
153	0xbf324e3f	-0.69650644
154	0xbf4db18a	-0.8034903
155	0xbf2f1e9d	-0.6840609
156	0xbf13565e	-0.5755366
157	0xbf65fd87	-0.8983998
158	0xbf08a474	-0.53375936
159	0xbea47e87	-0.32127783
160	0xbf05e8b4	-0.523082
161	0xbe8efd17	-0.27927467
162	0xbde2e3ad	-0.11078582
163	0xbe3f8b1b	-0.18705408
164	0x3c003a22	0.00782636
165	0x3b199b45	0.0023438495
166	0xbde02e3f	-0.10946321
167	0xbecc8b2e	-0.39949936
168	0x3dd73098	0.105073154
169	0x3b3dacf4	0.00289422
170	0xbe6a68f5	-0.228916
171	0x3e68838b	0.2270643
172	0x3d835326	0.06412344
173	0x3d4ba552	0.04971821
174	0x3cd5afd4	0.026084818
175	0xbe52dc0a	-0.2059175
176	0xbe633f02	-0.22192004
177	0x3e0cbfac	0.13744992
178	0xbeb14b5f	-0.34627816
179	0x3e50e074	0.20398122
180	0xbef218b0	-0.4728446
181	0xbe5b4b42	-0.21415427
182	0xbf2b12d4	-0.66825604
183	0xbe0feb37	-0.14054571
184	0xbe7e7abe	-0.2485151
185	0xbf101d5f	-0.56294817
186	0xbec44ac6	-0.38338298
187	0xbeef4f77	-0.46740314
188	0xbe9856c8	-0.2975371
189	0xbddc41fe	-0.107547745
190	0xbea0d3ad	-0.31411496
191	0x3e788580	0.24269676
192	0x3e95cfa7	0.2925999
193	0xbda4ce5d	-0.08047173
194	0x3de8c238	0.11365169
195	0x3edbffa6	0.42968482
196	0x3e88b623	0.2670146
197	0x3db4a031	0.088196166
198	0x3e458905	0.1929055
199	0xbe94349d	-0.2894639
200	0x3ce99356	0.028512638
201	0x3ea7500e	0.32678264
202	0x385b1788	5.2235584e-05
203	0x3e3cd185	0.184393
204	0xb832f5de	-4.266749e-05
205	0xbd6c2da9	-0.057660732
206	0xbd8a4a93	-0.06752505
207	0xbcc7d584	-0.024393804
208	0xbd938aef	-0.07204234
209	0xbdf15010	-0.11782849
210	0xbe44db37	-0.19224249
211	0xbefee83d	-0.4978656
212	0xbe984953	-0.29743442
213	0xbedbf9f2	-0.4296413
214	0xbf2d8e37	-0.6779513
215	0xbe721570	-0.2364099
216	0xbebc2fe8	-0.367553
217	0xbeee32e8	-0.46523213
218	0xbebebf8a	-0.37255508
219	0xbdb4a103	-0.08819773
220	0xbe5c4597	-0.21510921
221	0xbebb3a7f	-0.36568066
222	0x3c21da2f	0.009878679
223	0xbe543b79	-0.20725812
224	0xbe5fdc9a	-0.21861497
225	0x3d72997b	0.0592284
226	0xbe1a5da5	-0.15074785
227	0xbd829efd	-0.06377981
228	0x3ee93360	0.4554701
229	0x3e50fc74	0.20408803
230	0x3dffae3b	0.12484404
231	0x3f032d81	0.5124131
232	0x3c71f66d	0.014768225
233	0x3d5b819e	0.05359041
234	0x3f015be2	0.5053083
235	0x3f29201f	0.6606464
236	0x3f322525	0.6958793
237	0x3f2d93a9	0.67803437
238	0x3f36214b	0.7114455
239	0x3f69ef7d	0.91381055
240	0x3f110772	0.56651986
241	0x3f6c8745	0.92393905
242	0x3f4a5e01	0.7904969
243	0xbe8629bd	-0.2620372
244	0xbe5f5e7f	-0.21813391
245	0xbf01aa2d	-0.5065029
246	0xbe11b08e	-0.14227507
247	0xbee25d3d	-0.4421176
248	0xbecfc1ca	-0.40577537
249	0xbd6f79d9	-0.058465812
250	0xbea0032a	-0.31252414
251	0xbce2cef7	-0.02768658
252	0x3e3e2b66	0.18571243
253	0xbc15b7e7	-0.009138084
254	0xbe0cf6dc	-0.13766044
255	0x3e9f800d	0.31152382

field_cnn.0.bias f4 [32]
0	0x3f7fe639	0.99960667
1	0xbf5ae56e	-0.8550633
2	0x3d32820a	0.043581046
3	0xbb8b1157	-0.0042440104
4	0x3f0d678f	0.5523614
5	0xbed0302c	-0.40661752
6	0x3cc0ed60	0.02355069
7	0xbdc77da8	-0.09740764
8	0xbe199aab	-0.15000407
9	0xbe141430	-0.14460826
10	0x3e531de0	0.20616865
11	0x3e11173f	0.14169024
12	0xbe8bd730	-0.27312613
13	0xbe9a0683	-0.30083093
14	0x3ea090e9	0.31360558
15	0xbcb7310d	-0.022362256
16	0xbf01547a	-0.50519526
17	0x3ea997a9	0.3312352
18	0x3eb14fef	0.34631297
19	0x3e85e341	0.26149943
20	0xbe6dbcd6	-0.23216566
21	0xbc4bdb28	-0.012442388
22	0x3ef081be	0.46973985
23	0xbf3137ee	-0.69225967
24	0xbd8fea2d	-0.07027087
25	0xbdc55717	-0.09635752
26	0x3c475b53	0.0121677695
27	0xbecdb62a	-0.40178043
28	0x3df6e611	0.120556004
29	0x3ea80e8f	0.32823607
30	0x3dde8451	0.10865081
31	0xbe909b95	-0.282437

field_cnn.1.weight f4 [32]
0	0x3fa24b00	1.2679138
1	0x3f8e8598	1.113452
2	0x3f151071	0.5822821
3	0x3fa26ebc	1.2690043
4	0x3f83aabf	1.0286483
5	0x3f98d6e2	1.1940577
6	0x3f6ce16a	0.92531455
7	0x3f74e40b	0.95660466
8	0x3f950695	1.1642634
9	0x3f8ddd79	1.1083213
10	0x3f874cc3	1.0570301
11	0x3f8a3cbd	1.0799786
12	0x3f9dc6ec	1.2326331
13	0x3f523201	0.8210755
14	0x3f811b78	1.0086508
15	0x3f827dd3	1.0194649
16	0x3f8020f4	1.0010056
17	0x3f87bd82	1.0604708
18	0x3fc47ab2	1.5349944
19	0x3f207c3e	0.6268958
20	0x3fa9103a	1.3208077
21	0x3f8e1867	1.1101197
22	0x3f9c079c	1.2189822
23	0x3f80ce47	1.0062951
24	0x3f6d3995	0.9266599
25	0x3f44969c	0.7679231
26	0x40045693	2.067784
27	0x3f9570b5	1.167502
28	0x3f8bb94a	1.0915921
29	0x3f8e6017	1.1123074
30	0x3fd0637f	1.6280364
31	0x3f81b32e	1.0132806

field_cnn.1.bias f4 [32]
0	0x3eb33219	0.3499916
1	0xbcb750cb	-0.022377392
2	0xbe540336	-0.2070435
3	0xbdd3fc95	-0.103509106
4	0xbf305f32	-0.68895257
5	0x3e9ab56a	0.30216533
6	0xbf313416	-0.692201
7	0xbc3412d9	-0.010990822
8	0x3e3d8214	0.18506652
9	0x3e805afc	0.25069416
10	0xbd4b1c81	-0.04958773
11	0x3c41dee7	0.011832929
12	0x3f492559	0.78572613
13	0x3d35d895	0.044396
14	0x3f2789c2	0.65444577
15	0x3d86955b	0.06571456
16	0xbdc354af	-0.095376365
17	0x3f16ecc4	0.58955026
18	0xbda4b1cd	-0.08041725
19	0x3dab2e8a	0.08358486
20	0xbeea9b8c	-0.45821798
21	0xbe5f5931	-0.21811368
22	0x3e8c061d	0.27348414
23	0xbd7ff191	-0.062486235
24	0x3f4b0ae2	0.7931348
25	0x3ed25ffb	0.41088852
26	0x3df36087	0.118836455
27	0xbe13048b	-0.14357202
28	0xbf97061b	-1.1798738
29	0xbef4aaf1	-0.47786668
30	0x3f1953d7	0.59893554
31	0xbe474401	-0.19459535

field_cnn.1.running_mean f4 [32]
0	0x408cde09	4.402104
1	0xbec6e547	-0.388468
2	0xc00f49e6	-2.2388854
3	0x40829f64	4.081957
4	0xbfaae688	-1.3351603
5	0xbf7ae63c	-0.9800756
6	0xc03833cc	-2.8781614
7	0xbf2c85f5	-0.673919
8	0x403a508e	2.9111667
9	0x3fd4cede	1.6625631
10	0xc01f2321	-2.486519
11	0x4082b234	4.0842533
12	0xc0081609	-2.126345
13	0xc035deb8	-2.8417187
14	0xbf9273bf	-1.1441573
15	0x3faea42d	1.3643852
16	0xbf210d04	-0.62910485
17	0xbf4c846b	-0.79889554
18	0x4071f1a9	3.7803748
19	0xc0179b20	-2.368843
20	0xc08914e4	-4.2838
21	0x405d653f	3.4593046
22	0x40128126	2.2891326
23	0x40474f2a	3.1142068
24	0xbfb31ca8	-1.399312
25	0xbfd4565a	-1.6588852
26	0xc0737e74	-3.804593
27	0x3fc27c94	1.5194268
28	0xc07ea884	-3.9790354
29	0xc00d323d	-2.2061913
30	0x3f851d02	1.0399477
31	0x403041ea	2.754023

field_cnn.1.running_var f4 [32]
0	0x3f5f74ed	0.8728779
1	0x3daf1015	0.08547989
2	0x3e9562fa	0.29177076
3	0x3f3ee670	0.7457037
4	0x3ed4827d	0.41505805
5	0x3ee45541	0.44596294
6	0x3ee52eef	0.4476237
7	0x3de5c9ca	0.11220129
8	0x3f6d3315	0.9265607
9	0x3f0552e2	0.52079594
10	0x3ea17bdd	0.31539813
11	0x3f345f93	0.70458335
12	0x3ebade84	0.3649789
13	0x3edaa847	0.4270651
14	0x3eb97c25	0.36227527
15	0x3eaa843b	0.3330401
16	0x3d89bc6b	0.06725391
17	0x3dc7e794	0.09760967
18	0x3f457f83	0.7714769
19	0x3eb1fa32	0.34761196
20	0x3f6384fb	0.8887479
21	0x3f10ca3f	0.56558603
22	0x3ea229a8	0.31672406
23	0x3f622c25	0.8834861
24	0x3e2fccd5	0.17167981
25	0x3e15e2dd	0.14637323
26	0x3f976285	1.1826941
27	0x3e49ed85	0.19719513
28	0x3f471383	0.7776415
29	0x3ecaebbf	0.39632985
30	0x3eaed3cf	0.34145972
31	0x3ed98314	0.42482817

field_cnn.4.weight f4 [64, 32, 3, 3]
0	0xbe5849b9	-0.21121873
1	0xbe38571a	-0.18001977
2	0xbe37db92	-0.17954853
3	0xbe28d9c4	-0.16489321
4	0xbe168d85	-0.14702423
5	0xbf1d7353	-0.61504096
6	0xbd4f54e7	-0.05061808
7	0xbcd3f116	-0.025871795
8	0xbeb8c0e9	-0.3608468
9	0xbe3d760e	-0.18502066
10	0xbdea77d7	-0.11448639
11	0xbdf1a505	-0.11799053
12	0x3cb33f33	0.021880722
13	0x3d8d8425	0.0690997
14	0xbe1f15a5	-0.155356
15	0x3d9e6cea	0.077356175
16	0x3d97b27b	0.07407089
17	0x3e431a46	0.19052991
18	0x3e00435e	0.12525699
19	0x3e81e346	0.25368708
20	0x3e5a1efe	0.21300885
21	0xbdaaa934	-0.08333054
22	0x3d9e3c9f	0.07726406
23	0x3d2c2436	0.04202672
24	0xbe0e631b	-0.13904993
25	0xbce926be	-0.028460857
26	0xbbacb459	-0.0052705226
27	0xbdf5e35a	-0.120062545
28	0xbdbb6d3a	-0.09151693
29	0xbd9236e8	-0.07139379
30	0xbca56a59	-0.020192312
31	0xbde04e86	-0.10952477
32	0xbdb44464	-0.08802107
33	0xbd60da0d	-0.05489545
34	0xbdec3c9c	-0.11534998
35	0xbe383523	-0.1798902
36	0xbcae51e5	-0.021279285
37	0xbdec0df1	-0.115260966
38	0x3d63868f	0.055548247
39	0xbe6fae2f	-0.2340629
40	0xbde92dbc	-0.11385676
41	0xbd64fe6a	-0.05590669
42	0xbe1b5e5d	-0.15172715
43	0xbdab25f0	-0.083568454
44	0x3ca09603	0.019602781
45	0x3d4d289d	0.05008756
46	0x3d7c2779	0.06156108
47	0x3e31243f	0.17298983
48	0x3d525959	0.05135474
49	0x3e0725d4	0.13198024
50	0xbd97de6c	-0.074154705
51	0x3eb16513	0.34647426
52	0x3e827f3f	0.25487706
53	0x3e1ff74c	0.1562168
54	0xbe5e6f7e	-0.21722218
55	0x3db72c88	0.089440405
56	0x3e956cd9	0.29184607
57	0xbd8d6686	-0.069043204
58	0x3def3ad5	0.11681143
59	0xbd87120a	-0.065952376
60	0xbd161e20	-0.036649823
61	0xbcf8be74	-0.030364253
62	0xbe6d3d3e	-0.23167893
63	0xbe166fb1	-0.14691044
64	0x3d2f87e4	0.042854205
65	0xbda6fb7e	-0.08153437
66	0x3d8589ef	0.06520449
67	0x3e0b6a17	0.13614689
68	0xbd5c827e	-0.053835385
69	0x3df2100c	0.11819467
70	0xbd4c5645	-0.04988696
71	0x3d901ba2	0.070365205
72	0xbe78423c	-0.24244016
73	0xbe537cd4	-0.20653087
74	0xbe2bd619	-0.1678089
75	0xbe9b62b2	-0.30348736
76	0xbe26e149	-0.16296877
77	0xbe43892b	-0.19095294
78	0xbdd62f3f	-0.1045823
79	0xbe4787d6	-0.19485411
80	0xbe9796ff	-0.29607388
81	0xbe4b9f38	-0.19884956
82	0xbe02be27	-0.1276785
83	0xbe51c8d0	-0.2048676
84	0xbdc3a408	-0.09552771
85	0xbdbe71f2	-0.09299077
86	0xbdc5010c	-0.0961934
87	0xbe579c5d	-0.21055742
88	0xbde02746	-0.10944991
89	0xbe1e848f	-0.15480255
90	0xbb945ba7	-0.0045275274
91	0x3e93d97f	0.28876874
92	0x3e7c7b42	0.24656394
93	0xbe7c1951	-0.24619032
94	0x3dffe429	0.1249469
95	0xbd3b2c0c	-0.045696303
96	0xbeb3b207	-0.35096762
97	0xbd95286e	-0.07283102
98	0xbd9564c6	-0.07294612
99	0xbe0dfdfd	-0.1386642
100	0xbdfabe2e	-0.12243305
101	0xbdfc9b03	-0.12334254
102	0xbe3b96a8	-0.1831919
103	0x3cc5b931	0.024136158
104	0xbd8d4cd7	-0.06899422
105	0xbdee4d0b	-0.116357885
106	0xbe1e8c75	-0.15483268
107	0xbe33d4c5	-0.17561634
108	0xbe109744	-0.14120203
109	0xbdfc5d3e	-0.12322472
110	0xbeab633b	-0.33474144
111	0xbd5752f3	-0.05256934
112	0xbe055fb2	-0.13024786
113	0xbe44a2fa	-0.19202796
114	0xbd73225b	-0.059358936
115	0xbe27bfa8	-0.16381705
116	0xbe53be27	-0.20678006
117	0x3d869dc2	0.06573059
118	0x3e015b1a	0.12632409
119	0x3f331e12	0.6996776
120	0xbd812102	-0.06305124
121	0x3de64a81	0.11244679
122	0x3e8aff80	0.27148056
123	0x3d80f052	0.062958375
124	0xbd9c804b	-0.076416574
125	0xbd0e3af5	-0.034724195
126	0x3ea3230e	0.31862682
127	0x3e381052	0.17974976
128	0x3ed5a61b	0.4172829
129	0xbe15bccf	-0.14622806
130	0x3e1353e5	0.14387472
131	0x3eabde8d	0.3356823
132	0x3daaa57e	0.083323464
133	0xbe33cad2	-0.17557839
134	0xbe6d926e	-0.2320039
135	0xbd23e032	-0.04000873
136	0x3ca657fc	0.020305626
137	0x3d96f92f	0.07371747
138	0x3d0a09fd	0.03370093
139	0x3ca19f75	0.019729355
140	0xbe1c4fe1	-0.15264846
141	0x3ecb8d14	0.39756072
142	0x3ddced60	0.10787463
143	0xbea6cf6f	-0.32580134
144	0x3d0f182d	0.034935165
145	0xbe7b62f1	-0.24549462
146	0x3e5471e4	0.20746571
147	0xbd48d438	-0.049030513
148	0xbe385c9d	-0.18004079
149	0xbcfa8dde	-0.030585226
150	0xbd8603d3	-0.06543698
151	0xbcbba696	-0.022906583
152	0x3e5b0461	0.21388389
153	0x3d8d30ec	0.06894097
154	0x3e1442fb	0.14478676
155	0x3e9e6a4e	0.3094048
156	0xbdc17354	-0.09445825
157	0xbd4edd5f	-0.050504085
158	0x3e2a5b9b	0.16636507
159	0x3afd77b0	0.0019338038
160	0x3d3f5032	0.04670734
161	0x3d55fdf1	0.05224413
162	0x3d05f842	0.03270746
163	0xbd7cd87f	-0.061729904
164	0xbe531799	-0.2061447
165	0x3ded28e4	0.11580065
166	0x3e0ac510	0.13551736
167	0xbeac78cd	-0.33685914
168	0x3ebe7af1	0.37203172
169	0x3e9b183b	0.30291924
170	0x3e0d3d82	0.13792995
171	0x3d37b9cb	0.04485492
172	0x3e50ccc2	0.20390609
173	0x3eaf4952	0.34235626
174	0xbdcb72c1	-0.09933997
175	0x3dc2473c	0.09486243
176	0x3e318c43	0.17338662
177	0xbe011ccc	-0.12608641
178	0x3dc059de	0.09392141
179	0x3d3f4bab	0.046703022
180	0xbe2da79f	-0.16958474
181	0xbd80b801	-0.06285096
182	0x3ea96c7e	0.33090585
183	0xbe286fb1	-0.16448857
184	0x3d918df3	0.07107153
185	0x3eaa57f6	0.33270234
186	0xbea47a67	-0.32124636
187	0xbbcce2af	-0.0062526087
188	0xbdd92ffe	-0.10604857
189	0x3d16a0ef	0.036774572
190	0x3cdde3b3	0.027086115
191	0xbe1f3fd4	-0.15551692
192	0xbc999d0f	-0.01875165
193	0xbd382563	-0.04495753
194	0xbd6ac93b	-0.057320815
195	0xbddd8a05	-0.10817341
196	0xbd1b111d	-0.037858117
197	0xbd4c0d86	-0.049817584
198	0x3cf9a88a	0.030475874
199	0xbefac6b8	-0.48979735
200	0xbf155102	-0.58326733
201	0xbd5a9302	-0.053362854
202	0xbd6268e1	-0.0552758
203	0xbe324873	-0.1741045
204	0x3cfd831f	0.030946312
205	0xbdc91307	-0.09818082
206	0xbe55c83d	-0.20877166
207	0xbdc64fcb	-0.09683188
208	0xbd5e9391	-0.05433995
209	0xbda265b7	-0.07929557
210	0xbdee8417	-0.11646288
211	0x3ce93b1c	0.028470568
212	0xbd732a34	-0.05936642
213	0xbcee0030	-0.029052824
214	0x3ac5cf4a	0.0015091684
215	0xbd7d79e2	-0.061883815
216	0xbca87957	-0.020565672
217	0xbb90c7eb	-0.0044183633
218	0x3d4f7c24	0.0506555
219	0xbd72b19e	-0.05925142
220	0xbe5ae09d	-0.21374746
221	0x3deb92c4	0.11502603
222	0xbd3e0e3d	-0.046400297
223	0xbd4e637e	-0.050387852
224	0xbd2d89df	-0.042367812
225	0xbd54052e	-0.051762752
226	0x3e275ce6	0.16344032
227	0x3ee7ff0f	0.45311782
228	0xbdb8ca73	-0.09022989
229	0x3d4df491	0.050282065
230	0x3da698a2	0.08134581
231	0x3b03feed	0.0020140961
232	0x3ddce108	0.10785109
233	0x3d5c9968	0.053857237
234	0xbe6db3a4	-0.23213059
235	0xbde503aa	-0.111823395
236	0x3d43ed12	0.04783351
237	0xbe4944c4	-0.19655138
238	0xbd9e38dd	-0.077256896
239	0x3dd3c330	0.103399634
240	0xbf17b7c0	-0.59264755
241	0xbed363aa	-0.41286975
242	0xbe9f0900	-0.31061554
243	0x3d9b33c9	0.075782366
244	0x3d6cceef	0.057814535
245	0xbea15861	-0.3151274
246	0xbd5346a8	-0.051581055
247	0xbe21ad0f	-0.15788673
248	0xbead8484	-0.33890164
249	0xbd8d4537	-0.06897967
250	0xbdcf7688	-0.1013003
251	0xbdd26d30	-0.10274732
252	0xbd0d9192	-0.034562655
253	0x3e21daf6	0.15806183
254	0x3e2f16cf	0.17098545
255	0xbe94d549	-0.29068974

field_cnn.4.bias f4 [64]
0	0x3e032cc2	0.12810043
1	0xbcd57a36	-0.026059251
2	0x3e7a9b61	0.24473335
3	0xbbb5b783	-0.005545558
4	0x3db52b6b	0.08846172
5	0xbe1d4439	-0.15358056
6	0x3e8a5254	0.27015936
7	0x3e3a92f3	0.18220119
8	0xbd245d7a	-0.04012821
9	0xbe65f640	-0.22457218
10	0x3d90c17b	0.070681535
11	0x3e266cfa	0.16252509
12	0x3d872db1	0.06600512
13	0xbea2821d	-0.31739894
14	0x3d2c2675	0.042028863
15	0xbe4da667	-0.20083009
16	0xbe8bcf8b	-0.2730678
17	0x3dd3f1fe	0.10348891
18	0x3bbf5696	0.0058391793
19	0x3bd79b77	0.006579812
20	0xbe488e91	-0.19585635
21	0xbc7d2725	-0.015451227
22	0xbc97ab84	-0.018514402
23	0xbea71cd5	-0.32639185
24	0x3e4843c6	0.19557104
25	0x3c7df57c	0.015500423
26	0xbc3076fc	-0.010770556
27	0x3c74cb86	0.014941102
28	0xbc15ff95	-0.009155174
29	0x3b1db127	0.002406189
30	0x3e131c9a	0.1436638
31	0x3ed22870	0.41046476
32	0xbcd5a7da	-0.026081014
33	0xbe97feb4	-0.2968651
34	0x3e2d9bd8	0.16953981
35	0xbe0dbc79	-0.13841428
36	0xbe783e0e	-0.24242422
37	0x3ebd70f1	0.3700023
38	0xbe0a5575	-0.13509162
39	0x3d18cf29	0.03730694
40	0xbdab7d38	-0.08373493
41	0x3e31b382	0.17353633
42	0xbe01e2ed	-0.12684222
43	0x3e00fa23	0.1259542
44	0x3bbf7e10	0.0058438852
45	0x3e445c31	0.19175793
46	0x3deb28fd	0.11482427
47	0x3e116f41	0.14202596
48	0x3d93bf53	0.072142266
49	0xbe0769a9	-0.132239
50	0xbd05df0a	-0.03268341
51	0xbe01f30e	-0.12690374
52	0x3c30dca7	0.010794795
53	0xbc1bcb37	-0.009508899
54	0x3ce3a349	0.027787821
55	0xbdce71d6	-0.10080306
56	0x3c6dc59e	0.014512448
57	0xbda0ab58	-0.07845181
58	0xbe13691d	-0.14395566
59	0x3dfadd30	0.122492194
60	0x3e769001	0.2407837
61	0xbe2a3aee	-0.16624042
62	0xbdab3d14	-0.08361259
63	0x3e974f3e	0.29552644

field_cnn.5.weight f4 [64]
0	0x3f6417ec	0.89099
1	0x3f970b69	1.1800357
2	0x4013ae36	2.307508
3	0x3f9f34b5	1.243796
4	0x3f41bf97	0.7568297
5	0x3f980ee6	1.1879547
6	0x3f77cfa5	0.96801215
7	0x3fa17308	1.261323
8	0x3f9a5fbc	1.2060466
9	0x3f75be28	0.9599328
10	0x3f871da2	1.0555918
11	0x3f8f7316	1.1206996
12	0x3f29e3cb	0.6636321
13	0x3f57080f	0.8399667
14	0x3fc2c89b	1.521747
15	0x3f6b161c	0.9183061
16	0x3faf84bf	1.3712386
17	0x3f0164cb	0.5054442
18	0x3ebd03bd	0.36916915
19	0x3f4dab5e	0.8033961
20	0x3f8a4886	1.0803382
21	0x3faaf6c9	1.3356563
22	0x3fb9c470	1.4513073
23	0x3f8c9352	1.0982459
24	0x3f5fef84	0.87474847
25	0x3f3299e7	0.69766086
26	0x3f6aebbc	0.9176595
27	0x3f9e0591	1.2345449
28	0x3f6be322	0.9214345
29	0x3fb26e8c	1.3939986
30	0x3f369885	0.71326476
31	0x3f843200	1.0327759
32	0x3fab5b31	1.3387204
33	0x3fa53717	1.2907437
34	0x3fc28c85	1.5199133
35	0x3faeb0d5	1.3647715
36	0x3fccbb44	1.5994649
37	0x3fa7b187	1.3101052
38	0x3f181f40	0.59422684
39	0x3fb9fca0	1.453022
40	0x3f83e465	1.0304075
41	0x3f43e8c8	0.7652707
42	0x3f394e3e	0.72385013
43	0x3f728017	0.947267
44	0x3f759631	0.959323
45	0x3ede8e21	0.4346781
46	0x3f252383	0.6450731
47	0x3f945072	1.158705
48	0x3fb55fb8	1.4169836
49	0x3f8b2adb	1.0872453
50	0x3f283744	0.6570933
51	0x3f6968ae	0.91175354
52	0x3fd55417	1.6666287
53	0x3fa1f15e	1.2651784
54	0x3f85192d	1.0398308
55	0x3f5f0291	0.8711329
56	0x3f6197b2	0.88122094
57	0x3f4cefcc	0.800534
58	0x3fb8986c	1.4421515
59	0x3f93b28c	1.1538863
60	0x3fb368df	1.4016379
61	0x3f729544	0.9475901
62	0x3f707eb5	0.9394334
63	0x3fb9a02f	1.4502009

field_cnn.5.bias f4 [64]
0	0xbf07e8c0	-0.53089523
1	0xbf0755b7	-0.52865165
2	0xbed7125b	-0.42006192
3	0xbf910302	-1.1329043
4	0x3e145891	0.1448691
5	0x3ebed94d	0.37275162
6	0xbf5f2940	-0.8717232
7	0x3f01e0fc	0.50733924
8	0x3e939c63	0.2883025
9	0xbf11bc6e	-0.56928146
10	0xbd8267f5	-0.063674845
11	0xbf67fe5c	-0.90622497
12	0x3fab95f6	1.340514
13	0x3e0e929e	0.13923118
14	0xbed98894	-0.42487013
15	0xbe7f03bc	-0.24903768
16	0x3ef98702	0.48735815
17	0xbf1f406e	-0.62207687
18	0xbf033754	-0.512563
19	0x3d4733ff	0.04863357
20	0xbf844691	-1.0334035
21	0x3ec4d0aa	0.38440448
22	0xbf1cf34a	-0.6130873
23	0xbe4a648e	-0.19764921
24	0xbe3f4f97	-0.18682705
25	0xbddf32ea	-0.10898383
26	0xbf9485d6	-1.1603343
27	0xbef6fd49	-0.48240116
28	0xbde9b664	-0.114117414
29	0xbf720e10	-0.9455271
30	0x3f097673	0.53696364
31	0xbf1c0ef8	-0.6096034
32	0xbe78c2b5	-0.24293025
33	0x3f15a0f3	0.58448714
34	0xbf241923	-0.64100856
35	0x3ee3887b	0.44440064
36	0x3e8c39f1	0.27387956
37	0x3dc3386a	0.095322445
38	0xbf378015	-0.7167981
39	0xbce43635	-0.02785788
40	0x3e83b2d1	0.25722364
41	0x3e37b5e7	0.17940484
42	0xbf82177b	-1.0163416
43	0xbf2191c8	-0.6311307
44	0xbf02cb54	-0.51091504
45	0xbf0914e5	-0.5354751
46	0xbf69d602	-0.91342175
47	0x3efa5f04	0.48900616
48	0xbf80e70f	-1.0070513
49	0xbf65f0a8	-0.8982034
50	0xbef0ebc0	-0.47054863
51	0x3e2fc87a	0.1716632
52	0xbf825dc1	-1.0184861
53	0xbe6bd2c0	-0.23029613
54	0xbf2c6f65	-0.67357475
55	0xbf0de759	-0.55431134
56	0x3f691815	0.9105237
57	0xbf08f802	-0.5350343
58	0x3efbae70	0.49156523
59	0xbf0ec02b	-0.55761975
60	0x3e3bb4df	0.18330716
61	0xbeb98758	-0.36236072
62	0x3e47cd1a	0.19511834
63	0x3f05e780	0.52306366

field_cnn.5.running_mean f4 [64]
0	0xc0dd2d05	-6.9117455
1	0xc0fddb05	-7.932986
2	0xc12791e8	-10.473122
3	0x4110a389	9.039926
4	0xc096240d	-4.6919007
5	0xc0da1dfc	-6.81616
6	0xc00783e4	-2.117425
7	0xc0e8a8e6	-7.2706175
8	0xc131c522	-11.110628
9	0x4112670e	9.15016
10	0xc1171627	-9.442908
11	0x4108e3c4	8.555607
12	0xc19aae86	-19.335217
13	0xc15a367e	-13.638304
14	0xc115131f	-9.317168
15	0xc14bed29	-12.7454
16	0xc1900bf5	-18.005838
17	0x40a1843a	5.047391
18	0xc15bc882	-13.736452
19	0xc1b52e78	-22.64769
20	0xc15d59d1	-13.834428
21	0xc17358bc	-15.209164
22	0xc0bdb3ef	-5.9282146
23	0xc030e715	-2.7641041
24	0xc078e4b2	-3.8889585
25	0xc12a55cd	-10.645947
26	0xc0a648e1	-5.1963964
27	0x41066432	8.399462
28	0xc06195a4	-3.5247583
29	0x40e801e4	7.250231
30	0xbede4fc3	-0.43420228
31	0xc0a1db9e	-5.0580587
32	0x4074c536	3.8245368
33	0xc13e85ec	-11.907696
34	0xc0ca69a1	-6.325394
35	0xc14b5724	-12.708775
36	0xc1bc6063	-23.547064
37	0xc1269e9a	-10.413721
38	0xc0480469	-3.1252692
39	0xc0a3fa0f	-5.1242747
40	0xc118b57c	-9.544308
41	0xc1265d9c	-10.397854
42	0x412aca6d	10.67442
43	0x412297a8	10.162025
44	0x4143546e	12.208113
45	0xc0827a57	-4.077434
46	0xbf999acf	-1.2000369
47	0xc1a81a49	-21.012835
48	0xbfda5823	-1.7058147
49	0x412c75a8	10.778725
50	0xc0245bd8	-2.5681057
51	0xc163859a	-14.220118
52	0x41139e26	9.22611
53	0xc18ff85e	-17.996273
54	0x40ad7df5	5.4216256
55	0xc04ed755	-3.2318928
56	0xc1cd20f1	-25.641085
57	0xc14a7c10	-12.655289
58	0xc1c97ef0	-25.186981
59	0x418652f7	16.79051
60	0xc17d970c	-15.849377
61	0xc0e54761	-7.1649632
62	0xc12d55f8	-10.833488
63	0xc03b6903	-2.9282844

field_cnn.5.running_var f4 [64]
0	0x4288c6bd	68.38816
1	0x42887059	68.21943
2	0x43514751	209.27858
3	0x4315e403	149.89067
4	0x4228cb5c	42.198593
5	0x4324d340	164.8252
6	0x435c0e96	220.05698
7	0x42c8003d	100.000465
8	0x437d1b6f	253.10716
9	0x430e7506	142.45712
10	0x42d25831	105.17225
11	0x4342620c	194.383
12	0x440b9a92	558.41516
13	0x4285600d	66.6876
14	0x43c1c198	387.51245
15	0x42de3fa7	111.12432
16	0x43831f54	262.24475
17	0x4305fe13	133.99248
18	0x4247566e	49.834404
19	0x43425f43	194.37212
20	0x43d74886	430.5666
21	0x433aca5f	186.79051
22	0x43119707	145.58995
23	0x4288da62	68.42653
24	0x42543ffd	53.06249
25	0x429601c1	75.003426
26	0x42ae8127	87.25225
27	0x4310c231	144.75856
28	0x42a6bc50	83.3678
29	0x43115854	145.34503
30	0x43129fc7	146.62413
31	0x42f57e3c	122.74655
32	0x43d79009	431.12527
33	0x42933a5b	73.613976
34	0x4315b6b6	149.71371
35	0x43487758	200.46619
36	0x4397e220	303.7666
37	0x43a6689f	332.81735
38	0x41ff5d0e	31.920437
39	0x41bdbef3	23.718237
40	0x439d8ec6	315.11542
41	0x426aac31	58.668156
42	0x42bbe33f	93.94384
43	0x4307856b	135.52116
44	0x430a84a2	138.5181
45	0x425ea41b	55.66026
46	0x429ecada	79.396194
47	0x4362dfeb	226.87468
48	0x43a325e1	326.29593
49	0x4369bce7	233.7379
50	0x426d23d6	59.284996
51	0x42c11427	96.53936
52	0x439bfc66	311.97186
53	0x43961c7a	300.22247
54	0x4256a1b6	53.65792
55	0x4286da1d	67.426
56	0x440b83db	558.06024
57	0x43f21c22	484.2198
58	0x446d996e	950.39734
59	0x43bf9aaf	383.20847
60	0x4310407a	144.25186
61	0x429479b2	74.237686
62	0x4216da6d	37.713306
63	0x4388b55e	273.41693

field_cnn.8.weight f4 [128, 64, 3, 3]
0	0x3cebabd2	0.028768454
1	0xbcdc963b	-0.026927104
2	0xbc9e077d	-0.01929068
3	0xbd47c194	-0.048768595
4	0x3df445e6	0.119273946
5	0xbf09e23b	-0.53860825
6	0xbd013467	-0.031544115
7	0xbe0038b1	-0.12521626
8	0xbe99d140	-0.30042458
9	0x3e19c571	0.15016724
10	0xbe2f4f83	-0.17120175
11	0xbe04f93f	-0.12985705
12	0xbe347a04	-0.1762467
13	0xbdea71e1	-0.11447502
14	0xbe152abb	-0.14567082
15	0xbe0bb98d	-0.13645001
16	0xbdf64246	-0.120243594
17	0xbdd01aa9	-0.10161335
18	0xbd4753ca	-0.04866389
19	0x3f0ccca5	0.5499976
20	0x3d912f06	0.07089047
21	0x3e125be1	0.14292862
22	0x3e448828	0.19192564
23	0x3f302005	0.6879886
24	0x3e651f22	0.22375157
25	0x3efd43f0	0.49465895
26	0x3e3cb0de	0.18426844
27	0x3e011f4c	0.12609595
28	0xbd4e73a3	-0.05040325
29	0xbd40ea95	-0.047098715
30	0x3c941970	0.018078536
31	0xbe179cfb	-0.14805977
32	0x3e678b24	0.22611672
33	0xbd52d692	-0.05147416
34	0xbeb390c4	-0.35071385
35	0xbe4bd811	-0.19906642
36	0x3e7974b6	0.24360928
37	0x3e55d9fc	0.20883936
38	0x3e2c35a2	0.16817334
39	0x3e1a5c7a	0.1507434
40	0x3ece313b	0.40271935
41	0x3d046ce3	0.032330405
42	0x3e4522cf	0.1925156
43	0x3ddd425d	0.108036734
44	0xbd705472	-0.058674283
45	0x3e775b12	0.24155834
46	0x3e4653da	0.19367924
47	0xbcbb5780	-0.022868872
48	0x3e91843f	0.28421208
49	0x3e884efa	0.26622754
50	0x3cb26094	0.021774568
51	0x3be4b49d	0.0069795386
52	0xbd9a9c28	-0.07549316
53	0xbec83656	-0.39103955
54	0xbe7ab138	-0.24481666
55	0xbe735149	-0.23761477
56	0xbd23b6b8	-0.039969176
57	0xbe0c3c5b	-0.13694899
58	0xbde14068	-0.10998613
59	0xbd5624ac	-0.052281067
60	0xbd2912b9	-0.04127762
61	0xbda16728	-0.078810036
62	0xbe0dbb1d	-0.1384091
63	0x3e17a1ee	0.14807865
64	0x3ecb18ff	0.39667508
65	0x3e926e17	0.28599617
66	0x3c6f1285	0.014591818
67	0x3d448185	0.047975082
68	0x3df7f242	0.12106754
69	0x3eb9d7b4	0.3629738
70	0x3e7b2d8e	0.24529096
71	0xbcb528f2	-0.02211425
72	0xbd99ec65	-0.07515792
73	0xbe5afb4d	-0.21384926
74	0xbe813a88	-0.25239968
75	0xbea1be4b	-0.31590495
76	0xbe245c11	-0.16050746
77	0xbd686827	-0.056739952
78	0xbe17823e	-0.14795777
79	0xbe4c4453	-0.19947939
80	0xbd624626	-0.05524268
81	0xbdca27c8	-0.09870869
82	0xbd6634c9	-0.056202684
83	0xbcdd4dd4	-0.02701465
84	0x3cd734b8	0.026270255
85	0xbddf7077	-0.10910123
86	0xbdc70942	-0.09718563
87	0xbe35ae23	-0.17742209
88	0xbb788a42	-0.0037924205
89	0xbdcc6129	-0.09979469
90	0x3e3a42eb	0.1818959
91	0xbe04df63	-0.1297584
92	0xbdec541d	-0.11539481
93	0xbca5d77a	-0.020244349
94	0xbdeb39d8	-0.11485642
95	0xbe99e828	-0.30059934
96	0xbd1b0b32	-0.037852474
97	0xbde75d4c	-0.11297092
98	0xbde27a31	-0.110584624
99	0xbd823438	-0.06357616
100	0xbd88d31f	-0.06680893
101	0xbc611eba	-0.013740236
102	0xbd9edcbc	-0.077569455
103	0xbdc2fa6a	-0.09520419
104	0xbddb04f2	-0.106943026
105	0x3d12fe90	0.0358873
106	0x3e75b85d	0.2399611
107	0x3e04e387	0.1297742
108	0x3e2de316	0.16981158
109	0x3e4ceaef	0.20011495
110	0x3e1fb746	0.15597257
111	0x3e97027b	0.2949408
112	0x3e092527	0.13393079
113	0x3d116740	0.035498857
114	0xbda188f4	-0.0788745
115	0xbdab1346	-0.083532855
116	0xbe8a71ec	-0.2704004
117	0x3d1fa522	0.038975842
118	0x3e0169db	0.12638037
119	0x3c29e180	0.010368705
120	0x3d40d147	0.047074582
121	0x3eb12a25	0.34602466
122	0x3e13cd2b	0.14433734
123	0xbc48f4ab	-0.012265365
124	0xbd9e08be	-0.07716511
125	0x3eb11c33	0.34591827
126	0xbdae6686	-0.085156485
127	0xbf19b7d0	-0.600461
128	0xbeac3c2a	-0.33639652
129	0xbdfb3728	-0.122663796
130	0xbd548b7d	-0.05189084
131	0xbe761031	-0.24029614
132	0xbe8f460d	-0.27983132
133	0xbd21fcba	-0.03954766
134	0xbd90b388	-0.07065493
135	0x3cfe7f37	0.03106652
136	0xbdb064f6	-0.08613007
137	0xbcec1117	-0.028816743
138	0xbe866515	-0.26248994
139	0xbe189c3a	-0.14903346
140	0xbdc1a795	-0.09455792
141	0xbdd518be	-0.1040511
142	0xbe280ba2	-0.16410688
143	0xbda2b830	-0.07945287
144	0xbdd1ebb0	-0.10250032
145	0xbe2d0206	-0.16895303
146	0xbe33417e	-0.17505452
147	0xbc8acbe9	-0.016942935
148	0xbd55254e	-0.05203753
149	0xbd7458cc	-0.059654996
150	0xbd35b2d9	-0.044360016
151	0xbd24b778	-0.040214032
152	0xbe0d8ab2	-0.1382244
153	0x3e3351ef	0.17511724
154	0xbcfc2691	-0.030780109
155	0xbeb9e8d1	-0.36310437
156	0x3aa8acb7	0.0012868856
157	0xbea0ea63	-0.31428823
158	0xbdd3c0b4	-0.103394896
159	0xbe91c98d	-0.28474084
160	0xbc2804a0	-0.010255009
161	0x3d1936b6	0.037405692
162	0xbdeab78b	-0.11460789
163	0xbdd28b3a	-0.102804616
164	0xbe0d2e41	-0.13787176
165	0xbd922ad6	-0.071370766
166	0x3cf435f1	0.029810878
167	0xbd913bb9	-0.07091469
168	0xbdbe6e4f	-0.092983834
169	0xbe8f5d5a	-0.2800091
170	0xbd78470d	-0.060614634
171	0x3f2162c6	0.6304134
172	0xbe72c400	-0.2370758
173	0xbd2e1dc0	-0.04250884
174	0x3e3156bc	0.17318243
175	0xbf140b75	-0.5782998
176	0xbd7d5809	-0.061851535
177	0xbef98766	-0.48736113
178	0xbf245bc9	-0.64202553
179	0xbe02fa79	-0.1279086
180	0x3e395801	0.18099977
181	0x3d2f2a62	0.04276503
182	0xbd2275d6	-0.03966316
183	0xbec0d527	-0.37662622
184	0xbdc20a13	-0.09474578
185	0xbe856620	-0.26054478
186	0xbf135eb7	-0.575664
187	0xbc8ff6bd	-0.017573709
188	0xbd1427e7	-0.036170866
189	0xbdfe14ec	-0.12406334
190	0xbe4925d0	-0.1964333
191	0xbea7c229	-0.3276532
192	0xbddf3a21	-0.10899759
193	0xbe7677c6	-0.24069127
194	0xbe58826d	-0.21143503
195	0xbe4de215	-0.20105775
196	0xbe496672	-0.19667986
197	0xbbc41b3b	-0.0059846914
198	0x3d9b541a	0.075844005
199	0x3de3d39c	0.11124346
200	0xbed3a214	-0.41334593
201	0x3e24e698	0.1610359
202	0x3d5adba3	0.05343212
203	0xbe5e9801	-0.21737672
204	0xbdb9d6a5	-0.09074143
205	0xbe33ec25	-0.1757055
206	0xbe39e43d	-0.18153472
207	0x3dc2e432	0.09516181
208	0x3e161a25	0.14658411
209	0x3db2f171	0.087374575
210	0x3c35d12f	0.011097237
211	0x3e91b14a	0.28455573
212	0xbd76ea4a	-0.06028203
213	0xbd6a974b	-0.05727319
214	0xbde3e343	-0.11127331
215	0xbe070610	-0.13185906
216	0xbb50e5dd	-0.003187529
217	0x3d5b1f02	0.05349637
218	0x3d92df2d	0.07171474
219	0x3d8b507e	0.06802462
220	0x3cce86a3	0.025210684
221	0xbcffe2cb	-0.031236073
222	0xbd67744e	-0.0565074
223	0xbd90b1b4	-0.07065144
224	0xbdf156c9	-0.11784131
225	0x3d1556c2	0.03645969
226	0xbd42276f	-0.047400888
227	0xbe4fdddc	-0.20299476
228	0xbd735706	-0.059409164
229	0xbdf9c377	-0.12195485
230	0xbcd4cc47	-0.025976313
231	0xbdd1eb35	-0.1024994
232	0xbf159647	-0.5843243
233	0xbd657b28	-0.056025654
234	0x3e168b27	0.1470152
235	0x3d8e79f3	0.06956854
236	0xbe832d19	-0.25620344
237	0x3dbfe9b0	0.09370744
238	0xbd448d00	-0.04798603
239	0xbd947a4d	-0.072498895
240	0xbd34137e	-0.0439639
241	0xbea15911	-0.31513265
242	0xbec21708	-0.37908196
243	0xbe38c8ef	-0.180454
244	0xbd0ef2a2	-0.03489936
245	0xbdbe3b8b	-0.09288701
246	0x3d89012b	0.06689676
247	0xbdfd319e	-0.12362979
248	0xbd89056b	-0.066904865
249	0xbdc8421c	-0.09778234
250	0xbdf74de7	-0.120754056
251	0xbdf498da	-0.119432166
252	0x3d045fae	0.03231781
253	0x3d09fe6d	0.033689905
254	0xbd865501	-0.06559182
255	0xbbbf449e	-0.005837037

field_cnn.8.bias f4 [128]
0	0x3c793281	0.015209795
1	0x3cb68f6a	0.022285182
2	0x398cfb8b	0.00026890295
3	0xbd3816ed	-0.04494374
4	0xbca877c7	-0.020564927
5	0xbca5665a	-0.020190407
6	0x3b83cedc	0.0040224623
7	0xbce67004	-0.028129585
8	0x3be19cc5	0.0068851435
9	0xbd0cf58f	-0.03441387
10	0x3c075c25	0.008261715
11	0xbd05d534	-0.03267403
12	0x3d4f308e	0.050583415
13	0x3c1705d0	0.009217694
14	0x3a6891a3	0.0008871799
15	0x3d50890a	0.05091194
16	0xbc47c847	-0.012193746
17	0xbd01bc57	-0.031673755
18	0xbd576b5a	-0.052592613
19	0x3c7fbc09	0.015608796
20	0xbd601623	-0.05470861
21	0xbc9d92a0	-0.019234955
22	0x3d77b7ec	0.060478136
23	0xbc805199	-0.015663909
24	0x3d36939d	0.04457437
25	0x3d556e98	0.052107424
26	0x3d68ecfe	0.05686664
27	0xbd0b5a98	-0.034021944
28	0xbcfa06e8	-0.030520871
29	0x3d809042	0.06277515
30	0x3cea422b	0.028596004
31	0x3c169fdc	0.009193387
32	0xbcbc1f3b	-0.02296411
33	0xbd2f1db6	-0.042752944
34	0xbca9a5a3	-0.020708865
35	0xbd290934	-0.041268542
36	0xbd6d85f2	-0.05798907
37	0xbd5efb0d	-0.05443864
38	0xbce00750	-0.027347237
39	0x3b0483ac	0.0020220084
40	0x3aadf0d0	0.001327062
41	0x3da2dddd	0.07952473
42	0xbb56f646	-0.00328006
43	0x3b0d2b11	0.0021540562
44	0x3d32dd6b	0.043668192
45	0xbd4ab37c	-0.049487576
46	0x3d2edbdd	0.042690147
47	0xbbbc6e7f	-0.005750477
48	0x3c4eecaf	0.012629672
49	0xbc093f04	-0.0083768405
50	0xbce6c491	-0.028169902
51	0x3c03c339	0.00804215
52	0x3d4d278d	0.050086547
53	0x3d19df1f	0.0375663
54	0x3cde6580	0.027148008
55	0xbbbc0b4f	-0.005738653
56	0x3d199f69	0.03750554
57	0x3cce7da1	0.025206389
58	0xba150fdb	-0.00056862616
59	0xbd1d73b5	-0.038440425
60	0x3cf4dfd6	0.02989189
61	0xbd4206d0	-0.04736978
62	0xbd0cc36a	-0.03436605
63	0xbccf9634	-0.025340177
64	0xbc84b87f	-0.016201256
65	0xbc90392e	-0.01760539
66	0x3bf4f892	0.007475921
67	0x3d2d07cf	0.042243775
68	0x3cec2a9c	0.028828911
69	0x3d4c5bbc	0.049892172
70	0x3d727fc3	0.059203874
71	0xbd316296	-0.04330691
72	0x3c93f7ef	0.01806256
73	0x3d438f43	0.047744047
74	0xbbf46c46	-0.0074591963
75	0x3d3b5f4a	0.04574517
76	0x3c0fd4a2	0.008778723
77	0xbcb07e7b	-0.021544686
78	0x3d137374	0.035998777
79	0x3d552dab	0.052045505
80	0xbd12a182	-0.035798557
81	0xbca6d19d	-0.020363623
82	0x3c762aba	0.015024835
83	0x3d004bbd	0.03132223
84	0xbca22dad	-0.01979717
85	0xbd5330ab	-0.051560085
86	0xbd00e6d4	-0.031470135
87	0x3d069076	0.032852612
88	0xbd4c5d86	-0.04989388
89	0x3d097c31	0.033565704
90	0xbb2e42d1	-0.0026590119
91	0xbc571364	-0.013127182
92	0xbcf01cdb	-0.029310634
93	0xbd5fde71	-0.054655496
94	0x3d421750	0.047385514
95	0x3ca248e6	0.019810151
96	0xbd5792f5	-0.052630384
97	0xbcfb628f	-0.030686645
98	0x3daa2a5d	0.083088614
99	0xbcd8f52f	-0.0264841
100	0xbc23ab81	-0.00998962
101	0x3d2bf3c3	0.041980516
102	0xbc869fff	-0.016433714
103	0xbc773aab	-0.015089671
104	0x3d0877d5	0.033317406
105	0x3d337e61	0.043821696
106	0xbce31e9e	-0.02772456
107	0xbd06d5fb	-0.03291891
108	0x3ce94462	0.02847499
109	0x3c72f8cb	0.014829825
110	0x3c233466	0.009961223
111	0x3d80b2bd	0.062840916
112	0x3cb5ff32	0.022216413
113	0x3d575b0a	0.052577056
114	0x3c6571e2	0.014004203
115	0x3c21ef8b	0.009883772
116	0x3cf31089	0.02967097
117	0xbcbf7cef	-0.023375003
118	0xbca138c6	-0.019680392
119	0x3bb13d68	0.0054089315
120	0xbcd926ec	-0.026507817
121	0x3c996702	0.018725876
122	0x3c37c5b3	0.011216569
123	0xbc96bf69	-0.018401818
124	0x3d073298	0.033007234
125	0x3c48ceb8	0.012256317
126	0x3d109989	0.035302673
127	0xbd0584fb	-0.032597523

field_cnn.9.weight f4 [128]
0	0x3f2906b3	0.6602585
1	0x3efbcdc5	0.49180427
2	0x3fc6323e	1.5484083
3	0x3f744f67	0.9543366
4	0x3efb0646	0.49028224
5	0x3fb64cdb	1.4242204
6	0x3faf6a3e	1.3704298
7	0x3ec8cf52	0.39220673
8	0x3e648f59	0.22320308
9	0x3f8090f5	1.0044237
10	0x3f68ecae	0.90986145
11	0x3f6f20ed	0.93409616
12	0x3fd06b77	1.6282796
13	0x3f570b1a	0.84001315
14	0x3ec2d4fe	0.38053125
15	0x3f18ea7c	0.59732795
16	0x3e740192	0.23828724
17	0x3f1f3aae	0.62198913
18	0x3edee460	0.4353361
19	0x3f7f8c84	0.99823785
20	0x3f15fab7	0.58585685
21	0x3f5ffb82	0.87493145
22	0x3dad8ce5	0.08474139
23	0x3f7b48b3	0.98157805
24	0x3f12bc09	0.5731817
25	0x3f23fa15	0.6405347
26	0x3f764c3a	0.9621006
27	0x3f90f08c	1.1323409
28	0x3fab2094	1.3369317
29	0x3f8359a0	1.0261726
30	0x3f3bcb24	0.73356843
31	0x3e9454c4	0.2897092
32	0x3f569145	0.83815414
33	0x3fbbfc69	1.4686404
34	0x3f81f652	1.0153296
35	0x3fd24d63	1.6429867
36	0x3ffe87d5	1.9885203
37	0x3f853b06	1.0408638
38	0x3f800ac8	1.000329
39	0x3f582639	0.84433323
40	0x3f2df0fc	0.6794584
41	0x3f7d7f4c	0.99022365
42	0x3f924cb1	1.1429654
43	0x3fa3c741	1.2795182
44	0x364e0372	3.0698397e-06
45	0x3f8ebfa3	1.1152233
46	0x3f8de327	1.1084946
47	0x3f9c0392	1.218859
48	0x3fa17afb	1.2615656
49	0x3ebe1945	0.37128654
50	0x3facd7d4	1.3503366
51	0x3f538a77	0.82633156
52	0x3f0c90ec	0.54908633
53	0x3f55c8a0	0.83509254
54	0x3f5de443	0.86676425
55	0x3f9eae91	1.2397023
56	0x3f22981b	0.63513345
57	0x3f9abb2c	1.208837
58	0x3f07f7b0	0.53112316
59	0x3f0c03ed	0.5469349
60	0x3fc89326	1.5669906
61	0x3fb8c439	1.4434882
62	0x3fb007fa	1.3752434
63	0x3eadec4a	0.33969337
64	0x3f7e389a	0.9930512
65	0x3f047f07	0.5175633
66	0x3f3e8309	0.74418694
67	0x3ebae5fd	0.36503592
68	0x3f4434af	0.7664289
69	0x3ecb1eaf	0.39671847
70	0x3f170db8	0.5900531
71	0x3f53df95	0.82763034
72	0x3f46406c	0.7744205
73	0x3f465c94	0.77485013
74	0x3cf737b3	0.030177927
75	0x3f9765e1	1.1827966
76	0x3f0819cd	0.5316437
77	0x3fa1cd26	1.2640731
78	0x3f1204fc	0.57038856
79	0x3e8d5888	0.27606606
80	0x3f5cc1c4	0.8623316
81	0x3e77b54f	0.24190257
82	0x3f3f8dd8	0.7482581
83	0x3fb33e2b	1.4003347
84	0x3f9d8f5e	1.2309377
85	0x3f368bf7	0.7130732
86	0x3f1a5aaa	0.6029459
87	0x3f7efdc2	0.99605954
88	0x3f28f563	0.6599943
89	0x3f984552	1.1896155
90	0x3f9e8ea9	1.2387286
91	0x3f7778c7	0.96668667
92	0x3f1b4f36	0.6066774
93	0x3f663002	0.89917004
94	0x3f927b30	1.1443844
95	0x3f7c2ea0	0.98508644
96	0x3f08503b	0.5324742
97	0x3f0e2eb9	0.55540043
98	0x3f6bbb9a	0.9208313
99	0x3f7b2ffd	0.981201
100	0x3f6a88a1	0.9161473
101	0x3ec500ca	0.38477165
102	0x3faf40a2	1.3691599
103	0x3ee89d5e	0.45432562
104	0x3f4aea05	0.79263335
105	0xbcc81cdc	-0.024427824
106	0x3fca1322	1.5787089
107	0x3f29fe20	0.6640339
108	0x3f6f479a	0.9346863
109	0x3ed45761	0.41472915
110	0x3f6535b2	0.8953506
111	0x3f0c6566	0.5484222
112	0x3f5ef89f	0.87098116
113	0x3ef8f969	0.48627785
114	0x3fa244a2	1.2677195
115	0x3f2bacc4	0.67060494
116	0x3f1954a5	0.5989478
117	0x3f8c1175	1.0942827
118	0x3f26a208	0.6509099
119	0x3f6540eb	0.8955218
120	0x3f0d53fb	0.5520627
121	0x3e84c3f8	0.25930762
122	0x3f511fd8	0.81689215
123	0x3f41338f	0.754693
124	0x3ef66ef5	0.48131528
125	0x3fbe8c0f	1.4886492
126	0x3f58057d	0.84383374
127	0x3eaeb37b	0.34121308

field_cnn.9.bias f4 [128]
0	0x3f6e1fd4	0.93017316
1	0x3f062337	0.52397484
2	0x3ec68f79	0.38781336
3	0x3ef866b6	0.48515862
4	0xbd246ba8	-0.04014173
5	0xbd9d71be	-0.0768771
6	0x3e75d634	0.24007493
7	0x3f3c848c	0.7363975
8	0x3f1b9dc9	0.60787636
9	0x3f16edfe	0.589569
10	0xbf738e9a	-0.9513947
11	0x3fb51a97	1.414874
12	0x3f502e35	0.81320506
13	0xbdcd8c31	-0.10036505
14	0x3e12743e	0.14302155
15	0xbf2ea931	-0.68226916
16	0x3fb8e277	1.4444112
17	0x3eed3561	0.46329787
18	0x3fafd628	1.373723
19	0x3f02beea	0.5107256
20	0x3ee49787	0.44646856
21	0x3efe7cdf	0.49704644
22	0x3fbcbabc	1.4744487
23	0x3f2708ac	0.6524761
24	0xbe95bd33	-0.2924591
25	0x3e9aa4e5	0.3020393
26	0x3f2b9fc8	0.6704068
27	0x3f2a208f	0.6645593
28	0x3d39e6d0	0.045386136
29	0x3f43c32a	0.7646967
30	0x3f31d8c0	0.6947136
31	0x40012d0f	2.0183752
32	0x3e8331ee	0.2562403
33	0x3ebb0dea	0.36534053
34	0x3f1a49db	0.60268945
35	0x3ec48a7a	0.383869
36	0x3f6238d5	0.8836797
37	0x3f596237	0.8491549
38	0x3f09558a	0.5364615
39	0x3f2fb6ea	0.6863848
40	0x3e80ba36	0.25142068
41	0x3ef90257	0.48634598
42	0x3ebc5e00	0.36790466
43	0x3f23bafe	0.639572
44	0x3fc23b24	1.5174298
45	0x3f199258	0.5998893
46	0x3f382455	0.7193044
47	0x3e3864a3	0.1800714
48	0x3eb7304a	0.3577903
49	0x3f951e5f	1.1649894
50	0x3df68964	0.12037924
51	0x3f3bd7a2	0.73375905
52	0xbdbd1ab2	-0.09233607
53	0x3eb9e451	0.36307004
54	0x3e332c8a	0.17497459
55	0x3f32b6cd	0.6981018
56	0x3f5ea564	0.86971116
57	0xbe26f26d	-0.16303416
58	0x3b213604	0.0024598846
59	0x3e302983	0.17203335
60	0x3f25fa14	0.64834714
61	0xbd4bddfa	-0.04977224
62	0x3f03b4af	0.51447576
63	0x3f9b0d24	1.2113385
64	0x3f1f2118	0.6215987
65	0xbf1e15d1	-0.6175204
66	0xbdce212b	-0.1006492
67	0xbe21066c	-0.15725106
68	0x3f034f6d	0.5129307
69	0x3fb6954b	1.4264311
70	0x3d338b7e	0.043834202
71	0x3f339834	0.7015412
72	0xbf1640ab	-0.58692425
73	0x3f0f3fb7	0.55956596
74	0x3f699e52	0.912572
75	0x3e428a43	0.18998055
76	0x3f615388	0.88018084
77	0x3fbf064c	1.4923797
78	0x3d289c86	0.041164897
79	0x3f6d5af9	0.9271694
80	0x3eae708e	0.34070247
81	0x40203b1d	2.503608
82	0xbe839063	-0.25696096
83	0xbf1168fc	-0.5680082
84	0x3fd9aedb	1.7006487
85	0xbe6b2e10	-0.2296679
86	0xbdaf6679	-0.08564467
87	0xbe0da6d0	-0.13833165
88	0x3f604e1d	0.8761919
89	0x3ed65f8e	0.41869777
90	0x3e9af864	0.30267632
91	0x3f012059	0.50439984
92	0x3f068ea1	0.52561384
93	0x3f9abd75	1.2089068
94	0x3ef05649	0.4694083
95	0x3f0e070e	0.55479515
96	0x3f8e839f	1.1133918
97	0xbe905eb4	-0.28197253
98	0x3ef249b4	0.47321856
99	0x3f67be75	0.9052499
100	0xbf0bf6da	-0.5467354
101	0xbf1038c8	-0.5633664
102	0x3e140588	0.14455235
103	0xbf53baba	-0.827068
104	0x3f7ffabe	0.9999198
105	0x3ff76ec9	1.9330684
106	0xbda99381	-0.08280087
107	0x3f8defe3	1.1088833
108	0x3f8d28cb	1.1028074
109	0x3f05a757	0.52208465
110	0x3ddd0452	0.1079184
111	0xbed957fc	-0.4244994
112	0x3f73c1fe	0.95217884
113	0xbf91b404	-1.1383061
114	0xbe430e5f	-0.19048451
115	0xbd8f3885	-0.06993202
116	0x3e54f169	0.20795216
117	0xbe849fe6	-0.25903243
118	0x3f9a51a9	1.2056171
119	0x3f46f4b0	0.77717113
120	0xbf721be3	-0.945738
121	0x3fdb53ba	1.7134926
122	0x3e9a696e	0.3015856
123	0x3e69f869	0.22848667
124	0xbed820d7	-0.42212555
125	0x3f5f2a86	0.8717426
126	0x3f2eb633	0.68246764
127	0x3fad5a5d	1.3543202

field_cnn.9.running_mean f4 [128]
0	0xc125eb20	-10.369904
1	0xc137b512	-11.481707
2	0xc1f3e917	-30.488813
3	0xc19506ff	-18.628416
4	0x401bc2d6	2.4337668
5	0xc0e9c239	-7.304959
6	0xc1c6982e	-24.824306
7	0xc15b6b37	-13.7136755
8	0xc1dbe5a2	-27.487125
9	0xc1b88801	-23.066408
10	0xc1636681	-14.212525
11	0x40993279	4.787411
12	0xc17ca3b3	-15.789966
13	0xc1a47335	-20.556253
14	0xc05d1dc6	-3.4549422
15	0x409e1db9	4.9411283
16	0xc1cb0b10	-25.380402
17	0xc162bf85	-14.171758
18	0xc1ced85b	-25.855642
19	0xc2123688	-36.553253
20	0xc158907f	-13.535277
21	0xc1e03388	-28.025162
22	0xc1997305	-19.181162
23	0xc1aff507	-21.994642
24	0xc0e51166	-7.158374
25	0xc159b7c0	-13.607361
26	0xc1d4a6a6	-26.581371
27	0xc1d3a984	-26.457771
28	0x3f01632a	0.5054194
29	0xc17cdf4a	-15.804514
30	0xc14bea5e	-12.744719
31	0xc1d26fb1	-26.304537
32	0xc18fe652	-17.987461
33	0xc19f74a3	-19.931952
34	0xc21c43a8	-39.06607
35	0xc21d8867	-39.383205
36	0xc19450d6	-18.53947
37	0xc1ddf985	-27.746836
38	0xc24763a6	-49.847313
39	0xc16eda44	-14.9282875
40	0xc1277e98	-10.468407
41	0xc1e91227	-29.133863
42	0xc1bdf6d9	-23.745531
43	0xc197c9bc	-18.973503
44	0xc1219463	-10.098727
45	0xc1b9e69e	-23.237606
46	0xc1a609b0	-20.75473
47	0xc17252a4	-15.145176
48	0xc1ab35b4	-21.401222
49	0xc1a360ba	-20.42223
50	0xc1547f96	-13.281149
51	0xc1ed4055	-29.656412
52	0x40990347	4.78165
53	0xc1cb7150	-25.430328
54	0xc1c292ae	-24.32162
55	0xc1728157	-15.156577
56	0xc1f72680	-30.893799
57	0xc1857e51	-16.686678
58	0xbfd17e55	-1.6366678
59	0xc11d6c21	-9.838899
60	0xc13e1c4c	-11.881908
61	0xc1f33d5e	-30.404964
62	0x3fb1279c	1.3840213
63	0xc17bdb04	-15.740971
64	0xc161b450	-14.106522
65	0xc0e132f8	-7.037472
66	0x40364ae0	2.84832
67	0xc100131c	-8.004665
68	0xc1e9d3b7	-29.228376
69	0xc1b3291d	-22.395075
70	0xc0daf326	-6.842181
71	0xc15b7290	-13.715469
72	0x4019237c	2.3927908
73	0xc1cbf28a	-25.493427
74	0xc107e3f6	-8.493155
75	0xc096cba6	-4.7123594
76	0xc1f1e4a8	-30.236649
77	0xc1da2331	-27.267183
78	0xc14e5b28	-12.897255
79	0xc196a259	-18.829271
80	0xc21f5828	-39.83609
81	0xc1a5cc4a	-20.72475
82	0xc17f9d44	-15.975895
83	0x41d19043	26.19544
84	0xc1e72d06	-28.896984
85	0x40bd036d	5.906668
86	0x3fdf304d	1.7436615
87	0xc1632830	-14.197311
88	0xc197f860	-18.996277
89	0xc197b693	-18.964148
90	0x4009c3d7	2.152578
91	0xc1a3dc27	-20.482496
92	0xc1b499df	-22.575132
93	0xc18d7e40	-17.686646
94	0xc187d877	-16.980696
95	0xc19f21aa	-19.891438
96	0xc0e8a1cb	-7.26975
97	0x3e1192c2	0.1421614
98	0xc1a002c3	-20.001348
99	0xc1a1493f	-20.160765
100	0x40824cd1	4.071877
101	0x4046c918	3.1060238
102	0xc139b5d8	-11.606895
103	0x3e435368	0.19074786
104	0xc14a9c86	-12.663214
105	0xc13737aa	-11.45109
106	0xc185aed7	-16.710371
107	0xc118b05c	-9.5430565
108	0xc0bfbbdc	-5.991682
109	0xc188f251	-17.118319
110	0xbf0e7893	-0.5565273
111	0x40b51e66	5.6599607
112	0xc2131866	-36.773827
113	0x40eb21c1	7.3478703
114	0xc1594fbb	-13.581965
115	0xc0f228dd	-7.567488
116	0xc1ebfd6f	-29.498747
117	0x40f5b72e	7.678611
118	0xc1e1fe93	-28.249304
119	0xc1fd3b92	-31.654087
120	0xc08b5e36	-4.3552504
121	0xc1fc7eae	-31.561855
122	0xc1c2d71a	-24.35503
123	0xc18e9c7a	-17.826405
124	0xc0260140	-2.5938263
125	0xc1097925	-8.592076
126	0xc11d38a7	-9.826331
127	0xc19f7551	-19.932283

field_cnn.9.running_var f4 [128]
0	0x42a2bb97	81.36639
1	0x43022209	130.13295
2	0x442d84a1	694.0723
3	0x4276aa93	61.666576
4	0x41adcbe8	21.724564
5	0x421a91f6	38.64254
6	0x4415be2f	598.9716
7	0x432d6c1d	173.42232
8	0x4366ad3f	230.67674
9	0x42861f4b	67.06112
10	0x4396d649	301.6741
11	0x4464a64a	914.59827
12	0x4312591d	146.3481
13	0x43513db0	209.24097
14	0x41b3e2b3	22.485693
15	0x422344b9	40.817112
16	0x43a07723	320.93076
17	0x4322dd09	162.86342
18	0x43955c78	298.7224
19	0x43853f08	266.49243
20	0x42d086b6	104.26311
21	0x43951b20	298.2119
22	0x43a3d9fc	327.703
23	0x449d8cad	1260.3961
24	0x43638fef	227.56224
25	0x4247793e	49.8684
26	0x43a68ff5	333.12466
27	0x44339277	718.2885
28	0x451d12f3	2513.1843
29	0x4394074f	296.0571
30	0x436572e6	229.44882
31	0x43deee82	445.86334
32	0x4366fd76	230.99008
33	0x42793f65	62.31191
34	0x4431ed70	711.70996
35	0x44026e63	521.7248
36	0x434c8f08	204.55872
37	0x4463bb4b	910.92645
38	0x450d5c18	2261.7559
39	0x43120c34	146.04767
40	0x42a255e7	81.16778
41	0x434428ca	196.15933
42	0x42ef51e1	119.65992
43	0x44500bd6	832.18494
44	0x43089f57	136.62242
45	0x430faa6f	143.66576
46	0x4495adf8	1197.4365
47	0x43ac8c1b	345.09457
48	0x454c3736	3267.4507
49	0x426167cf	56.351376
50	0x440fc2d5	575.04425
51	0x4390c2ae	289.52094
52	0x41c972cc	25.181053
53	0x42798a9b	62.385357
54	0x44771b9d	988.43146
55	0x432a3aef	170.23021
56	0x43a8d4c6	337.6623
57	0x43d3b261	423.3936
58	0x40bf23b5	5.973109
59	0x41c4fdb0	24.62387
60	0x43435b74	195.35724
61	0x442edc28	699.43994
62	0x424efa3a	51.74436
63	0x4341849a	193.51797
64	0x43deb723	445.43076
65	0x431a26fd	154.1523
66	0x42254d19	41.32529
67	0x425f336b	55.800213
68	0x44048211	530.0323
69	0x4438f556	739.8334
70	0x41c734d9	24.900805
71	0x415ad729	13.677529
72	0x41a48fea	20.57027
73	0x4313ad6b	147.67741
74	0x42840b6a	66.02229
75	0x41beb69a	23.83916
76	0x42ec3c15	118.11735
77	0x44ad0e1a	1384.4407
78	0x430e83f2	142.51541
79	0x42bb19e9	93.550606
80	0x433c4f06	188.30869
81	0x443da1ff	758.5312
82	0x43e6a7ed	461.31192
83	0x448b18ed	1112.7789
84	0x43db3975	438.44888
85	0x42345535	45.08321
86	0x4113e25d	9.242764
87	0x44354e78	725.2261
88	0x4353a0e1	211.62843
89	0x43815343	258.65048
90	0x44a5a79e	1325.238
91	0x43f07be9	480.96805
92	0x42bea98e	95.33116
93	0x4442ae69	778.72516
94	0x43093a27	137.22716
95	0x428ec740	71.38916
96	0x42c3ce9d	97.90354
97	0x41039f5d	8.226407
98	0x433bb44a	187.70425
99	0x43c86a1c	400.82898
100	0x429a3578	77.10443
101	0x41c8d2ad	25.102869
102	0x4215c36d	37.440845
103	0x41649624	14.286655
104	0x43360102	182.00394
105	0x438c444b	280.53354
106	0x43d19615	419.17252
107	0x4223e401	40.97266
108	0x441307e7	588.1235
109	0x4314808d	148.50215
110	0x4270c0e6	60.188377
111	0x420ada7e	34.71337
112	0x435ccec3	220.80766
113	0x41df987c	27.949455
114	0x4283bed7	65.872734
115	0x4254d047	53.203396
116	0x430c3d9f	140.2407
117	0x44e32594	1817.1743
118	0x43369d7f	182.61522
119	0x432fa266	175.63437
120	0x42052840	33.289307
121	0x43b982e8	371.0227
122	0x43687ab1	232.47926
123	0x43430ac1	195.042
124	0x4280c621	64.38697
125	0x43b66791	364.8091
126	0x411bf501	9.747315
127	0x432d1c9f	173.1118
