training/draw_locator_net.pth (torch, 766966 bytes, 36 tensors)

field_cnn.0.weight f4 [32, 3, 3, 3]
000000 f0 c2 33 be f3 95 0c bd 83 1a d3 3d a5 a0 1b 3e
       -0.17554832 -0.03432269 0.10307791 0.15198
000010 f7 47 d8 3d 91 1f 20 3d aa d1 d8 bd 1d 28 da 3c
       0.10560601 0.039092604 -0.10586865 0.026630456
000020 18 a8 32 3d f3 da 45 bb 02 b9 43 bd b4 3a 09 be
       0.043617338 -0.0030190318 -0.04778386 -0.134013
000030 0d ea e2 bd 20 7b 6a 3d 21 67 35 be 6c 3e 27 be
       -0.11079798 0.057246327 -0.17715122 -0.16332406
000040 ea fb 42 bd e5 43 47 3c c5 4b 36 be 6b e7 99 bd
       -0.047603525 0.012162183 -0.17802341 -0.075148426
000050 e9 49 02 be 05 50 3d be d8 04 33 3d 7f 08 17 3e
       -0.12723507 -0.18487556 0.04370579 0.14749335
000060 19 dc 9c 3d aa 6e ae 3a ab ba 09 3e 23 de 2d be
       0.07659168 0.0013308127 0.13450114 -0.1697927
000070 25 d4 94 3d b1 11 fe 3d ac 40 0a 3d 61 9e 13 3d
       0.07267026 0.12405718 0.033753082 0.036039714
000080 f3 b6 78 bd 5d 35 48 3e 82 91 82 ba 87 aa 93 bd
       -0.06072135 0.19551606 -0.0009961578 -0.0721026
000090 18 71 87 bd 3c 6e b1 bd 37 40 7c bd 02 ad 12 be
       -0.06613368 -0.08663604 -0.061584678 -0.1432381
0000a0 97 b3 e5 bb 84 ee fb 3c 42 c6 70 3d 97 0b 2b 3e
       -0.007009934 0.030753382 0.058782823 0.1670364
0000b0 b2 ce de bd 68 9d 02 3c 2d 5c 07 3e 2a c4 24 be
       -0.10879268 0.007972099 0.13218756 -0.16090456
0000c0 7b c0 3d be 3e 45 16 be 15 08 40 3e d8 38 1a be
       -0.18530457 -0.14674851 0.18753083 -0.15060747
0000d0 49 96 81 3c e5 44 d2 3d 63 92 b5 3d ef 14 14 3e
       0.015818732 0.10267047 0.08865812 0.1446111
0000e0 24 e5 3e 3e 2b 0f 40 3e 45 be 32 3e af 68 42 3e
       0.18642098 0.18755786 0.17455395 0.18985246
0000f0 12 6b 93 3d 5b d3 b8 3c 3c f3 0a 3e 5a aa 42 3e
       0.071981564 0.02256172 0.13569349 0.19010296
000100 ea e2 f0 3d 95 29 90 bd 7c 97 3b 3e 18 53 58 bd
       0.117620304 -0.07039181 0.18319505 -0.05281362
000110 2b 59 b0 bd 2d 28 bb bd f3 8f e1 3c 7d 25 79 bc
       -0.086107574 -0.09138522 0.02753446 -0.015206692
000120 f7 64 dc bd c7 59 97 3c 8b 65 cc bd a8 81 e7 3d
       -0.10761445 0.018475426 -0.09980305 0.11304027
000130 37 1a 9c bd 62 26 0d 3e 77 4b 2f 3e d7 af 15 be
       -0.076221876 0.13784173 0.17118631 -0.14617859
000140 a4 44 a1 bc ec af 05 bb 31 04 f9 3d c2 14 3d be
       -0.01968605 -0.0020399047 0.121590026 -0.1846495
000150 ab 0e 43 3d f9 3c 32 3d 68 e6 3c be 29 3b 97 3d
       0.04762141 0.04351518 -0.18447268 0.07384331
000160 33 3d cd bd ca 59 7e bd bd db 0a be 28 63 0d bd
       -0.100214384 -0.06209735 -0.13560386 -0.03451839
000170 06 ca 24 3e 11 a1 3a 3d 85 9f fc bd 62 5f fc bd
       0.16092691 0.04556376 -0.123351134 -0.1232288
000180 6a 13 dc bd ec bb 2f 3d 13 1d 32 3e ef 7e 72 bd
       -0.107458904 0.042903826 0.17393903 -0.059203085
000190 5b 90 a5 bd 45 c5 8a bc a9 9b b5 bd 2d 69 fc bc
       -0.08084174 -0.016939769 -0.088675804 -0.03081187
0001a0 d0 06 db bd 5d 74 3e be 57 c9 20 3e f8 9a b4 3d
       -0.10694659 -0.18599077 0.15701805 0.088186204
0001b0 fe 69 19 be 99 04 9d ba 82 7a 9c bd 53 11 1d bd
       -0.14981839 -0.001197952 -0.07640554 -0.0383466
0001c0 44 22 ad 3c b8 bc 2a 3e 96 88 37 be 49 7d 53 bd
       0.021134503 0.16673553 -0.17923197 -0.051633153
0001d0 59 28 19 3e 14 b9 b7 bd db d9 f9 bb ce 95 ab 3c
       0.14956798 -0.08970848 -0.0076248473 0.020945456
0001e0 40 0c ec 3d df ea 06 3e 37 b9 3d 3d da ea a1 3d
       0.11525774 0.13175534 0.046319213 0.079061225
0001f0 f3 f1 b7 3c f1 db 36 3e 9d 3d 2e 3d 19 d0 97 3d
       0.022454238 0.17857338 0.042539228 0.07412738
000200 9a 46 f6 3d ce f6 1c be 88 50 0e bd 73 42 cc 3d
       0.12025185 -0.15328524 -0.03474477 0.09973612
000210 b4 38 06 3d ab 7c e9 bd 63 18 d6 bb a8 32 33 be
       0.03276892 -0.11400732 -0.006533669 -0.17499793
000220 65 1f 97 3d 14 00 a4 bd 63 ea de bd 4c a1 eb bd
       0.07379035 -0.080078274 -0.108845495 -0.11505374
000230 6c 43 2b 3e a8 44 1e be 83 33 ee 3d 8e e0 22 3e
       0.16724938 -0.15455878 0.11630919 0.15905973
000240 98 7c 31 3e 1e f3 f4 3d 32 2d 12 3d c5 59 5e bd
       0.17332685 0.119604334 0.035687633 -0.05428483
000250 fb dd 92 3c 1c 0e 6d 3d 6f af 5c 3d 30 e3 ce bc
       0.017928114 0.057874784 0.053878244 -0.025254816
000260 55 11 0c bd 80 ef 43 be a4 86 ab 3d ad 5f 15 3c
       -0.034196217 -0.19134331 0.0837529 0.009117049
000270 06 2d 07 be 02 77 e5 3d 13 36 0a 3e f7 8a e9 bd
       -0.13200769 0.112043396 0.1349719 -0.114034586
000280 b4 3a 44 be e7 63 b4 3c d8 3e 38 3d 58 9a 93 3d
       -0.19163018 0.022020293 0.044981807 0.07207173
000290 89 53 e5 3d c7 93 94 bd c0 e0 bf 3b 1e da 70 bd
       0.11197574 -0.07254749 0.0058556497 -0.058801763
0002a0 8c b8 72 bd df 27 30 be d9 f6 49 3d e0 f0 cd 3d
       -0.05925803 -0.1720271 0.049307678 0.10055709
0002b0 9e a4 5b 3c 17 ea b2 bd b3 19 81 3d 32 a7 27 3e
       0.013405947 -0.08736055 0.0630373 0.16372374
0002c0 3f 7f 16 3d e9 59 80 3d a0 f5 9d bd 4d 6f 8b bd
       0.036742445 0.06267149 -0.07712865 -0.06808338
0002d0 ad c3 31 3c c3 1b fe bd bf ea 05 3e fa 35 84 3c
       0.010849875 -0.12407639 0.1307783 0.01613902
0002e0 ba 5f 2a 3e 6c 60 cc bd 3f 31 ec bd a5 0d b9 bc
       0.1663808 -0.099793285 -0.115328304 -0.022589514
0002f0 ab 22 0c be c5 c9 e9 bd 15 95 2a 3e 2f aa 01 bd
       -0.136851 -0.114154376 0.16658433 -0.03165644
000300 ce 97 22 3e da 2c 18 be 34 69 31 3e fa e3 3d bd
       0.15878221 -0.1486086 0.17325288 -0.046359994
000310 e7 e3 c4 3d 67 56 2b be e3 a8 92 3d de 4f cc 3d
       0.096137814 -0.16732179 0.07161119 0.09976171
000320 84 98 14 be e1 c4 be 3d 7c 2d 9c bd 7f c9 d4 3c
       -0.14511305 0.093148954 -0.07625863 0.025974987
000330 cf 58 fe bc 22 62 09 3e 56 bc 57 3d aa 3b 24 be
       -0.031048207 0.13416341 0.052669846 -0.16038385
000340 87 8c e2 bd 46 be 80 bd 52 ad f5 bd 05 7b 46 3d
       -0.1106196 -0.06286292 -0.11995949 0.048457164
000350 5b 99 e7 bd c9 d4 d0 bd 32 73 0e 3e c6 f0 97 bd
       -0.11308547 -0.101968355 0.13911131 -0.07418971
000360 fb 0d 2f bd 1a 95 2f be ca b3 1d 3e 72 0a 54 bd
       -0.042737942 -0.17146721 0.15400615 -0.051767774
000370 27 de a9 bd 6e 74 ee bd 73 43 81 bd 61 e8 46 bd
       -0.08294325 -0.11643301 -0.06311693 -0.048561458
000380 ac a9 f8 3d 3c a3 41 be 8f 92 84 bd a0 24 1f be
       0.12141737 -0.18909925 -0.06473266 -0.15541315
000390 2e bc 64 3d 39 ed 35 3e 8d 64 34 3e b4 12 2d be
       0.055843525 0.17766275 0.17616482 -0.16901666
0003a0 d6 fb e3 3d 5b a8 ff bd cb d4 1b be 54 b3 10 be
       0.11132018 -0.12483283 -0.15217893 -0.14130908
0003b0 9b fc 1e 3e 85 cf a8 3c e2 51 87 3b ae 2a dd 3d
       0.15526049 0.020606766 0.0041296342 0.10799156
0003c0 58 1f 33 be 98 55 26 be c0 b1 cf bd 1c 5d f4 3d
       -0.17492425 -0.16243589 -0.10141325 0.11931822
0003d0 d2 72 aa 3c 88 6f 62 bd 84 50 25 be 63 7a b7 bd
       0.020806704 -0.055282146 -0.16143996 -0.0895889
0003e0 e5 5b 3f bc e9 2d b5 3d f6 a3 23 3e e1 57 41 3e
       -0.011679624 0.08846647 0.15980515 0.1888118
0003f0 3f 70 05 bd be 46 3d 3e 98 07 ce bd 13 e1 00 3e
       -0.03257775 0.18484017 -0.10060042 0.12585859

field_cnn.0.bias f4 [32]
000000 46 f0 7b 3c d5 af cf 3d 41 57 a2 3d f1 e9 8b 3d
       0.01537711 0.10140959 0.079267986 0.0683173
000010 d4 e5 9f bd e4 1e 67 bd c6 07 03 be b6 60 ad 3c
       -0.07807508 -0.056425944 -0.12795934 0.02116428
000020 de c0 44 be 08 df 33 bd 84 ee 8a bd fe 40 c9 bd
       -0.19214198 -0.04391387 -0.067837745 -0.098268494
000030 aa 42 2c be 9a 74 59 3d 43 c9 7b 3b 36 24 c2 bd
       -0.16822305 0.053089716 0.0038419522 -0.09479563
000040 9d f6 93 3d c5 1a b4 3d 31 b5 84 3d 6a 9b 16 3e
       0.07224772 0.087941684 0.06479872 0.14707723
000050 80 8e 2f be 94 1c 42 be a0 82 0e be 31 4c 18 be
       -0.17144203 -0.18956214 -0.13917017 -0.14872815
000060 b3 e5 11 3e af 48 21 be 5f 76 45 be ef 57 15 be
       0.1424778 -0.15750383 -0.19283436 -0.14584325
000070 06 83 2b 3e 90 ec 25 bd ea e0 8f bc f6 0c bb 3b
       0.167492 -0.040508807 -0.017563302 0.005708332

field_cnn.1.weight f4 [32]
000000 bf a1 7f 3f 2b 51 80 3f 24 0f 80 3f a0 55 7f 3f
       0.9985618 1.002477 1.000462 0.9974003
000010 5f c3 80 3f 15 a8 80 3f 94 27 80 3f f8 60 7f 3f
       1.0059623 1.0051295 1.0012078 0.9975734
000020 3e 9d 7f 3f e7 94 80 3f a9 c8 7e 3f aa 87 80 3f
       0.9984931 1.0045441 0.99524933 1.0041401
000030 07 19 80 3f 0e 43 80 3f 28 58 7f 3f 1b 37 80 3f
       1.0007638 1.0020463 0.9974389 1.0016817
000040 b4 4a 80 3f e7 49 81 3f 23 39 80 3f d3 ec 7f 3f
       1.0022798 1.0100678 1.0017437 0.9997074
000050 03 9c 7f 3f 6f 90 7f 3f 97 aa 80 3f 58 3c 80 3f
       0.9984743 0.99829763 1.005206 1.0018415
000060 fd 83 7f 3f c2 51 7f 3f 65 4a 7f 3f 56 63 7f 3f
       0.99810773 0.9973413 0.9972289 0.9976095
000070 e5 eb 7e 3f ea f5 7f 3f 5f 2c 7f 3f 3e 85 7f 3f
       0.99578696 0.9998461 0.9967708 0.99812686

field_cnn.1.bias f4 [32]
000000 74 e2 24 3c e0 cb 91 3b 97 08 6e 3b b8 d1 49 3b
       0.010063756 0.0044493526 0.0036321038 0.0030795168
000010 73 92 82 3b a1 73 2f 3c 6b 83 fc 39 01 59 7e bb
       0.0039847433 0.01070872 0.000481631 -0.0038810375
000020 5c 36 97 3b 98 5d 51 3b 5e a7 5e ba 0e c6 aa 3b
       0.0046146344 0.0031946655 -0.00084935676 0.0052115982
000030 47 26 89 3a 6c 1d a7 35 f7 dc d5 ba fc ba 70 3b
       0.0010463678 1.2451032e-06 -0.0016316463 0.0036732545
000040 5c 58 9c 3b 27 59 1b 3c f6 d7 f2 39 fa f8 73 3b
       0.0047712754 0.009481705 0.0004631874 0.003722726
000050 c1 d5 83 3b e5 a7 35 3b 49 e0 37 3c 1e 7f fc 3b
       0.004023284 0.002771848 0.011222907 0.0077055832
000060 4a 6b 44 bb 86 ed 09 3a b5 99 33 ba a0 6f 46 bb
       -0.0029971176 0.0005261529 -0.0006851212 -0.0030278936
000070 9f aa 34 3a 58 fe 5e 3a 1c 96 3d ba a6 96 7b 3b
       0.00068918796 0.0008506528 -0.0007232146 0.0038389354

field_cnn.1.running_mean f4 [32]
000000 8d ec b9 be 38 66 89 bd d0 0b 70 3f b2 6e bc be
       -0.36313286 -0.0670895 0.93768024 -0.36803204
000010 46 6c 22 3e 4d 12 df bd 24 b9 31 be 19 35 36 be
       0.15861616 -0.108921625 -0.17355782 -0.17793693
000020 fa 3e 4b bf dd 81 fc 3e 77 50 b8 be 5c 81 43 3d
       -0.7939297 0.49317828 -0.3599889 0.04773079
000030 6e 02 f5 be b9 2d 80 be 0f e5 8a be a1 48 b1 3e
       -0.47853416 -0.25034884 -0.27127883 0.34625724
000040 cf 62 7e be 6f 2c 30 3f 05 2c 26 be dd f5 b1 be
       -0.2484238 0.688178 -0.1622773 -0.3475789
000050 8d 1d 31 be b6 01 58 be 7a a8 88 bd 38 24 f5 bd
       -0.17296429 -0.21094403 -0.06672759 -0.11969799
000060 79 02 8a 3e 06 5b 98 3e 45 c8 76 3e c3 f4 45 be
       0.2695501 0.29756945 0.24099834 -0.1933165
000070 0d 05 6a 3d a0 ab b8 3e bb cb 38 bf d5 eb a1 3e
       0.057133723 0.3606844 -0.7218587 0.31625238

field_cnn.1.running_var f4 [32]
000000 8f 41 0b 3c f5 b2 30 3b b5 ec 0e 3d ac 5e d8 3b
       0.008499517 0.0026962135 0.03489371 0.0066030826
000010 14 a4 ba 3b 9e 4e 99 3b 8f e3 06 3b 91 3d 5c 3b
       0.005695829 0.0046785614 0.0020582413 0.0033606032
000020 29 df 63 3c 59 27 34 3c 02 4c 93 3b e9 b1 3d 3b
       0.013908186 0.010995709 0.004495145 0.0028945154
000030 42 0c bc 3b dc f0 bd 3b 2c 67 50 3b 7b 44 02 3c
       0.005738766 0.005796535 0.0031799776 0.007950897
000040 b3 99 da 3b 01 ce 47 3c f6 38 66 3b 1a bc 17 3c
       0.0066711544 0.012195111 0.0035129166 0.0092611555
000050 c9 4d aa 3b d5 d7 e5 3b aa ca 82 3b ef ad fb 3a
       0.005197261 0.0070142546 0.0039914446 0.0019201617
000060 ed 8e 3e 3b b9 0f 4a 3c 7b 13 2f 3c f8 81 66 3b
       0.002907689 0.01233285 0.010685797 0.0035172682
000070 2a 3a 13 3b c2 7f db 3b 48 c8 89 3c 41 4e de 3b
       0.0022465088 0.0066985795 0.016819134 0.006784231

field_cnn.4.weight f4 [64, 32, 3, 3]
000000 d6 72 81 3c 76 34 54 bd 56 2e 0f bd c9 17 dd bc
       0.015801828 -0.051807843 -0.0349563 -0.02698888
000010 91 ac 16 bd 30 dc 50 bd e5 7d 08 3c 3e 23 60 3d
       -0.036785666 -0.050991237 0.008330797 0.05472111
000020 78 06 61 bd 84 d3 26 3d 63 fa 42 3d 76 41 f7 ba
       -0.05493781 0.04072906 0.04760207 -0.0018864113
000030 3f be 49 bd 68 38 6c 3d 26 83 0e bd 30 2a 58 3c
       -0.0492537 0.05767098 -0.03479304 0.013193652
000040 9e 30 93 3c 08 d6 dc bc 50 f7 ae bc 37 a5 52 3d
       0.017967518 -0.026957527 -0.021358162 0.051427092
000050 1d 66 5a bb 9e 5f fb ba 4e 47 1e bb 67 42 5c bd
       -0.0033325024 -0.0019178276 -0.0024151388 -0.053774264
000060 5c 8c 95 3c eb ef 8d bc 6b e2 bb bc a6 c9 49 3d
       0.018255405 -0.017326316 -0.022935113 0.049264573
000070 6d 03 a8 bc 63 c7 74 3d bd 1f f3 b9 4a f9 0c 3d
       -0.020509446 0.059760462 -0.0004637222 0.034417428
000080 3b ad 9d bc 77 70 e4 3a d5 89 47 bd 1b 90 60 3c
       -0.019247642 0.0017428537 -0.04871543 0.013706232
000090 83 6c 7d bc 09 68 3c bc 94 d9 22 bc 09 63 00 3d
       -0.015467766 -0.011499413 -0.00993957 0.031344447
0000a0 b5 7b 07 bd 3b 2e 0b bd dd 70 23 3d 09 f5 51 bd
       -0.03307696 -0.033979636 0.039902557 -0.051259074
0000b0 2a f1 3e bd df 80 e1 bc aa bb d3 bc 02 f5 d5 3c
       -0.04661671 -0.02752727 -0.025846321 0.026117805
0000c0 c9 32 3f bd 9a 91 3a 3d 23 43 85 bb 38 8b 69 3d
       -0.046679292 0.045549013 -0.004066841 0.057017535
0000d0 85 28 8a 3b 79 95 2e 3d 18 e2 c4 3c b8 b8 5b 3d
       0.004216256 0.042623017 0.024033591 0.05364296
0000e0 49 c9 6a bc d4 75 c3 3b 87 93 71 bc 72 04 bf 3c
       -0.014330217 0.005964974 -0.014744646 0.02331755
0000f0 68 9b 41 bc 86 ee 09 bd dc a3 aa 3c f3 51 94 bb
       -0.011816837 -0.03367474 0.020830087 -0.0045263707
000100 1c 08 24 bd 80 a1 13 3d 60 e3 11 bd 30 32 90 bc
       -0.040046796 0.03604269 -0.035617232 -0.017602056
000110 53 21 a4 bc b3 21 85 bc 55 e1 a8 bc 82 a2 2f bd
       -0.020035421 -0.01625142 -0.02061526 -0.04287959
000120 77 1b 3e bd 66 43 b6 bc d7 eb 23 bd cf 07 0a bc
       -0.04641291 -0.022248935 -0.040019836 -0.008424713
000130 9b 7b 9f 3c 88 a3 1a bd e3 0e af bb 36 b4 2a 3d
       0.01946812 -0.03775361 -0.005342351 0.04167577
000140 96 72 0d 3d 91 96 6b bb 51 e6 54 bd 0f 4b 7e 3d
       0.034533106 -0.00359479 -0.05197746 0.0620833
000150 76 19 bd 3a 51 55 21 bd 78 ae c2 3c 58 89 44 3d
       0.0014427144 -0.039388005 0.023764834 0.047982544
000160 c5 87 5e 3c ac 7c ff bc 39 f1 68 3d 07 44 78 bd
       0.013582175 -0.031187378 0.056870673 -0.06061175
000170 6c ef c8 3a d5 bd 19 3d 8b 08 d7 bc 5d 57 66 3d
       0.0015330142 0.037534554 -0.02624919 0.05623566
000180 39 41 83 bb 5b e6 54 3d 8a ef fa 3c 4f da 46 bd
       -0.004005578 0.051977497 0.0306318 -0.04854804
000190 1a bc 05 bb 55 1c 11 3d 40 fe 8b 3d 16 ff 7a 3b
       -0.0020406307 0.03542741 0.06835604 0.0038299016
0001a0 68 43 60 3c 63 54 3b 3d a5 2f 71 bd f9 3a 73 3c
       0.013687946 0.045734774 -0.058883328 0.014845603
0001b0 3d 68 6a bd 7a 32 90 3a 90 84 6e 3c 39 65 04 3d
       -0.057228316 0.0011001371 0.014557973 0.032323096
0001c0 d2 05 0e bd bd 8e 23 bb 69 f1 2e bd 34 dc 52 3d
       -0.03467352 -0.0024956905 -0.042710695 0.051479533
0001d0 bb 5b b4 bc ab c4 20 3d 45 83 46 3d 5e dd 3d bd
       -0.022016397 0.039250057 0.048465032 -0.04635369
0001e0 52 0c d4 bc 47 92 41 bd b0 17 08 3d 15 96 54 bd
       -0.025884781 -0.04725864 0.033225715 -0.051900942
0001f0 20 f9 2f bd 9f 84 3f bc 36 da 0e bd 84 7e a4 3c
       -0.042962193 -0.011689334 -0.03487607 0.020079859
000200 e3 57 1d 3d 1f 12 4f 3c 64 e7 2d 3d 96 51 82 3b
       0.038413893 0.012638598 0.042457 0.003977011
000210 a2 9e b4 39 ed f8 32 bd bc 91 91 3c 2e f8 e0 bc
       0.00034450466 -0.043694425 0.017769687 -0.027462091
000220 fd 49 4c 3d 3d ce 64 3d 8d 48 6a bc 29 be 85 bc
       0.04987525 0.055860747 -0.014299524 -0.016326027
000230 67 30 ae bc a3 f1 52 bd 9b 72 4d 3d d8 7e 8e 3c
       -0.021263314 -0.051499974 0.050158124 0.017394468
000240 dd df fc bc 17 a5 58 3d f9 a3 61 3c 6d 05 28 bd
       -0.030868465 0.052891817 0.013772004 -0.0410208
000250 11 c2 0e 3d e5 be 2c bc 61 2f 75 3d d2 23 66 bd
       0.034853045 -0.01054356 0.059859637 -0.056186505
000260 1b 56 1d bd 08 66 18 3d c6 d3 44 bd b1 b7 cc 3b
       -0.038412195 0.03720668 -0.048053525 0.0062474837
000270 35 b4 05 3d 70 0f 3a 3d a6 83 2a bd 6a 00 f3 bc
       0.032642562 0.04542488 -0.041629456 -0.029663283
000280 cf 6a d4 bc b4 fd 32 3d 32 58 80 3b 08 08 45 3c
       -0.025929837 0.04369898 0.0039167637 0.012025841
000290 3d 9f 3d bd 25 2c 6c bc 1a 1e bd bc ef c4 f2 3c
       -0.04629444 -0.014414822 -0.023085643 0.02963492
0002a0 d0 6c cb bc ec 3c 9e 3c 71 e8 da 3c 46 c9 eb bc
       -0.02483216 0.01931616 0.026722165 -0.028782498
0002b0 92 d3 02 3d cc 16 64 bd 51 3d 4a bd 19 f8 59 3d
       0.03194005 -0.055685803 -0.049374882 0.05321512
0002c0 4b 2b 79 bd 07 ed ee 3c fa 3f 32 3d 06 6b 55 bd
       -0.060832303 0.029165758 0.043518044 -0.05210402
0002d0 26 a8 14 3d ce e1 24 bd 23 28 67 3d fd bf 59 bc
       0.03629317 -0.040254407 0.05643476 -0.0132904025
0002e0 cb 72 52 bd 8a 5b e1 bc 59 de 2b 3d 84 2d df ba
       -0.051379006 -0.02750947 0.041960094 -0.0017027115
0002f0 44 ef 0e 3d 13 21 4f bd af 99 d2 bc e5 be 05 3d
       0.03489615 -0.05056865 -0.025708048 0.032652754
000300 ac ef 21 bd ea 78 13 bc 53 3a 25 bb 7c da 6c bd
       -0.03953521 -0.009000996 -0.0025211766 -0.05782555
000310 b9 72 27 3d 1b 07 67 3d dc da 61 bc 24 b9 61 3d
       0.040880892 0.05640326 -0.01378509 0.055108204
000320 92 45 23 3d 69 67 36 3b bf 5a 05 bc 46 92 3e bd
       0.03986127 0.0027832633 -0.008139311 -0.046526216
000330 e4 68 5c bd cc 04 d6 3b 18 aa 4d 3d 9b f2 16 bd
       -0.05381097 0.0065313336 0.050211042 -0.03685246
000340 82 2d b8 bc da 3b 3f 3d 66 3a 58 3d 9b 8b a5 3b
       -0.022482637 0.04668794 0.052790068 0.0050520427
000350 77 62 10 bc 8a 08 bd 3c 96 3a 5e 3c 6a 91 15 bd
       -0.008812538 0.02307536 0.013563773 -0.03651563
000360 11 04 ab 3c ab 2c 95 3c 0c 40 0d bd a2 77 57 3d
       0.020875962 0.018209776 -0.034484908 0.052604325
000370 19 97 cb 3c 2b 90 0b bc d2 5e 2b bd 57 a5 65 3d
       0.024852322 -0.008518259 -0.041838475 0.056065883
000380 d2 a8 20 3d 7e 3a 2a bd c0 5e 6f 3d 9c e6 4f 3d
       0.0392235 -0.04155969 0.05843997 0.050757036
000390 c1 9f 8e 3c ed c6 dd 3c 94 a7 fe 3c e8 f5 a0 3c
       0.017410161 0.027072394 0.031085767 0.019648507
0003a0 d4 8f 13 3c 76 aa 12 bc 60 c1 71 3b af 9d 48 bd
       0.009006459 -0.008951774 0.0036888942 -0.048978504
0003b0 06 d5 4b 3c cb dd 30 3c f7 d0 8c ba be 50 3c bd
       0.012440925 0.010795067 -0.0010743429 -0.04597544
0003c0 e0 5f 37 bd 89 96 17 bc 6e 90 6d 3d 98 a9 db bc
       -0.044769168 -0.009252199 0.057999067 -0.026814267
0003d0 9e 41 38 3d 06 40 ae 3c 0c 23 f7 bc d4 cc 07 bd
       0.044984452 0.021270763 -0.030168079 -0.033154324
0003e0 5e 3f 7d bc 7e fc 13 bd bb 85 1e 3d 4f 35 16 3d
       -0.015457002 -0.036129467 0.038701754 0.036671933
0003f0 8c 80 e6 3c 9e dd bb 3a 74 c5 8f 3c 99 69 2c 3d
       0.028137468 0.0014333015 0.017550208 0.042092893

field_cnn.4.bias f4 [64]
000000 d8 3e d8 bc eb 36 78 3d 5a 12 50 bd 6e 2a db 3c
       -0.026397154 0.06059925 -0.05079875 0.02675363
000010 06 b2 5a 3d b5 f6 3d 3d e3 ab 53 bd ba 11 d9 bc
       0.053392433 0.046377856 -0.051677596 -0.02649771
000020 64 f8 f5 39 95 98 7f 3c b0 72 60 bc 62 f3 4a 3d
       0.00046915107 0.015600343 -0.013699219 0.049548514
000030 a5 4c 2d 3d a5 60 11 3d fa 7a 08 3d ee ed 45 bd
       0.042309422 0.035492558 0.033320405 -0.04832261
000040 57 14 3b bc 6a b3 17 bc e3 31 3a 3d b1 41 f4 bb
       -0.011418424 -0.009259084 0.045457732 -0.00745412
000050 ac a4 95 3b c1 61 85 bc 4c d7 84 bc c8 c1 6b 3d
       0.0045667496 -0.016281964 -0.016215943 0.05755785
000060 9d d7 38 bd 3b de 31 3d 0f d3 da 3c 62 50 6d bd
       -0.0451275 0.043424826 0.026711969 -0.057937987
000070 3a e2 0b bd 01 ac 4f 3d 72 d2 b2 3c bc e6 40 bd
       -0.034151293 0.050701145 0.021828864 -0.047095045
000080 be d9 6a bd e5 c0 37 bd 28 f0 4a bc 82 22 52 bd
       -0.05733656 -0.044861693 -0.012386359 -0.05130244
000090 92 3f b5 bb 1a f2 1e bd f9 14 7a ba 08 da 48 3c
       -0.00553126 -0.038805105 -0.00095398683 0.012259014
0000a0 7d 85 17 3c f1 63 3b 3d 6f 19 55 bd ec 55 85 3c
       0.009248135 0.04574961 -0.05202621 0.016276322
0000b0 95 3c 71 3d 0a 75 21 3d fe ff 07 bd 78 16 f3 3c
       0.058895666 0.039418258 -0.033203118 0.0296738
0000c0 78 95 5f 3d 21 9c 19 3c de 58 a6 3c 94 ce 04 3d
       0.054585904 0.009375603 0.020306047 0.03242357
0000d0 43 d5 1f 3b db ed c4 3c bf ac 60 bd ff bb 2c 3c
       0.0024388588 0.0240392 -0.054852244 0.010542869
0000e0 71 21 30 3c 2e aa 46 bd 55 e1 ef bc 44 a9 c0 3c
       0.010750161 -0.04850214 -0.029282251 0.023518212
0000f0 46 78 66 3d bc 6e 50 bd e9 24 a0 bc 7b 51 0c 3d
       0.056267045 -0.050886855 -0.01954885 0.034257393

field_cnn.5.weight f4 [64]
000000 cb b6 7f 3f f3 a5 80 3f 1c 00 81 3f 6d 7b 81 3f
       0.99888295 1.0050644 1.0078158 1.0115792
000010 97 9c 7f 3f 3b 03 80 3f 82 b9 80 3f 91 d5 80 3f
       0.9984831 1.0000986 1.0056612 1.0065175
000020 a7 d8 7f 3f a3 0b 80 3f d7 d7 7f 3f 51 99 7f 3f
       0.9993996 1.0003551 0.9993872 0.9984332
000030 35 4b 80 3f c8 1a 80 3f 6d 63 80 3f a1 74 80 3f
       1.0022951 1.0008173 1.0030342 1.0035592
000040 6d e9 7e 3f 69 bc 7f 3f 24 60 7e 3f bf 40 80 3f
       0.9957493 0.99896866 0.9936545 1.0019759
000050 79 db 80 3f 62 2c 80 3f d0 dc 80 3f ab 42 80 3f
       1.0066978 1.0013545 1.0067387 1.0020345
000060 e2 5f 80 3f 33 5b 7f 3f 12 66 7f 3f 96 9d 80 3f
       1.0029261 0.99748534 0.9976512 1.0048091
000070 45 ac 7f 3f 0a ad 80 3f 71 b6 7d 3f ba 08 80 3f
       0.9987224 1.0052807 0.9910651 1.0002663
000080 ee 67 80 3f 9c 2d 80 3f 95 d0 7f 3f a9 f3 7f 3f
       1.0031717 1.0013919 0.99927646 0.9998117
000090 27 8d 7f 3f ae 4e 7f 3f 30 68 80 3f 40 2a 7e 3f
       0.99824756 0.9972943 1.0031796 0.9928322
0000a0 5a 52 80 3f f8 0e 80 3f 96 a6 7e 3f 5f a5 7f 3f
       1.0025132 1.0004568 0.9947294 0.9986171
0000b0 27 10 80 3f 33 98 7f 3f 36 ba 80 3f 4f 52 80 3f
       1.0004929 0.9984161 1.0056827 1.0025119
0000c0 60 6f 81 3f f4 0d 80 3f 69 b2 80 3f 2b 0a 80 3f
       1.0112114 1.0004258 1.0054446 1.0003103
0000d0 3b 88 80 3f c1 96 80 3f dc 82 80 3f 82 75 7e 3f
       1.0041574 1.0046006 1.0039935 0.9939805
0000e0 a6 6a 7f 3f 74 86 80 3f 74 01 80 3f 94 3a 80 3f
       0.9977211 1.0041032 1.0000443 1.0017877
0000f0 5e 65 7f 3f 2e 0a 80 3f c5 2b 80 3f 03 5b 7e 3f
       0.9976405 1.0003107 1.0013357 0.9935762

field_cnn.5.bias f4 [64]
000000 44 99 26 3a c0 4b c5 3a fa 41 1a 3c 05 0d ce 3b
       0.0006355236 0.0015052482 0.009415144 0.006288173
000010 e2 2b a2 3a 52 31 0d 3b 06 20 0e 3b 4d 09 d8 39
       0.0012372697 0.002154429 0.0021686568 0.0004120566
000020 a3 d6 cc 3b 54 22 73 38 ac fb ae bb 87 d6 e8 3b
       0.0062511726 5.7967685e-05 -0.00534006 0.007105652
000030 dc ce f4 3b d8 01 f5 3b ce a6 0e 3b f5 72 8a bb
       0.0074709486 0.0074770264 0.0021766904 -0.0042251297
000040 0d f3 ac ba 6d b7 8f ba 97 56 02 3a f7 da 1e 3c
       -0.0013194993 -0.0010964699 0.00049720093 0.00969576
000050 cf fa a6 3b 95 a8 cf 3b a6 3b 98 3b 83 01 22 bb
       0.0050958167 0.006337235 0.0046457825 -0.002472014
000060 e2 a2 20 3a 8b 6c b5 bb 0f 73 00 bc 37 ad 6e 3b
       0.0006127787 -0.005536621 -0.007839932 0.0036419162
000070 da c1 07 b9 9d 6e 57 3c db f2 b2 3a eb 34 96 3b
       -0.00012946819 0.013148931 0.0013652699 0.004583945
000080 02 12 d6 3b 12 66 67 3c 0e 61 80 3b e1 e6 26 ba
       0.0065329084 0.014123457 0.00391782 -0.0006366801
000090 46 80 39 3b 0d 99 ff 3b 51 8a 0c ba e8 74 a0 3a
       0.0028305217 0.0078002275 -0.0005361187 0.0012241872
0000a0 c4 ac 24 bb e1 d1 39 3a fc 75 b4 b9 68 12 1a 3c
       -0.002512739 0.00070884643 -0.0003442018 0.009403802
0000b0 72 cd b1 b9 91 f0 55 3a 1b 8d 93 3b 6a 8a a9 3b
       -0.0003391314 0.00081611524 0.004502905 0.005173971
0000c0 1e d5 d7 3b 5a 50 23 ba ca 69 3c 3b b9 23 2c bb
       0.006586685 -0.000622993 0.0028749579 -0.002626641
0000d0 73 14 ce 3a 5f 53 35 3c 63 86 ea ba fd d7 05 bb
       0.0015722647 0.0110672405 -0.0017892834 -0.0020422929
0000e0 c1 32 64 3b ad 91 7a 3b 96 d4 fe ba a2 7e 01 3c
       0.003482029 0.0038233802 -0.0019442018 0.007903727
0000f0 22 f5 44 ba d6 19 88 3b 1b d0 8c 3a 33 f3 60 bb
       -0.0007513334 0.0041534705 0.0010743173 -0.0034324646

field_cnn.5.running_mean f4 [64]
000000 79 7b c0 bd 45 9a 94 be 80 bf 04 bf ff 08 06 bd
       -0.093985505 -0.29023948 -0.51854706 -0.032723423
000010 54 68 43 bc 4d 6b 07 be 7b 92 72 bb aa 1a 0e bf
       -0.011926729 -0.13224526 -0.0037013579 -0.55509436
000020 52 f2 97 3d cd 7d 8d 3e f2 21 7c be fe b1 76 bd
       0.07419266 0.2763504 -0.24622324 -0.06022834
000030 41 57 85 bd 16 cd 49 3d 9a 37 7c 3d 04 52 2e bd
       -0.06510783 0.04926785 0.061576463 -0.042558685
000040 c7 7b d1 3e 10 8c 3b be e2 3b ac 3e 5b e0 8d be
       0.40914747 -0.18315148 0.33639437 -0.27710232
000050 19 c5 94 bd ad 67 c7 be 8c a6 2d bf 1b 9f ac be
       -0.07264156 -0.38946286 -0.67832255 -0.33715138
000060 80 e9 df be e7 50 73 3e c1 9a c5 3e 1b b4 ba bc
       -0.43732834 0.2376133 0.3859463 -0.02279096
000070 b3 e5 c8 bc c3 b8 0f be ee f5 22 3f b6 20 24 be
       -0.024523592 -0.14035325 0.6365651 -0.16028103
000080 1a a2 99 be 8e 4d 02 be 10 9c 49 be a1 7d 1b bf
       -0.30006486 -0.12724897 -0.1968844 -0.6073857
000090 28 40 06 3d 4f cb 8d be 0a 42 6a 3d 3b d1 fd 3e
       0.032776028 -0.27694175 0.057191886 0.49573693
0000a0 8a 71 1d bd b6 5f 49 3d fd e1 e6 bd 40 61 da 3e
       -0.038438357 0.049163543 -0.112735726 0.4265232
0000b0 8f a5 12 3e 7f 7d d2 3e ed d7 37 bd c4 c2 73 3e
       0.14320968 0.4111137 -0.044883657 0.23804766
0000c0 02 33 f8 bc 9b bd b6 be 44 b5 0c bf 14 78 14 be
       -0.03029776 -0.35691532 -0.5496409 -0.14498931
0000d0 8a c6 86 bd e0 2a 0b be 6e ef d1 bd f6 cd 43 3e
       -0.06580837 -0.13590574 -0.10250746 0.19121537
0000e0 70 91 bb be fd ef 61 bf da 83 c8 bd 26 c4 b1 be
       -0.36634398 -0.8825682 -0.09790774 -0.34719962
0000f0 54 58 d4 bb ae 5f 3c 3e ed af 93 3e 68 75 43 be
       -0.006480256 0.18395874 0.28845158 -0.19087756

field_cnn.5.running_var f4 [64]
000000 02 25 b4 3d 33 5f d7 3d 00 98 36 3e ca b0 87 3e
       0.08796121 0.10516205 0.17831421 0.26502067
000010 30 bc 82 3e 1a e7 09 3e cc fd c1 3d 22 5e 18 3f
       0.255342 0.13467064 0.09472236 0.59518635
000020 ad d8 2f 3e 14 0b 47 3e 23 99 1c 3e c8 7e 05 3e
       0.17172499 0.1943782 0.15292792 0.13036644
000030 1a 23 05 3e 6c 07 3d 3e 59 aa 1b 3e 37 0e 4b 3e
       0.13001671 0.18459862 0.15201701 0.19829641
000040 50 d4 59 3e 52 ea c7 3d 60 6d a0 3e a4 50 53 3e
       0.21272397 0.0976149 0.31333447 0.2063623
000050 ab cc 37 3e ad e2 b6 3e 78 3a 91 3f d5 51 e6 3e
       0.17949168 0.35719815 1.1345968 0.44984308
000060 ca 73 48 3e 0f cc ab 3e a3 2e 9c 3e aa e0 10 3e
       0.1957542 0.33554122 0.3050433 0.14148203
000070 6f 69 da 3d 9b e8 5b 3e ef 89 ef 3e 05 54 01 3e
       0.10664641 0.2147545 0.46784922 0.12629707
000080 c7 31 09 3f 6b 29 9e 3e ca f7 2a 3e 03 d0 61 3e
       0.5359158 0.30890974 0.16696087 0.22052006
000090 39 2b 08 3e 37 c8 83 3e 33 07 16 3e 6c 8c 25 3f
       0.13297738 0.2573869 0.14651184 0.6466739
0000a0 a6 4d 0d 3e d5 aa aa 3e d9 07 9e 3e bd 64 87 3e
       0.13799152 0.3333346 0.30865362 0.26444045
0000b0 94 5c 21 3e f7 35 3d 3e 09 23 1b 3e 0b 54 36 3e
       0.15757972 0.18477617 0.15150084 0.17805497
0000c0 3f 8e fc 3e c2 8c 94 3e ed c7 42 3f 0e f9 5f 3e
       0.49327275 0.2901364 0.7608631 0.2187235
0000d0 b1 11 8e 3e c6 fe 6c 3e fa f3 2c 3e 53 e6 0e 3e
       0.27747872 0.23144063 0.16889945 0.13955049
0000e0 90 cd 2c 3e 6e ba ee 3e f8 12 8b 3e 9b 77 18 3e
       0.16875291 0.4662661 0.2716291 0.14889376
0000f0 81 6b bb 3e 3e 73 af 3e 6a ad 83 3e 56 14 75 3e
       0.36605456 0.3426761 0.25718242 0.23933539

field_cnn.8.weight f4 [128, 64, 3, 3]
000000 9d fd a2 bb 12 31 85 3c be d6 0e bd c9 21 e5 bc
       -0.0049740807 0.01625875 -0.034872763 -0.027970212
000010 9c d5 72 bc 1e f7 89 bc c2 9b 50 3b 8e 8c 0a 3c
       -0.014821436 -0.016841467 0.003183112 0.008456362
000020 30 f0 a9 3c 5f c0 04 3d 77 5c cc 3c ad 04 de bb
       0.020744413 0.032410022 0.024946434 -0.0067754597
000030 3b 3f d2 3b 7d 55 e2 3c c4 f8 52 bc 82 78 e9 3b
       0.006416229 0.027628655 -0.012876693 0.0071249614
000040 5e 4b 9e bb e2 cf de bc a4 e5 39 3d 26 d2 0d bc
       -0.004830762 -0.027198736 0.045385018 -0.00865606
000050 f3 38 a9 39 b2 1e cf bc ae c0 24 3d 86 f2 2b 3d
       0.00032276622 -0.025283191 0.040222816 0.041979335
000060 0c aa 07 bd 46 47 24 3d 69 0b 16 3b c8 b3 b1 3c
       -0.033121154 0.040107034 0.0022894985 0.021692172
000070 1f 90 ed 3b 7f f5 74 3c ef ff e4 3c cd 2d 1f bd
       0.0072498466 0.014951109 0.02795407 -0.03886204
000080 71 06 e6 bc 0b 43 08 bd 18 e4 1d 3d 73 49 ee 3c
       -0.028079243 -0.033267062 0.038547605 0.029087758
000090 4d 59 83 3c 96 32 85 3c b6 de af 3c fd 25 a9 bb
       0.016033793 0.016259473 0.021468502 -0.0051619993
0000a0 f6 0c 45 bc a4 67 d3 3c a7 79 6c 3c 18 ac ba bc
       -0.012027016 0.025806256 0.014433301 -0.022787139
0000b0 d5 81 8d bc e5 2b aa bc f9 41 c2 bc 43 77 07 3d
       -0.017273823 -0.020772884 -0.023713099 0.03307272
0000c0 5c 03 21 3d 47 54 7a bc 29 8c 65 3c 33 a6 2f 3d
       0.039309844 -0.015278882 0.014010468 0.04288311
0000d0 66 ed da 3b ee da 11 3d 6d be 81 3c 1c 01 83 3a
       0.006681132 0.03560918 0.015837872 0.0009994837
0000e0 df af 00 3b d0 22 74 3c f6 c0 7c bb 29 f7 a3 bb
       0.0019636077 0.014900878 -0.0038567162 -0.005003829
0000f0 0d 01 9c 3c 3b 00 f0 bc 1f e7 3f 3d f1 d5 08 bd
       0.01904347 -0.029296985 0.046851274 -0.033407155
000100 43 bf 2b 3a 15 17 07 bd fd 03 38 3b 71 3f a3 3c
       0.00065516325 -0.032980997 0.002807855 0.019927712
000110 da 7b 9c bc a7 47 cc 3c 84 e5 58 3b 2b b8 59 3c
       -0.019102026 0.02493651 0.0033095786 0.013288538
000120 3c 79 51 3c 1e ab 0c 3d 47 56 0c bd e0 ca 9b bc
       0.012785252 0.034342878 -0.034261968 -0.019017637
000130 4d 39 3c bd a1 87 26 bd 2a 35 93 3c a5 0c a8 bc
       -0.045953084 -0.04065669 0.017969687 -0.020513842
000140 4f 5b a6 3c 5c 4d 02 ba 55 9d 06 bd bc eb 71 bb
       0.020307211 -0.0004970634 -0.032864887 -0.003691419
000150 f9 95 8d bc 18 ea 07 3d 04 d6 2c bd 92 4f ea bc
       -0.017283427 0.033182234 -0.04219629 -0.028602395
000160 de e7 20 bd 33 4a df bc 96 12 8c 3c 1d c3 4e 3c
       -0.039283626 -0.02725706 0.017098706 0.012619761
000170 de 59 eb 3c c6 88 8c 3c 9d c1 5a 3c 15 eb 18 bd
       0.028729375 0.017155062 0.013351825 -0.037333567
000180 3c 52 27 bd 2c 9d 26 36 24 84 6c 3b 24 91 2c bd
       -0.04084991 2.4827414e-06 0.0036089504 -0.042130604
000190 89 c9 e5 bb 9d db 64 3c c0 93 93 b8 af 1b 1e 3b
       -0.0070125503 0.0139683755 -7.037027e-05 0.0024125387
0001a0 81 26 34 3d a6 b4 f2 bc 7d a7 cc 3b 79 81 0a 3b
       0.043982033 -0.029627156 0.006245552 0.00211343
0001b0 36 55 07 3c 28 4c e7 bc 01 07 a3 3c d5 94 a8 3c
       0.008260062 -0.028234556 0.0199008 0.020578781
0001c0 33 d9 53 bc a1 4f 2c 3d 18 f9 02 bc 04 c4 d0 3c
       -0.012930202 0.042068128 -0.007993959 0.025484093
0001d0 90 a8 f2 3c b4 ca 81 bc 1a a7 49 3c 71 2b 60 3b
       0.029621392 -0.015843727 0.0123079065 0.003420558
0001e0 f8 9c ab bc dd 17 7f 3c df cf 18 bb de 7a 7f bc
       -0.020948872 0.015569654 -0.002331726 -0.015593259
0001f0 54 0e 2a bc b2 9b 33 bd d6 36 c3 3c 3c 8f 12 3c
       -0.010379393 -0.043849654 0.023829859 0.008945283
000200 4d 77 b2 3c 26 16 a2 3c e2 10 3f bc c6 48 23 3d
       0.021785403 0.019785952 -0.01166174 0.039864324
000210 80 67 05 3d 0e 26 02 3d e1 a7 15 bc 72 8a 90 3c
       0.03256941 0.031774573 -0.009134264 0.01764414
000220 8f 72 ea bb 60 54 c1 bc 63 fa bb 3c 35 10 13 3d
       -0.0071547697 -0.023599803 0.022946542 0.035904128
000230 ba 57 62 3b 54 ff 11 bd 2f b6 31 bd 20 8f 1b bd
       0.0034537152 -0.03564389 -0.043386634 -0.03797829
000240 e9 ce ab bb f6 fa 1a 3d 23 a1 0b 3d a5 51 39 3c
       -0.0052431715 0.03783699 0.03408922 0.0113109695
000250 8f 36 1a bd 26 ed d8 3c 18 50 83 3c e6 35 80 ba
       -0.037649687 0.026480269 0.016029403 -0.0009781688
000260 e7 1f 01 bd c6 80 ef 3c 00 aa fb 3c 5c 5f 8b 3c
       -0.031524565 0.029236209 0.03072071 0.017013244
000270 33 71 18 3d 72 13 d6 bc 8a 19 21 bd b1 c7 62 3b
       0.03721733 -0.02613232 -0.039330997 0.0034603889
000280 b2 69 0d bd 98 a0 fc bc 5c b4 09 3c 78 71 10 3b
       -0.034524627 -0.030838296 0.008404817 0.002204029
000290 0a c1 a6 bb 12 21 04 3d 22 90 6a 3a a0 b3 1b bd
       -0.00508893 0.0322581 0.0008947869 -0.0380131
0002a0 e2 ae c7 bc a6 83 9a bc bc 52 9c bc 24 a8 85 bc
       -0.024375383 -0.018861603 -0.01908242 -0.016315527
0002b0 de 9a 0c 3d 5e 2d 32 bb 33 01 05 3d de 43 9c 3c
       0.03432738 -0.0027187685 0.032471847 0.01907533
0002c0 a3 68 92 3c 5e 56 07 bd ba 79 d5 bb 86 4b 43 3c
       0.01787216 -0.03304135 -0.006514755 0.011919862
0002d0 4d bd 4d bc ae ae 54 bc 7b 76 0d bb 28 6c 94 3c
       -0.01255734 -0.0129811 -0.0021585512 0.01811798
0002e0 55 c9 3d 3d 77 a7 45 3c d7 1b 5d 3c ef 2e 20 bd
       0.046334583 0.0120638525 0.013495407 -0.03910726
0002f0 98 a5 69 bc 7f 23 17 bd 2b f8 6b bb f8 34 1e bd
       -0.014260672 -0.036899086 -0.0036006074 -0.038624734
000300 ae 22 bf 3c e4 86 e3 3b 14 6a 06 bd 81 a8 6f 3c
       0.023331966 0.0069435704 -0.032816008 0.014627577
000310 02 fd 01 3c 0d 03 e7 bb f0 f1 14 3d 64 85 13 3c
       0.007933857 -0.007049924 0.036363542 0.009003971
000320 4a 31 ff 3b 5e cb 41 bc 0f b9 b3 bc 8a fa 11 bd
       0.007787858 -0.011828272 -0.021938829 -0.035639323
000330 fa 98 5c bc c1 b1 2c bd e5 5d 62 3b 31 81 88 bc
       -0.013464207 -0.042161707 0.0034540829 -0.016663166
000340 7e 21 43 bd d6 1c 8c 3b 00 dc 19 3c b0 88 d6 bb
       -0.047639363 0.0042758984 0.009390831 -0.006547056
000350 6d bf ad 3c 90 7a 14 3c ba 9e fe 3b c1 72 27 bc
       0.021209443 0.009062424 0.0077703865 -0.010220231
000360 06 8e a6 3c c0 37 e0 bc 42 6b 0f 3d 7a 1b 9c bc
       0.020331394 -0.027370334 0.0350144 -0.01905607
000370 a3 a4 a7 bc 49 5b 0e 3d c7 a8 c7 3c ab d4 f4 3b
       -0.020464247 0.034755025 0.024372471 0.007471641
000380 4b 31 b7 3c 80 bc dd 3c 48 ec 21 bd b4 ea 23 3d
       0.022362372 0.027067423 -0.039531976 0.040018752
000390 c0 3a 70 bc 61 78 0e bc c6 ff 01 bd d7 ab 03 bd
       -0.014662445 -0.008695693 -0.031738065 -0.0321463
0003a0 7d ca e5 bb b1 c2 dc bc ac 31 54 bc 2f 29 1f 3d
       -0.007012664 -0.026948305 -0.012951296 0.038857635
0003b0 3d 13 a5 bc c2 e0 95 3b 18 17 05 bd b1 35 03 3d
       -0.020150775 0.0045739124 -0.032492727 0.032033626
0003c0 54 36 1e bc 0a a6 84 3b 38 f6 7f 3c b1 26 0c bd
       -0.0096565075 0.0040481137 0.015622668 -0.034216587
0003d0 42 30 89 3c d1 28 9e 3c 91 46 43 3b 36 3f 1a bd
       0.016746644 0.019306572 0.00297967 -0.03765794
0003e0 d2 6c a8 3c 8e d5 d9 3a 0f b5 1d bd 84 e7 f2 3b
       0.020559702 0.001661943 -0.03850275 0.0074128527
0003f0 7a bb 13 3d 18 52 2b 3d 80 45 08 bc fb f3 16 3d
       0.036067463 0.041826338 -0.008317351 0.03685377

field_cnn.8.bias f4 [128]
000000 1b 4c 4f bc ef ef f7 bc ca 6c 1d 3d 8b ba 9e bb
       -0.012652422 -0.030265776 0.038433827 -0.004844015
000010 53 17 9a 3c ab 90 a8 bb 2b 2c 05 3d b4 aa fa bc
       0.01880995 -0.005144199 0.032512825 -0.030598976
000020 55 6d 37 3c 35 e9 9b 3c 41 a6 70 bb 2b 6d 0e 3d
       0.0111955 0.0190321 -0.0036720189 0.03477208
000030 99 53 a9 3c 0d c7 0a bd 82 5e e1 3c 49 40 b7 bc
       0.020669745 -0.033881236 0.027510885 -0.02236952
000040 b2 f0 71 bb a8 6d 9a 3b 52 21 72 3a a7 9f 0c bd
       -0.0036917147 0.004712779 0.00092365325 -0.034331944
000050 b1 ca 1c 3d d6 e2 4d 3c f2 d7 e2 3a 38 b5 0a bc
       0.03827924 0.012566289 0.0017306788 -0.0084660575
000060 1b e5 99 bc 34 71 8f 3b d2 77 31 bc 90 60 f0 3c
       -0.018786004 0.0043775085 -0.01083179 0.02934292
000070 53 d2 e6 3c 8e bf 24 3c 23 b7 d7 3c 6b f8 a6 ba
       0.028176462 0.010055436 0.026332444 -0.0012738829
000080 8f 69 fd bc 42 69 d2 3c 4a 2e 0b b9 a6 f5 a3 bc
       -0.030934123 0.025684956 -0.00013273317 -0.020014595
000090 1e 87 25 bc 75 23 e3 ba 23 e6 8c bb 7d 10 ce 3c
       -0.010103015 -0.0017329293 -0.0042998954 0.025154347
0000a0 0b f7 be bc f5 a7 df 3c e9 ee d9 bc fb a2 91 bc
       -0.023311159 0.027301768 -0.026603179 -0.01777791
0000b0 60 cb 04 3d 23 31 18 3c f4 21 b8 3c bf 44 97 3b
       0.032420516 0.009289059 0.022477128 0.0046163495
0000c0 f9 ce 6a bc 54 e9 bb 3c 94 17 c2 3c 76 9d 12 bd
       -0.014331573 0.022938408 0.023692884 -0.035794698
0000d0 fa 62 28 bc 75 2c 2e bc c9 d4 60 3c 0d e1 b9 bc
       -0.010277504 -0.010630717 0.013722607 -0.02269032
0000e0 0f d2 1e bb 7a 01 1b bc be 7f 70 ba d7 9e 86 3c
       -0.0024234091 -0.009460801 -0.00091743085 0.016433163
0000f0 ba a5 86 3c 39 e8 05 bc e9 7c 22 bc 9a 2b 3a bc
       0.016436446 -0.008173042 -0.009917476 -0.0113629345
000100 1f 6f 15 bc e1 24 77 bc 98 3b e5 3a 16 f9 35 3c
       -0.009120732 -0.015084476 0.0017489074 0.01110675
000110 18 11 0b bc 04 3d b9 3a b4 5a 1a 3d 77 9e 1c 3d
       -0.008487962 0.0014132564 0.037684157 0.03823706
000120 33 7d f8 bb 50 44 15 3d a9 4a 93 3c 7a d3 5f ba
       -0.0075832843 0.0364421 0.017979937 -0.00085382874
000130 a7 b1 ca bc c2 c1 ec bc e2 ee 2a bd fe ff cb bc
       -0.024742914 -0.028900985 -0.041731723 -0.02490234
000140 db 4f 2b bd a8 b2 f6 3c 74 cf df bb 56 2d e7 bc
       -0.041824203 0.030114487 -0.0068301503 -0.02821986
000150 04 c6 52 3b 6f 96 82 bb 08 74 9e bc 67 fb 00 3d
       0.0032161484 -0.0039852182 -0.019342437 0.031489756
000160 82 2c 81 3b c9 c6 3d bc 0a 8d 1c 3d 78 fa 26 bb
       0.0039420733 -0.011583039 0.038220443 -0.002547888
000170 6f e3 09 3d 71 69 14 3d 70 bd a5 3c fe fd 98 3b
       0.033664163 0.03623337 0.020231932 0.00466895
000180 15 8c 1a 3c 92 d4 5e ba e3 68 ca bc c4 28 19 3b
       0.009432812 -0.00085003034 -0.024708217 0.0023370245
000190 1d 2a 8c 3c 58 6a e6 3b e9 2c 03 3b cb 26 30 bc
       0.017109925 0.00703172 0.0020015782 -0.010751436
0001a0 a1 e3 96 bb c4 96 18 3d ed b7 f5 3b 68 2e 96 bc
       -0.004604772 0.037253156 0.0074987323 -0.018332675
0001b0 56 dd 1a 3d ab 69 03 bd 55 57 31 bd 2b 8a 6d bc
       0.03780874 -0.032083195 -0.043296177 -0.014498274
0001c0 de 19 ce 3c 96 5a b0 bb 81 9d 9f bc fd ea 80 bc
       0.025158819 -0.0053818924 -0.019484283 -0.015737051
0001d0 36 86 18 3d 62 00 c3 3c 62 ca cf bb 23 09 9c 3c
       0.03723737 0.023803893 -0.0063412646 0.019047325
0001e0 14 d0 a2 bc 20 ac 8d 3a 06 3c e0 3c 69 52 de 3c
       -0.01987461 0.0010808744 0.027372371 0.027138906
0001f0 7b 63 d7 3c 66 ec f9 bc cf f1 f1 3c 23 ea 56 3c
       0.026292553 -0.030508231 0.029534249 0.013117346

field_cnn.9.weight f4 [128]
000000 ce ed 7f 3f 15 b1 7e 3f fd c1 7e 3f 6e f6 7e 3f
       0.99972236 0.99488956 0.9951475 0.9959477
000010 21 b6 7f 3f a8 9f 7f 3f f6 57 7d 3f b7 21 80 3f
       0.9988728 0.9985299 0.9896234 1.0010289
000020 89 1a 7f 3f 42 a3 7f 3f ee cc 7f 3f cf d0 7e 3f
       0.99649864 0.99858487 0.9992207 0.99537367
000030 29 e4 7e 3f 94 ec 7e 3f 7a 1b 7e 3f c4 0e 80 3f
       0.99566895 0.9957974 0.99260676 1.0004506
000040 79 eb 7f 3f 05 87 7e 3f 80 8d 7e 3f 96 37 80 3f
       0.9996868 0.99424773 0.9943466 1.0016963
000050 46 bc 7e 3f e6 ac 7e 3f b5 e0 7c 3f 8e 24 80 3f
       0.9950603 0.9948257 0.98780376 1.0011156
000060 39 fe 7e 3f 0c a9 80 3f a3 cb 7e 3f 93 e0 7e 3f
       0.99606663 1.0051589 0.99529475 0.99561423
000070 0d 32 80 3f a9 b0 7c 3f e2 56 7f 3f 6a d9 7c 3f
       1.0015274 0.9870706 0.9974195 0.9876925
000080 8c 84 7f 3f 1f a2 7f 3f 43 d9 7e 3f ba a8 7e 3f
       0.99811625 0.9985675 0.99550265 0.99476206
000090 0e 73 7f 3f 61 6f 7e 3f 6b 76 7f 3f b5 cd 7e 3f
       0.99784935 0.993887 0.99790066 0.99532634
0000a0 7e 5b 7c 3f be f9 7d 3f 23 90 7c 3f 32 f3 7e 3f
       0.98577106 0.992092 0.98657435 0.99589837
0000b0 9d 55 7f 3f 77 40 7f 3f 95 9c 7e 3f 0d 48 80 3f
       0.9974001 0.9970774 0.99457675 1.0021988
0000c0 ee df 7e 3f 0e 68 7c 3f 7d f4 7e 3f 25 4d 80 3f
       0.9956044 0.98596275 0.9959181 1.0023543
0000d0 0d 60 7f 3f 09 f9 7f 3f 9a 28 7e 3f 40 ea 7d 3f
       0.99755937 0.9998937 0.99280703 0.9918556
0000e0 b6 b2 7f 3f d1 14 80 3f 50 c9 7f 3f 48 9d 80 3f
       0.99882066 1.0006353 0.99916553 1.0047998
0000f0 9b 53 7e 3f 31 ec 7f 3f 38 6d 7f 3f f0 67 7f 3f
       0.9934632 0.99969774 0.9977603 0.9976797
000100 35 b9 7e 3f 2f fa 7d 3f 6c 27 7e 3f 1a 69 7e 3f
       0.99501354 0.99209875 0.99278903 0.9937912
000110 79 78 7e 3f c9 4c 7f 3f 45 1b 7e 3f b2 54 7e 3f
       0.99402577 0.9972654 0.9926036 0.99347985
000120 71 50 80 3f 3d 72 7e 3f ca 14 7d 3f e8 5d 7f 3f
       1.0024549 0.99393064 0.98859847 0.99752665
000130 e8 20 7d 3f c3 74 7e 3f ae 40 7e 3f 26 eb 7e 3f
       0.98878336 0.99396914 0.99317443 0.9957756
000140 06 14 7c 3f eb 7b 7f 3f a7 72 80 3f 57 28 7e 3f
       0.98468053 0.9979846 1.0034989 0.99280304
000150 eb c1 7f 3f d4 a3 7e 3f 2e 97 7e 3f 04 1c 7f 3f
       0.9990527 0.9946873 0.9944943 0.99652123
000160 bb 52 80 3f 06 bc 80 3f d2 96 7f 3f 41 92 7e 3f
       1.0025247 1.005738 0.9983951 0.99441916
000170 d4 41 7b 3f b3 3d 7d 3f 49 ce 7f 3f 74 55 7f 3f
       0.9814732 0.9892227 0.9992414 0.99739766
000180 5c 9e 7e 3f ff 54 7f 3f 3d 9a 80 3f 57 7e 7e 3f
       0.9946039 0.9973907 1.004707 0.9941153
000190 59 f5 7f 3f 80 70 7f 3f 64 dc 7e 3f 59 d1 7f 3f
       0.99983746 0.99781036 0.9955504 0.99928814
0001a0 76 23 80 3f 69 65 7f 3f 17 92 7d 3f 1b db 7f 3f
       1.0010822 0.99764115 0.9905104 0.99943703
0001b0 dc ad 7f 3f f5 6d 80 3f 03 b3 7f 3f fc 70 7e 3f
       0.99874663 1.0033556 0.99882525 0.9939115
0001c0 d2 49 7e 3f 22 b8 80 3f 1a f0 7f 3f b1 70 7e 3f
       0.9933139 1.0056193 0.9997574 0.99390703
0001d0 b9 1a 7f 3f b6 e2 7f 3f 94 17 7e 3f f1 8b 7f 3f
       0.9965015 0.9995531 0.9925473 0.9982291
0001e0 02 65 7f 3f 6f e4 7e 3f 43 be 7f 3f 43 5f 80 3f
       0.997635 0.9956731 0.9989969 1.0029072
0001f0 6f b5 7c 3f ec 03 80 3f a8 50 7f 3f ac 12 7f 3f
       0.98714346 1.0001197 0.99732447 0.99637866

field_cnn.9.bias f4 [128]
000000 99 57 e9 3a 49 d8 db 3a 8b 90 bd 3b 4f 41 a5 3a
       0.0017802595 0.0016772832 0.005785053 0.0012607964
000010 b9 44 8b ba 06 09 9d 3b 11 d6 d7 b9 98 99 6c 3b
       -0.0010625339 0.0047923354 -0.00041167488 0.0036102291
000020 39 d0 0a bb 7f 4b 40 3a 9b 0c c6 3b 7c 6f 00 bb
       -0.002118124 0.00073354685 0.006043983 -0.00195977
000030 2d 57 42 3b 7b 41 22 bb b2 de d3 bb 08 48 2e 3b
       0.0029654012 -0.0024758268 -0.0064657563 0.0026593227
000040 75 45 b0 3b a9 20 b5 bb 2c 6a 90 bb cb 66 a4 3a
       0.0053793737 -0.005527575 -0.004407188 0.0012542842
000050 7e 72 9d 3b 70 84 6b 3a 68 31 e3 39 88 cc 81 3c
       0.0048049083 0.00089842733 0.00043333624 0.015844598
000060 c2 a4 fa ba 0e 5f c5 3b 78 ef 98 3a 11 0d 46 3b
       -0.0019122588 0.0060232943 0.0011668047 0.003022019
000070 b7 fc e3 3b 63 38 13 bb ca c8 0d bc 74 ab c0 b9
       0.006957616 -0.002246403 -0.008653829 -0.00036748836
000080 08 03 8b 3a 1a 48 1c 3c 31 5a c4 bb 40 9c af 3b
       0.0010605762 0.009538675 -0.005992197 0.0053592026
000090 96 73 40 bb 93 dd e4 3a 96 15 26 3b d7 3d 08 3c
       -0.002936577 0.0017461054 0.0025342456 0.008315525
0000a0 9e 0a c1 3a 92 70 19 3b 74 d4 7c 3b e2 68 58 b9
       0.0014727896 0.0023413044 0.003857878 -0.00020638437
0000b0 22 12 f0 3a 2b dc 30 3c 81 e5 81 bb 2a 57 02 b9
       0.0018315951 0.01079468 -0.0039641266 -0.00012430237
0000c0 22 34 df bb 52 2d 56 ba d0 2c 7e bb de 29 17 3c
       -0.0068116346 -0.00081702054 -0.0038784035 0.0092262905
0000d0 35 c0 86 bb 1f be b3 3b ee a7 97 bb 5b 9e 01 bb
       -0.0041122683 0.0054853107 -0.004628173 -0.0019778225
0000e0 0b 5b 8d bb a5 71 da 3b 8e 7d 84 3b 59 98 d4 3b
       -0.0043138317 0.0066663795 0.0040432876 0.006487888
0000f0 0d 4b 42 3c 41 2b b3 3b 7f d9 75 3b d7 76 e9 bb
       0.011858714 0.0054678028 0.003751367 -0.0071247625
000100 e4 ea c1 3b 7f b8 89 ba 51 c9 a6 ba 6f 6d 52 bb
       0.0059178937 -0.0010507255 -0.0012724792 -0.0032108685
000110 06 ce 89 bb 65 0a 83 b9 be 49 38 3b ac 2d 0e bc
       -0.004205468 -0.00024994012 0.0028120126 -0.008677881
000120 45 c0 44 3c d7 49 8d bb 8c 45 b5 3a cd 7c ae bb
       0.012008731 -0.004311781 0.0013829931 -0.005324936
000130 e9 ab 5b ba f6 46 ab 39 c6 af 46 3b 04 07 9a ba
       -0.00083798036 0.00032668532 0.0030317171 -0.0011751358
000140 17 c9 60 3b 05 12 e9 3b dc d7 34 bc a9 3f 71 3b
       0.0034299546 0.007112744 -0.011037793 0.0036811626
000150 9f ac 0e b6 56 90 83 b9 4f e0 6a bb d2 bc ab 38
       -2.1260128e-06 -0.00025093806 -0.0035839265 8.189086e-05
000160 a2 69 a1 39 2c 39 91 3b 11 62 0f 3c ee ce 8e bb
       0.00030787016 0.0044318642 0.008751408 -0.004358164
000170 37 d5 0c 3a d7 b9 56 3a ce da 5f 3b e9 45 10 3c
       0.00053723477 0.00081911444 0.0034157517 0.00880573
000180 18 24 46 3b e7 54 08 3c 1a 45 a1 3b 89 7a 51 bb
       0.0030233916 0.008321024 0.0049215676 -0.0031963906
000190 a9 81 22 bc a8 bd 0b bc a3 d5 b3 bb ea 1e a5 bb
       -0.009918609 -0.008529104 -0.005488114 -0.0050390856
0001a0 e4 90 c2 3b 0a 3a 21 3b e6 32 5b 3a c6 11 02 3b
       0.0059376825 0.0024601244 0.00083617715 0.001984702
0001b0 43 fe a9 ba 8f e1 84 3b 40 d4 17 39 d8 f1 b4 bb
       -0.0012969453 0.004055209 0.00014479551 -0.005521994
0001c0 20 29 d7 3b 60 f0 9c 3b 95 fd b7 ba 87 bc a8 b8
       0.006566182 0.004789397 -0.0014037365 -8.04598e-05
0001d0 b9 5f 99 39 e4 fe 2a 3c ac d7 7c 3b 62 09 e7 3a
       0.00029253753 0.010436747 0.00385807 0.0017626698
0001e0 00 fc 33 ba 1a f2 9f 3a 67 06 c4 3b e8 39 b3 3b
       -0.0006865859 0.0012202889 0.0059822085 0.0054695494
0001f0 fb b9 01 3c 46 0a 22 3c 45 42 aa 3b 70 15 7c 3b
       0.007917876 0.009890145 0.005195888 0.0038464926

field_cnn.9.running_mean f4 [128]
000000 a2 95 7b 3d 30 a7 78 be 05 db b7 be 1b 1e 8b be
       0.061421998 -0.24282527 -0.35909286 -0.27171406
000010 d3 c5 cd be 7e 81 b4 3c d6 6b d9 3e 9b b6 b7 be
       -0.4018999 0.022034403 0.42465085 -0.35881504
000020 48 d9 37 bf 30 d7 b6 be 9d bb 09 be ca a9 94 be
       -0.7181592 -0.3571105 -0.13450475 -0.2903579
000030 09 5f fe bd 94 6d e9 be 83 47 be be cf d9 90 3d
       -0.1242047 -0.45591414 -0.37163934 0.07072794
000040 c7 83 be 3c 99 f4 59 be 8f 18 25 bf 1d 14 ee be
       0.023256196 -0.21284713 -0.644906 -0.4649972
000050 d5 56 40 be 78 49 03 bf ea 1f 94 3e f7 32 15 be
       -0.18783124 -0.5128398 0.28930598 -0.14570223
000060 4b 94 1b bf 65 4d bd be 06 13 6c 3d 59 89 c7 be
       -0.6077315 -0.3697311 0.05763533 -0.38971975
000070 52 d9 96 be 5c 2e 49 3e cc 45 e6 bd c9 20 ec 3d
       -0.29462677 0.19646591 -0.112437814 0.11529691
000080 49 65 7d be 9b a0 c0 bc 4e 82 02 bf b6 4a 3c be
       -0.24745668 -0.023514083 -0.5098008 -0.18387875
000090 a5 fe b9 be a9 1b fd be 70 89 9a 3e 89 9b 22 bf
       -0.3632709 -0.49435166 0.30182981 -0.6351858
0000a0 6a d9 44 be 49 f8 c4 3e 20 c0 d1 3e ab 43 07 be
       -0.19223562 0.38470677 0.40966892 -0.13209407
0000b0 1f 00 88 be 13 90 3b bd 38 35 44 bf 67 ac a8 be
       -0.26562592 -0.045791697 -0.76643705 -0.32944033
0000c0 62 f8 7b bf 40 a0 bc 3d 96 c2 fe bd c6 85 58 3e
       -0.9842588 0.09210253 -0.12439458 0.2114478
0000d0 1b 55 28 bf 51 8f e9 be 46 06 51 be c4 c7 e5 bd
       -0.6575486 -0.45617154 -0.2041255 -0.11219743
0000e0 28 86 c1 be 38 d2 cb be b4 11 9f be 2c bb 5d be
       -0.37797666 -0.39808822 -0.31068194 -0.21653432
0000f0 40 68 20 3e 1c ba 45 3d 6d 4e 2c bf da 18 28 bf
       0.15664768 0.04827319 -0.6730717 -0.6566292
000100 18 ca dd 3d 14 0e a9 bd 50 43 6b be 76 33 c0 be
       0.10829562 -0.08254638 -0.22974896 -0.37539262
000110 28 36 df be 93 6f 69 3d 25 28 34 bf 08 33 38 3e
       -0.43596005 0.05699117 -0.70373756 0.17988217
000120 a8 f7 51 be ac a9 e7 be a4 cb a6 be be 00 f3 be
       -0.2050463 -0.45246637 -0.3257724 -0.47461504
000130 91 b9 99 3d 9e ce 00 be b3 ad 55 be 14 f8 0f bf
       0.07506097 -0.12578818 -0.20867042 -0.5623791
000140 3e 25 22 3f 57 25 06 be 7a 31 11 be b4 45 13 be
       0.6333808 -0.13100182 -0.1417903 -0.14382058
000150 56 94 02 bf 7c bf 7f be ae 3e 0e be 7d 03 51 bf
       -0.5100759 -0.24975389 -0.13891098 -0.8164595
000160 86 f7 cb be 57 af 14 bf 00 56 11 3c ec ed 04 bf
       -0.39837283 -0.5808005 0.008870602 -0.5192554
000170 c5 4c 81 3e 78 ba 95 3e 44 6d 85 bd a2 94 19 bf
       0.25253883 0.29243827 -0.065149814 -0.5999242
000180 ea a2 5d be f2 64 72 3e 17 24 34 bf b7 d2 05 bf
       -0.21644178 0.2367132 -0.7036757 -0.5227465
000190 14 e6 49 bf dc 17 1f be ee a1 6f 3e d1 45 2e bf
       -0.78866696 -0.15536445 0.23401615 -0.6807528
0001a0 fa ca c9 bd cd 6e ab bd b0 d6 6b be 34 74 a8 bd
       -0.09853168 -0.08370743 -0.23031116 -0.08225289
0001b0 3b db 56 be 7b d9 b6 be 00 bc cd bc c7 4c b1 be
       -0.20982067 -0.357128 -0.02511406 -0.3462889
0001c0 0d c9 8d bd f8 aa b2 bc 31 21 8f bf 7b df f1 be
       -0.06923113 -0.02181004 -1.1182004 -0.47240815
0001d0 80 a3 03 bf b8 1a c0 be e5 d1 a5 be 22 74 8c be
       -0.51421356 -0.37520385 -0.323867 -0.27432352
0001e0 d6 45 34 be 33 09 0b be be 38 d1 be 0b 87 44 be
       -0.17604765 -0.13577728 -0.40863603 -0.1919214
0001f0 c4 33 16 3e e0 09 75 3e ee 12 31 be 9e 8f ad bd
       0.14668185 0.23929548 -0.17292377 -0.084746584
