training/draw_locator_net.pth (torch, 766966 bytes, 36 tensors)

field_cnn.0.weight f4 [32, 3, 3, 3]
-0.01837899 -0.06415584 -0.15071875 0.024279147 -0.086260594 0.073621705 0.03274994 -0.18359526
0.09218122 0.09331503 0.0006516431 0.18522295 -0.06769657 -0.16158447 -0.15593252 0.065511614
0.11775402 -0.05869705 0.14181341 -0.16026515 0.16128117 -0.13372478 -0.09633864 -0.1711265
0.068498656 -0.11951641 -0.04357366 -0.07599617 -0.17899312 -0.0859601 0.0052784635 -0.116462395
0.056117166 -0.18556413 0.1457392 -0.18688078 0.15756865 0.034951918 0.07097921 -0.16071667
-0.009098802 0.16026315 0.041054465 -0.021599645 -0.020598993 -0.13240659 0.014043358 -0.08825814
0.14072336 -0.09894213 0.15494959 0.045997076 -0.11626543 -0.19155851 -0.086592 0.0650686
0.028816758 0.09601736 -0.14222997 0.03417395 -0.064176194 -0.0070498786 0.17087665 0.038947195
0.11409399 -0.12781617 -0.07619977 -0.15600508 0.13838659 0.10591443 0.13747974 -0.09866703
0.1892261 0.13922638 0.0006415302 0.1275011 -0.14024985 0.17541538 -0.034565367 0.041565716
-0.08596085 0.016744643 -0.16871136 -0.15151323 -0.06866528 0.0837385 -0.13130806 0.09608262
-0.063783176 0.18544263 0.112228684 -0.15890098 0.07974571 -0.116524346 0.06292532 0.12993161
-0.15731204 -0.005880667 -0.11554899 -0.059583854 0.0036182168 -0.022702655 0.16337878 -0.12986456
0.16915032 -0.09662887 0.050656606 -0.03459948 -0.100130245 -0.18813525 -0.12963466 0.060886387
-0.14331447 0.08143141 0.031349804 0.09605099 -0.15118378 -0.05457351 -0.15355393 -0.047958095
-0.011267702 0.03937006 -0.09074025 0.06692849 -0.00030462682 0.10490706 -0.017841259 0.03907309
0.04851046 -0.14082839 -0.12055057 0.061620552 -0.018361995 -0.18615066 -0.06421657 -0.012782828
0.08501987 0.013467979 -0.019999404 -0.041340094 0.028972879 -0.18555938 -0.1510487 -0.104235664
0.09804125 0.0062274197 -0.04761578 -0.04788026 0.06074225 0.004722243 0.05411333 -0.11506219
-0.17489848 0.09674238 0.05161595 0.08128366 -0.10258954 0.1357195 -0.11826264 -0.17914142
-0.11346434 -0.09487042 -0.116527036 -0.18209197 -0.14542373 -0.10095105 0.034819566 0.048438475
-0.043272585 -0.06391622 -0.16072956 0.11304744 0.17025992 0.051085673 -0.18294291 -0.17315626
-0.08800085 0.1356544 0.16083519 -0.13313176 -0.065040834 0.12424552 0.09260314 -0.13793331
0.089814864 0.00614121 0.08805037 -0.14546043 0.104811706 -0.026160723 -0.08026621 0.036048178
-0.11860347 -0.04330759 -0.1231554 -0.14207421 -0.15484084 -0.027007816 0.077075064 0.09321554
0.111024395 -0.17669603 -0.08420777 -0.111282796 -0.03357519 -0.11237335 -0.04323134 0.1828506
0.04315335 0.15275705 0.16839121 -0.10993422 0.026738012 0.0539864 -0.18045138 -0.03549053
-0.0045001227 -0.18397972 0.06435418 -0.01104204 -0.0931172 0.011646331 0.18616852 -0.16960406
-0.12823647 -0.044101864 0.04244984 0.024547454 -0.14244825 0.036461737 -0.13996054 -0.07038061
-0.15076625 0.08582731 -0.0364733 -0.14768316 0.039925642 0.1337572 0.13113071 0.10386951
0.09789814 -0.1482837 -0.07919212 -0.18822742 0.17952763 0.05853803 -0.049452167 0.073891774
-0.09579508 -0.027508285 -0.18782187 0.1258816 0.019821608 -0.059528794 -0.025649909 -0.06671883
00000000: 898f 96bc 2364 83bd 0456 1abe 10e5 c63c
00000010: 65a9 b0bd fac6 963d cd24 063d 6500 3cbe
00000020: 82c9 bc3d f31b bf3d 07d3 2a3a 16ab 3d3e
00000030: 80a4 8abd 6676 25be c6ac 1fbe f42a 863d
00000040: 0529 f13d 516c 70bd 8937 113e 8c1c 24be
00000050: e426 253e 26ef 08be 314d c5bd c93b 2fbe
00000060: 0649 8c3d 05c5 f4bd 4b7a 32bd e1a3 9bbd
00000070: f949 37be d90b b0bd f6f6 ac3b d683 eebd
00000080: 1ddb 653d 8604 3ebe a83c 153e ad5d 3fbe
00000090: ad59 213e be29 0f3d 8c5d 913d e992 24be
000000a0: 2413 15bc 061c 243e ba28 283d bdf1 b0bc
000000b0: 38bf a8bc 9895 07be 1d16 663c afc0 b4bd
000000c0: c919 103e 2ca2 cabd 1bab 1e3e 6e67 3c3d
000000d0: 921c eebd ea27 44be 2657 b1bd b042 853d
000000e0: 1f11 ec3c c0a4 c43d bca4 11be fcf9 0b3d
000000f0: cf6e 83bd ab02 e7bb 4afa 2e3e 1887 1f3d
00000100: 1caa e93d 3ee2 02be a00e 9cbd ccbf 1fbe
00000110: 37b5 0d3e aae9 d83d 7dc7 0c3e f111 cabd
00000120: 7dc4 413e 5c91 0e3e 5d2c 283a a68f 023e
00000130: a89d 0fbe 17a0 333e 6a94 0dbd d040 2a3d
00000140: 3e0c b0bd 102c 893c acc2 2cbe 4926 1bbe
00000150: 62a0 8cbd 177f ab3d 9f75 06be f7c6 c43d
00000160: c1a0 82bd ace4 3d3e 27d8 e53d f0b6 22be
00000170: b851 a33d 51a4 eebd fdde 803d cb0c 053e
00000180: 6816 21be 9cb2 c0bb f3a4 ecbd 330e 74bd
00000190: 9b1f 6d3b ebfa b9bc c44c 273e 37fb 04be
000001a0: be35 2d3e 5be5 c5bd 4d7d 4f3d 2fb8 0dbd
000001b0: 1611 cdbd 87a6 40be f3be 04be 0164 793d
000001c0: 07c1 12be 83c5 a63d a768 003d 62b6 c43d
000001d0: eccf 1abe 7988 5fbd 3e3d 1dbe b56f 44bd
000001e0: 2b9c 38bc 8042 213d 06d6 b9bd ce11 893d
000001f0: 52b6 9fb9 83d9 d63d d527 92bc 1b0b 203d
00000200: e7b2 463d 5135 10be 38e3 f6bd d565 7c3d
00000210: e56b 96bc 479e 3ebe fa83 83bd 116f 51bc
00000220: e61e ae3d cca8 5c3c cad5 a3bc 3b54 29bd
00000230: 8858 ed3c 4703 3ebe 83ac 1abe 8279 d5bd
00000240: dac9 c83d 620f cc3b c408 43bd 171e 44bd
00000250: decc 783d 0cbd 9a3b f0a5 5d3d baa5 ebbd
00000260: 9618 33be de20 c63d 3f6b 533d 0c78 a63d
00000270: 771a d2bd 0dfa 0a3e af33 f2bd d970 37be
00000280: fe5f e8bd 6c4b c2bd baa5 eebd 5176 3abe
00000290: f5e9 14be 6dbf cebd f69e 0e3d 6c67 463d
000002a0: 983e 31bd 82e6 82bd 4a96 24be 6b85 e73d
000002b0: 9e58 2e3e 363f 513d 6355 3bbe e04f 31be
000002c0: ca39 b4bd fde8 0a3e fbb1 243e b153 08be
000002d0: 2134 85bd 6f74 fe3d b7a6 bd3d 643e 0dbe
000002e0: dbf0 b73d 343c c93b c153 b43d 94f3 14be
000002f0: 85a7 d63d 034f d6bc 9c62 a4bd 41a7 133d
00000300: 60e6 f2bd 4d63 31bd e638 fcbd e77b 11be
00000310: 998e 1ebe 7f3f ddbc 88d9 9d3d cae7 be3d
00000320: c260 e33d ceef 34be 2075 acbd 3ce8 e3bd
00000330: 2386 09bd 0024 e6bd 5813 31bd 303d 3b3e
00000340: 91c1 303d 586c 1c3e bf6e 2c3e 3125 e1bd
00000350: ad09 db3c d820 5d3d 3fc8 38be 855e 11bd
00000360: c475 93bb 2e65 3cbe 20cc 833d ace9 34bc
00000370: 3bb4 bebd 41d0 3e3c f6a2 3e3e b0ac 2dbe
00000380: 6c50 03be 28a4 34bd e2df 2d3d be17 c93c
00000390: f4dd 11be e758 153d d151 0fbe b623 90bd
000003a0: 7862 1abe 3bc6 af3d 0765 15bd 413a 17be
000003b0: 1289 233d a6f7 083e 2147 063e 8ab9 d43d
000003c0: d27e c83d afd7 17be 7a2f a2bd b0be 40be
000003d0: 17d6 373e 93c5 6f3d 5b8e 4abd 9254 973d
000003e0: 3630 c4bd 0e59 e1bc 6054 40be 1be7 003e
000003f0: ed60 a23c 77d4 73bd c21f d2bc e2a3 88bd

field_cnn.0.bias f4 [32]
-0.0173161 0.023356305 -0.098136835 0.045205377 0.027043184 -0.047731616 -0.17152672 -0.11769268
0.14685273 -0.10193251 -0.030754985 -0.122622855 -0.08043258 0.17213514 0.088085994 -0.08918182
-0.11444261 -0.14270654 0.07787796 -0.04102116 -0.15569896 -0.14080334 0.10753946 -0.15594043
-0.16132802 0.03832255 -0.16298002 -0.057266373 -0.049316276 -0.034136623 0.19151863 0.18189862
00000000: 7eda 8dbc b955 bf3c f7fb c8bd 4629 393d
00000010: ab89 dd3c 3a82 43bd b3a4 2fbe dc08 f1bd
00000020: 9060 163e fec1 d0bd e1f1 fbbc b121 fbbd
00000030: d6b9 a4bd 3244 303e 6e66 b43d f5a4 b6bd
00000040: e360 eabd aa21 12be 7b7e 9f3d ce05 28bd
00000050: 8c6f 1fbe c02e 10be a63d dc3d d9ae 1fbe
00000060: 2c33 25be 1bf8 1c3d 3ce4 26be 2590 6abd
00000070: ddff 49bd d8d2 0bbd 761d 443e a243 3a3e

field_cnn.1.weight f4 [32]
0.9999897 1.0011344 0.99980843 0.9975512 1.0006942 1.0026171 1.0004362 1.001011
1.0007347 0.9989415 1.0003574 1.0008572 0.9988062 1.0010722 0.9975895 0.9991781
0.99904484 1.0013927 0.9997136 1.0000657 0.9990759 0.99850017 1.0012798 0.99840945
1.0017838 0.99904996 0.9985594 1.0016506 0.9991314 0.9991321 1.0030991 1.0002469
00000000: 53ff 7f3f 2c25 803f 72f3 7f3f 845f 7f3f
00000010: bf16 803f c255 803f 4b0e 803f 2121 803f
00000020: 1318 803f a1ba 7f3f b60b 803f 171c 803f
00000030: c3b1 7f3f 2223 803f 0762 7f3f 23ca 7f3f
00000040: 67c1 7f3f a32d 803f 3bed 7f3f 2702 803f
00000050: 70c3 7f3f b59d 7f3f f029 803f c397 7f3f
00000060: 743a 803f bdc1 7f3f 97a1 7f3f 1636 803f
00000070: 13c7 7f3f 1fc7 7f3f 8d65 803f 1708 803f

field_cnn.1.bias f4 [32]
0.002130197 0.00076608284 0.000625258 -0.0011765098 -0.00059045444 7.5046686e-05 0.0012299079 -0.00054634124
0.0014944538 0.0029235887 0.0011909063 0.0008095919 0.00047901907 0.0011910665 4.336033e-05 0.0001676498
-0.0023720998 0.0026797212 -0.000431558 0.0011455903 -0.0017847765 -0.0012643966 -0.001506434 0.00086879975
0.0019563625 -0.00046560753 -0.0006162125 0.00475287 0.0017534172 -0.0012928748 0.0045215758 -0.0012074225
00000000: c69a 0b3b f3d2 483a 5be8 233a 1e35 9aba
00000010: bac8 1aba 6262 9d38 dc34 a13a 5738 0fba
00000020: 8ce1 c33a ae99 3f3b 2f18 9c3a cb3a 543a
00000030: da24 fb39 8f1d 9c3a cddd 3538 27cb 2f39
00000040: 3b75 1bbb 439e 2f3b bc42 e2b9 a227 963a
00000050: 29ef e9ba 1cba a5ba 8a73 c5ba 2ac0 633a
00000060: 5136 003b c91c f4b9 5289 21ba f7bd 9b3b
00000070: ebd2 e53a ae75 a9ba ba29 943b 6042 9eba

field_cnn.1.running_mean f4 [32]
-0.42896426 -0.40173015 0.29160994 -0.1497442 -0.6123179 -0.5507354 -0.4835757 -0.4965214
-0.20287764 0.030957283 0.39760327 -0.49429968 -0.11238845 0.47241497 0.06767927 0.37137216
-0.42541996 0.0040410245 -0.3976836 -0.44663587 -0.46117413 -0.21060242 -0.121342644 -0.12476674
-0.4642311 0.2556769 -0.34292066 0.067517474 0.064569764 0.104765736 -0.20541677 -0.2426854
00000000: 34a1 dbbe 93af cdbe e64d 953e 8b56 19be
00000010: dec0 1cbf fffc 0cbf 3c97 f7be 0e38 febe
00000020: 28bf 4fbe 219a fd3c a892 cb3e d914 fdbe
00000030: ea2b e6bd 60e0 f13e 6e9b 8a3d 7e24 be3e
00000040: a5d0 d9be 926a 843b 2f9d cbbe 75ad e4be
00000050: 041f ecbe 29a8 57be 7e82 f8bd b485 ffbd
00000060: b3af edbe 15e8 823e 4c93 afbe 9a46 8a3d
00000070: 273d 843d 6b8f d63d c658 52be 8682 78be

field_cnn.1.running_var f4 [32]
0.0064355545 0.0073502236 0.0049370085 0.0025783386 0.013608274 0.013440111 0.007991034 0.015327688
0.0068611526 0.0016035612 0.008352797 0.0070148604 0.0015980615 0.0036091588 0.004573205 0.0076370826
0.0045018303 0.0054664337 0.013982944 0.015446437 0.0053146584 0.0037902726 0.0029583767 0.0034639179
0.0048046224 0.004879513 0.0038010853 0.0028534946 0.0044683707 0.0035004127 0.008934088 0.0124628935
00000000: 58e1 d23b 25da f03b a1c6 a13b 58f9 283b
00000010: 3df5 5e3c e933 5c3c d3ec 023c fc20 7b3c
00000020: 85d3 e03b 962e d23a 2bda 083c eadc e53b
00000030: 0c76 d13a a387 6c3b d3da 953b 7e40 fa3b
00000040: 1784 933b c51f b33b b818 653c 0d13 7d3c
00000050: 9626 ae3b 3966 783b 53e1 413b e602 633b
00000060: 1870 9d3b 52e4 9f3b a11b 793b b201 3b3b
00000070: 696b 923b 2e67 653b 4860 123c 2a31 4c3c

field_cnn.4.weight f4 [64, 32, 3, 3]
0.0115244035 -0.00057262654 0.009761926 -0.021212766 -0.059552867 0.024117725 -0.019899063 0.011498727
-0.033457946 -0.03135576 0.0057018367 0.01869903 -0.0027468533 0.040826153 0.045140684 -0.057963684
0.0025111195 0.04726981 -0.002294033 -0.0055032684 0.017105058 0.04734014 0.039976835 -0.04394287
0.013227854 0.031118043 0.027190275 0.0050729485 0.040323842 -0.020116437 -0.00018387893 0.039017875
0.03366034 -0.017012922 -0.001871274 0.044814657 -0.020364698 0.020327875 0.04902997 0.01477285
-0.05923296 0.007764929 0.038838733 0.046101782 0.053193863 0.013329715 0.016637998 -0.05869334
0.038771298 0.013566531 -0.049865108 0.002407484 0.05779425 -0.03819553 -0.053709928 -0.042724818
-0.00022991492 -0.05262606 -0.055028677 -0.05204803 0.003930812 0.012396567 -0.03988185 -0.038560808
-0.025220132 -0.018816868 -0.015917905 -0.056952592 -0.044440396 -0.05261445 0.038513377 -0.03697193
0.042499896 0.027058061 0.031846516 -0.029995445 0.017975794 0.031248722 0.053522427 -0.0027467108
-0.050272606 -0.0046136198 0.040835466 -0.046093725 -0.03273087 0.051556055 0.026161125 0.041540105
-0.030863822 -0.009155214 0.039681695 0.051834676 -0.037726402 -0.03191513 -0.033584047 -0.058377985
-0.00017312824 -0.043202344 0.033520985 -0.0076480955 -0.038912818 -0.043304514 0.040222276 -0.05135626
0.03512673 -0.045553867 0.0052916487 -0.0034759662 -0.049764786 0.03905042 -0.011752222 0.023760237
0.022498313 -0.027154675 0.03614555 -0.010854847 0.037134226 -0.020673702 -0.030113997 -0.023121543
-0.046612915 -0.044397026 -0.04243752 0.028128736 0.051010415 0.045507997 -0.017605212 -0.0513915
-0.036508456 0.0056203725 -0.004917768 -0.01276353 -0.055709712 0.012739321 -0.013274934 -0.0395746
0.01793691 -0.033959758 -0.024453769 0.0010574583 0.03243058 -0.006344713 -0.047984138 -0.03640881
-0.038781043 0.05203351 -0.00021788655 0.0475532 0.008690039 0.039204177 -0.035246566 -0.027875844
-0.054415744 -0.04416442 -0.043246437 -0.029400902 -0.012906351 0.043802373 0.03456272 0.04259748
-0.021978898 -0.05757061 0.037577968 -0.05035618 -0.026040854 -0.016263394 -0.01869894 0.051064763
0.015204295 -0.02610616 0.03688978 0.008301124 -0.012530083 -0.0039377296 -0.04330088 0.036879864
-0.033743884 -0.008432004 -0.05178933 -0.056517903 0.051882107 0.02950582 -0.04856791 0.018205388
0.047292847 0.013397749 -0.05303095 -0.02925841 -0.012594246 -0.021459933 0.05545036 -0.036393665
0.031169398 0.008115277 0.022338523 0.048850764 0.049627535 -0.021358645 0.03704727 -0.00949534
-0.020155534 0.01225495 0.033714995 0.021175234 -0.016049042 0.011818966 -0.04075265 -0.056693293
-0.03698292 0.02236846 -0.012636984 -0.05990032 0.033669148 -0.056491505 0.030326432 0.027760293
0.0314922 -0.04852395 -0.036643416 -0.010121417 -0.020199196 -0.017739072 0.012182647 0.05327677
0.015689204 0.007882482 -0.03457013 0.005676172 0.04696847 -0.026277965 0.0013154404 -0.03083894
-0.0035793826 0.0068607037 -0.05549936 -0.033948436 0.0035505604 0.015302252 -0.040179983 0.028917667
0.032472927 -0.0137381805 0.036610655 -0.023700085 -0.02740548 0.0017738064 -0.05006493 0.042237878
0.041066606 0.05011664 0.033749793 0.0052975863 -0.016687887 0.04259381 -0.01311969 0.054799035
00000000: dad0 3c3c 511c 16ba 7cf0 1f3c 65c6 adbc
00000010: b5ed 73bd 8992 c53c 5c03 a3bc 2865 3c3c
00000020: 330b 09bd e66e 00bd 79d6 ba3b b52e 993c
00000030: 8d04 34bb 5339 273d 70e5 383d 546b 6dbd
00000040: 9891 243b fd9d 413d 7d57 16bb c354 b4bb
00000050: e81f 8c3c bce7 413d c0be 233d 70fd 33bd
00000060: a4b9 583c 44eb fe3c 24be de3c fa3a a63b
00000070: 9d2a 253d 3acb a4bc a0cf 40b9 35d1 1f3d
00000080: 6ddf 093d af5e 8bbc 8945 f5ba 938f 373d
00000090: ded3 a6bc a586 a63c a6d3 483d d309 723c
000000a0: 439e 72bd f270 fe3b 5d15 1f3d 39d5 3c3d
000000b0: cfe1 593d e064 5a3c 694c 883c 6d68 70bd
000000c0: a7ce 1e3d 2846 5e3c 5b3f 4cbd e1c6 1d3b
000000d0: aab9 6c3d eb72 1cbd f1fe 5bbd 3800 2fbd
000000e0: 5115 71b9 6c8e 57bd c065 61bd 5130 55bd
000000f0: 0ace 803b f81a 4b3c 275b 23bd f0f1 1dbd
00000100: 739a cebc d525 9abc 4466 82bc 1f47 69bd
00000110: 2207 36bd 4082 57bd 34c0 1d3d e16f 17bd
00000120: 5f14 2e3d dea8 dd3c 7e71 023d 02b9 f5bc
00000130: f941 933c 52fd ff3c 553a 5b3d 2902 34bb
00000140: a6ea 4dbd d92d 97bb 1743 273d c6cc 3cbd
00000150: ce10 06bd 712c 533d db4f d63c f525 2a3d
00000160: 20d6 fcbc c0ff 15bc 4689 223d 9950 543d
00000170: 0087 1abd 70b9 02bd 6d8f 09bd c11d 6fbd
00000180: c289 35b9 f1f4 30bd 4d4d 093d e09c fabb
00000190: 0c63 1fbd 1360 31bd 1dc0 243d f15a 52bd
000001a0: 0ce1 0f3d b196 3abd 9165 ad3b 09cd 63bb
000001b0: 29d6 4bbd 55f3 1f3d 648c 40bc d4a4 c23c
000001c0: 624e b83c 7b73 debc 5b0d 143d 87d8 31bc
000001d0: 0f1a 183d e55b a9bc a1b1 f6bc 6469 bdbc
000001e0: 2fed 3ebd a8d9 35bd f7d2 2dbd 3c6e e63c
000001f0: 4cf0 503d 9866 3a3d ce38 90bc e57f 52bd
00000200: e489 15bd 1a2b b83b 3a25 a1bb 201e 51bc
00000210: de2f 64bd 96b8 503c 1c7f 59bc fa18 22bd
00000220: 6df0 923c 6319 0bbd 4553 c8bc 6a9a 8a3a
00000230: eed5 043d 4fe7 cfbb 048b 44bd 6821 15bd
00000240: dfd8 1ebd 1721 553d 7a78 64b9 25c7 423d
00000250: aa60 0e3c 8f94 203d b45e 10bd e25b e4bc
00000260: 0be3 5ebd c0e5 34bd 2d23 31bd 29da f0bc
00000270: 2975 53bc 1e6a 333d a491 0d3d b27a 2e3d
00000280: 170d b4bc 29cf 6bbd 5beb 193d 4842 4ebd
00000290: a153 d5bc cf3a 85bc 852e 99bc 4929 513d
000002a0: 6f1b 793c 96dc d5bc bd19 173d 7001 083c
000002b0: fa4a 4dbc 1208 81bb 435c 31bd 570f 173d
000002c0: 0737 0abd 6326 0abc 0c21 54bd 517f 67bd
000002d0: 5582 543d 30b6 f13c 25ef 46bd 7723 953c
000002e0: 25b6 413d 3b82 5b3c fb36 59bd 55af efbc
000002f0: 1958 4ebc becc afbc eb1f 633d 8611 15bd
00000300: f756 ff3c f0f5 043c 47ff b63c bd17 483d
00000310: 3e46 4b3d 53f8 aebc e1be 173d 5892 1bbc
00000320: 381d a5bc fcc8 483c bc18 0a3d af77 ad3c
00000330: 4879 83bc 56a4 413c 40ec 26bd 3a37 68bd
00000340: 677b 17bd 103e b73c 5a0b 4fbc 0a5a 75bd
00000350: a9e8 093d a363 67bd 236f f83c 8e69 e33c
00000360: f7fd 003d 0dc1 46bd 6817 16bd 4dd4 25bc
00000370: c978 a5bc 8851 91bc ba99 473c be38 5a3d
00000380: a586 803c 8725 013c 6999 0dbd 2fff b93b
00000390: 0362 403d e344 d7bc db6a ac3a f2a1 fcbc
000003a0: 1394 6abb c1cf e03b 4c53 63bd 840d 0bbd
000003b0: 85b0 683b 4cb6 7a3c c493 24bd bee4 ec3c
000003c0: 5502 053d 1b16 61bc 0ef5 153d ae26 c2bc
000003d0: 7581 e0bc 117f e83a e210 4dbd a001 2d3d
000003e0: 7535 283d 1b47 4d3d 393d 0a3d 6097 ad3b
000003f0: 09b5 88bc d976 2e3d f8f3 56bc f474 603d

field_cnn.4.bias f4 [64]
0.027136056 0.011653047 0.0075241365 0.02118813 -0.03570749 0.046601407 -0.010532959 -0.015515381
-0.01146325 -0.032819282 -0.042872112 0.048062067 -0.036485516 0.00771585 0.04246262 0.005151876
0.037107505 0.05451912 -0.045511253 0.013935152 0.058432978 0.028107556 -0.004443161 0.029253103
0.041035168 0.019163957 -0.044717368 -0.0016362919 -0.03083206 -0.030526573 0.014956585 -0.013912546
-0.016616937 0.052308038 0.0010842971 0.03117501 -0.054410856 -0.01286559 0.057238173 -0.0025029387
0.047066867 0.0036590581 0.002093765 0.022737887 0.0027186186 0.049286578 0.010567401 -0.05615779
-0.005348093 -0.056705274 -0.010114288 0.041764483 -0.050781094 0.026938185 -0.045187876 0.04508754
0.0017534498 0.042264823 0.041988976 -0.05663497 0.0061943596 -0.044488683 -0.020650104 0.043531068
00000000: 6f4c de3c 6cec 3e3c 088d f63b bb92 ad3c
00000010: 0442 12bd 1ee1 3e3d 6f92 2cbc 3934 7ebc
00000020: 5bd0 3bbc 836d 06bd ab9a 2fbd bbdc 443d
00000030: d671 15bd 3ed5 fc3b 49ed 2d3d 11d1 a83b
00000040: 0afe 173d 714f 5f3d 026a 3abd 4450 643c
00000050: 6b57 6f3d d141 e63c f097 91bb 34a4 ef3c
00000060: 7e14 283d bbfd 9c3c 8f29 37bd d878 d6ba
00000070: 8493 fcbc dd12 fabc 770c 753c 73f1 63bc
00000080: 3e20 88bc f440 563d f91e 8e3a bc62 ff3c
00000090: ebdd 5ebd 32ca 52bc 9372 6a3d 5808 24bb
000000a0: 30c9 403d cfcc 6f3b 8c37 093b ce44 ba3c
000000b0: da2a 323b b9e0 493d e422 2d3c b605 66bd
000000c0: 0e3f afbb ca43 68bd 66b6 25bc 3c11 2b3d
000000d0: d6ff 4fbd 78ad dc3c ec16 39bd b6ad 383d
000000e0: 03d4 e53a e11d 2d3d a2fc 2b3d 12fa 67bd
000000f0: 0efa ca3b c439 36bd 682a a9bc a24d 323d

field_cnn.5.weight f4 [64]
0.99876213 0.997614 0.99823016 0.9998035 1.0008008 1.0012687 0.9982028 0.99823606
1.0001711 1.0011901 0.9979645 0.9987075 0.9987525 0.99922127 1.0025573 1.0011874
1.000787 0.99908775 0.998318 1.0012676 0.999391 0.99989027 1.0023509 0.9976368
0.9989575 1.0036705 1.0001359 1.0008663 0.99837756 1.0001694 0.9984586 1.0000249
1.0005729 0.99975634 0.9996555 1.0020422 1.0023537 0.9983745 1.0008472 1.001892
1.0008534 0.9974547 0.9989501 1.001602 0.9989209 0.9991832 1.0028629 1.0022941
1.0018003 1.0006384 1.0000432 1.0001214 0.99991286 1.000101 1.0002798 1.0025319
0.9980198 1.001321 1.0034317 1.0015996 0.99875724 0.9990239 0.99910074 0.99826735
00000000: e0ae 7f3f a263 7f3f 038c 7f3f 1ff3 7f3f
00000010: 3e1a 803f 9329 803f 388a 7f3f 668c 7f3f
00000020: 9b05 803f ff26 803f 9a7a 7f3f 4bab 7f3f
00000030: 3eae 7f3f f7cc 7f3f cc53 803f e926 803f
00000040: ca19 803f 37c4 7f3f c591 7f3f 8929 803f
00000050: 17d8 7f3f cff8 7f3f 094d 803f 2065 7f3f
00000060: aebb 7f3f 4678 803f 7404 803f 631c 803f
00000070: ac95 7f3f 8d05 803f fc9a 7f3f d100 803f
00000080: c612 803f 08f0 7f3f 6ce9 7f3f eb42 803f
00000090: 204d 803f 7995 7f3f c31b 803f ff3d 803f
000000a0: f71b 803f 3159 7f3f 32bb 7f3f 7f34 803f
000000b0: 48b9 7f3f 78ca 7f3f d05d 803f 2c4b 803f
000000c0: fe3a 803f eb14 803f 6a01 803f fa03 803f
000000d0: 4afa 7f3f 4f03 803f 2b09 803f f752 803f
000000e0: 3a7e 7f3f 492b 803f 7370 803f 6a34 803f
000000f0: 8eae 7f3f 08c0 7f3f 11c5 7f3f 738e 7f3f

field_cnn.5.bias f4 [64]
-0.0026800123 -0.0018443449 0.0028367578 0.0016901088 0.004740857 0.003596435 -0.0020366795 0.002128552
0.0030316536 0.0014628599 -0.0017183869 -0.0018972054 0.0007408366 0.003077972 0.0034431668 0.0012939151
0.00075312075 0.0018496363 -0.0024443364 0.004257442 0.0013519382 0.0015701579 0.004953664 -9.789472e-05
0.0032797712 0.0038955093 0.003240534 0.0019489564 -0.0009038813 0.0009963718 0.0006265747 0.0037887054
0.0015932937 0.0017112687 0.0018445132 0.002397252 0.0048882435 -0.00012614626 0.0010686042 0.004308479
0.0017401489 0.00047761606 0.002949703 -0.00051414897 -0.000345763 0.0022776744 0.0041038636 0.0049582995
0.0025603932 0.0014290926 0.00041159967 0.0023748456 0.0015452466 0.001799703 0.0028181903 0.0035656583
0.0012236523 0.0025637592 0.0030842782 0.0025117649 0.00046889618 0.0002496803 0.0030634578 0.0015336891
00000000: 25a3 2fbb f2bd f1ba e6e8 393b a486 dd3a
00000010: 3159 9b3b 2bb2 6b3b d079 05bb 2d7f 0b3b
00000020: b5ae 463b 6fbd bf3a 7f3b e1ba a6ab f8ba
00000030: b434 423a cdb7 493b c1a6 613b 9698 a93a
00000040: 146d 453a 7f6f f23a 2931 20bb 0382 8b3b
00000050: 8533 b13a c2cd cd3a 5852 a23b d44c cdb8
00000060: 6ef1 563b cd4b 7f3b 245f 543b 2074 ff3a
00000070: 72f2 6cba b198 823a b740 243a ee4b 783b
00000080: 11d6 d03a a64c e03a 98c3 f13a 371b 1d3b
00000090: 8f2d a03b 2146 04b9 6810 8c3a 242e 8d3b
000000a0: b515 e43a 8b68 fa39 ce4f 413b f4c7 06ba
000000b0: 8647 b5b9 0945 153b b479 863b 3b79 a23b
000000c0: 45cc 273b 6450 bb3a f9cb d739 4ca3 1b3b
000000d0: df89 ca3a 03e4 eb3a 63b1 383b d2ad 693b
000000e0: f562 a03a be04 283b 9a21 4a3b 6c9c 243b
000000f0: 2ed6 f539 86e7 8239 4bc4 483b 1106 c93a

field_cnn.5.running_mean f4 [64]
-0.35903668 -0.057171937 0.050564334 0.15728605 0.041577607 0.3281502 -0.5425323 -0.026172966
0.15514211 0.35644805 -0.23886292 -0.78652215 -0.45665175 -0.036215615 0.42450458 0.0108983675
-0.19798653 0.41749614 0.0712595 0.53888184 0.305728 -0.009231636 0.14642876 0.27413985
-0.073458225 -0.069949694 0.41382796 0.35808414 -0.0040854276 -0.44853327 0.15022649 0.55267966
-0.55261165 0.039621785 0.6586197 -0.76744866 0.22866815 0.27658743 0.08036969 0.43952212
0.21365042 0.31939825 0.2432317 -0.100400805 -0.22913072 0.45601606 0.053059928 0.2018986
0.19912657 -0.530514 0.3378301 -0.15594332 -0.058385108 0.20080832 0.11817037 0.19167423
-0.037651427 0.34756935 0.55475986 -0.483455 -0.0073841107 -0.21562658 0.2964363 -0.062311433
00000000: a8d3 b7be 1f2d 6abd 8c1c 4f3d 980f 213e
00000010: 484d 2a3d 4e03 a83e 66e3 0abf b068 d6bc
00000020: 93dd 1e3e 5c80 b63e 7b98 74be 8459 49bf
00000030: 42ce e9be d356 14bd aa58 d93e 118f 323c
00000040: fbbc 4abe 0ec2 d53e 80f0 913d 29f4 093f
00000050: 6188 9c3e 4a40 17bc 6cf1 153e 0f5c 8c3e
00000060: 4471 96bd c941 8fbd 42e1 d33e ce56 b73e
00000070: 0ddf 85bb 27a6 e5be f9d4 193e 6a7c 0d3f
00000080: f577 0dbf 744a 223d 4d9b 283f 8477 44bf
00000090: fc27 6a3e de9c 8d3e dd98 a43d 0b09 e13e
000000a0: 2dc7 5a3e 2b88 a33e bb11 793e f09e cdbd
000000b0: 3ea1 6abe f07a e93e 5e55 593d 82be 4e3e
000000c0: d6e7 4b3e c4cf 07bf 11f8 ac3e 9baf 1fbe
000000d0: 3925 6fbd b2a0 4d3e 4f03 f23d 4046 443e
000000e0: 6238 1abd 9cf4 b13e be04 0e3f 6a87 f7be
000000f0: 69f6 f1bb 37cd 5cbe 80c6 973e 463a 7fbd

field_cnn.5.running_var f4 [64]
0.24960136 0.16455148 0.29253244 0.123726554 0.120627336 0.20828031 0.3752069 0.10992038
0.12969612 0.37078375 0.17539684 0.66714567 0.42004332 0.16195947 0.15684125 0.16499963
0.15844095 0.16246025 0.099552 0.22532532 0.17157948 0.15156108 0.20498593 0.23747249
0.13156511 0.25727004 0.31332046 0.22625646 0.077224225 0.2883228 0.2032587 0.46801338
0.3463437 0.09353708 0.70746815 0.70881784 0.15441953 0.17842636 0.13488564 0.38125798
0.16211747 0.33432028 0.62786484 0.15907907 0.12182604 0.46847105 0.24767146 0.26439503
0.18709554 0.59868944 0.16281572 0.25800705 0.11834822 0.20715804 0.17202285 0.34369037
0.11298477 0.32865292 0.24955949 0.49943843 0.21845716 0.20455942 0.17817427 0.10529407
00000000: 8097 7f3e 2f80 283e d0c6 953e 5964 fd3d
00000010: 770b f73d 6f47 553e 1e1b c03e f01d e13d
00000020: 0fcf 043e 5ed7 bd3e 3b9b 333e 0fca 2a3f
00000030: eb0f d73e b4d8 253e fe9a 203e aaf5 283e
00000040: 583e 223e fb5b 263e ebe1 cb3d aebb 663e
00000050: 88b2 2f3e d432 1b3e d5e7 513e fd2b 733e
00000060: 01b9 063e e6b8 833e 8a6b a03e c6af 673e
00000070: bc27 9e3d 0c9f 933e 0c23 503e 739f ef3e
00000080: f653 b13e 5e90 bf3d a21c 353f 1675 353f
00000090: 2720 1e3e 66b5 363e 761f 0a3e 3f34 c33e
000000a0: 1f02 263e 072c ab3e c0bb 203f a0e5 223e
000000b0: ee7f f93d 70db ef3e 969d 7d3e c95e 873e
000000c0: f995 3f3e b643 193f 2ab9 263e 8019 843e
000000d0: 8d60 f23d 3d21 543e c226 303e 2ff8 af3e
000000e0: 8f64 e73d 3245 a83e 868c 7f3e 65b6 ff3e
000000f0: 3cb3 5f3e 0678 513e 5173 363e 6ba4 d73d

field_cnn.8.weight f4 [128, 64, 3, 3]
0.0071508144 -0.023102358 -0.031230893 0.032733414 -0.009021455 -0.014958408 -0.018270364 0.026008872
-0.02371299 -0.03758214 0.0302024 0.036798827 -0.015418721 0.029789975 -0.033283666 -0.021063654
-0.041356627 0.029501168 -0.02184665 0.00509801 -0.0334182 0.039772116 0.025464818 0.016288005
0.0101426095 -0.031156074 -0.038125206 0.025763659 0.023472132 -0.038056526 0.032732543 0.007479094
-0.0065318784 -0.024496619 0.013389963 0.031659752 -0.032188714 -0.0118881175 -0.041074738 -0.024542866
-0.040501554 0.009252056 -0.034342874 -0.037269626 -0.024987316 0.023629501 -0.030848002 0.03850317
-0.031050403 0.011338196 -0.04255377 -0.030311571 0.0064045107 0.018798117 -0.042907216 0.020719504
-0.017416738 0.012409959 0.020308467 0.030355927 0.031814 -0.027978139 0.032397766 0.016379151
-0.019771576 0.018797847 0.022858018 0.038117133 -0.008670733 -0.03046938 -0.0069165616 0.039805885
-0.0030670431 0.012113508 -0.039689224 -0.01969694 -0.027049616 0.038816698 0.030110963 0.020295674
-0.012474221 0.013315061 -0.037878532 -0.027354827 -0.019858625 -0.006652662 0.023944577 -0.029265188
0.01595622 0.0047862916 0.0059234765 0.03765447 -0.020926436 0.031470373 0.032255504 0.004570499
0.028852766 0.0022818148 0.038152188 -0.0021477093 0.0010070461 -0.004967767 0.026641842 -0.026593154
-0.00819636 -0.0046054856 0.013052218 -0.030959055 0.030086527 0.0019460305 -0.022369143 0.008359781
0.02486934 0.03818447 0.011063488 0.023568008 0.014074627 0.010782553 -0.0356488 -0.025087826
0.030327989 -0.028291982 0.015659101 0.027112339 0.01340316 0.03650883 0.014000967 0.008415931
-0.0030499452 -0.04043444 -0.0305844 0.027442604 0.032063942 -0.020861065 0.033199944 0.03378892
0.01100856 -0.0118087595 0.03164732 -0.039637152 -0.031173915 0.033820905 0.024502723 0.03822981
0.01615118 0.017762661 -0.015676081 -0.0025342142 0.018084679 -0.015479638 0.008357683 0.036245026
0.03696193 -0.003944755 0.03954883 0.017305285 -0.013292378 0.015429754 0.00793263 0.025759043
-0.039948102 -0.025544407 -0.0023133985 -0.03614686 -0.006777442 0.021649739 -0.03613202 -0.03573133
0.035370186 -0.0139789665 -0.036612365 0.028593792 0.015573002 0.015333918 -0.02284696 -0.014839482
0.003440766 -0.04157282 0.0065259133 -0.03416594 -0.008690436 0.035056256 0.01805694 0.005103707
0.03448113 0.034344196 -0.004038022 -0.03271472 -0.039614588 0.0378138 -0.029493071 0.013088899
0.005319649 -0.031222556 -0.02912124 0.03753797 0.027995406 0.025337769 -0.0019087389 0.027618114
0.03019067 -0.029824117 -0.03152214 0.02071309 -0.03941405 0.02225716 -0.018371416 0.037828144
-0.00037262222 0.0141402045 0.023328364 0.022491049 -0.0042640194 -0.017642256 0.02389296 -0.023327207
0.037563737 0.030867085 0.009620756 0.038979642 0.036154043 0.00095651177 -0.033052936 0.007899959
0.028963283 -0.033758953 0.015077865 -0.030590812 -0.016418688 -0.03516216 0.016339501 0.03649962
-0.03538239 0.033342827 -0.038324777 -0.010463109 -0.040529132 0.008718618 0.016295467 -8.6910004e-05
-0.015992325 -0.017383287 0.00087498367 0.010774065 0.012748702 -0.0005006988 0.01321445 0.01936608
0.017925039 0.025415944 -0.024833197 -0.037883233 -0.023259632 0.01824014 0.02810038 -0.03140836
00000000: 6151 ea3b 2841 bdbc eed7 ffbc 7913 063d
00000010: bace 13bc 1c14 75bc bbab 95bc 8f10 d53c
00000020: bf41 c2bc bbef 19bd 066b f73c 5eba 163d
00000030: ce9e 7cbc 1b0a f43c 7454 08bd af8d acbc
00000040: 9165 29bd 6fac f13c bff7 b2bc 350d a73b
00000050: 86e1 08bd 16e8 223d 989b d03c 6c6e 853c
00000060: 302d 263c 063b ffbc 2d29 1cbd 4f0e d33c
00000070: a148 c03c 29e1 1bbd 8f12 063d 3013 f53b
00000080: 5e09 d6bb 22ad c8bc 9361 5b3c a8ad 013d
00000090: 50d8 03bd 61c6 42bc fc3d 28bd 1f0e c9bc
000000a0: f5e4 25bd ef95 173c 1dab 0cbd 09a8 18bd
000000b0: 33b2 ccbc a892 c13c f3b4 fcbc 80b5 1d3d
000000c0: 6a5d febc d7c3 393c dd4c 2ebd f94f f8bc
000000d0: eedc d13b 82fe 993c 7abf 2fbd f3bb a93c
000000e0: 8cad 8ebc 2453 4b3c f15d a63c feac f83c
000000f0: 664f 023d 6932 e5bc 85b3 043d 922d 863c
00000100: 00f8 a1bc f1fd 993c bd40 bb3c b620 1c3d
00000110: b10f 0ebc ec9a f9bc 53a4 e2bb 7f0b 233d
00000120: 7200 49bb bc77 463c 2b91 22bd 7a5b a1bc
00000130: 2897 ddbc 42fe 1e3d 44ab f63c 1d43 a63c
00000140: ad60 4cbc 6a27 5a3c 8526 1bbd 3b17 e0bc
00000150: 8eae a2bc 93fe d9bb 6b27 c43c 8cbd efbc
00000160: 9eb6 823c 53d6 9c3b b919 c23b 933b 1a3d
00000170: eb6d abbc 14e7 003d 591e 043d 20c4 953b
00000180: a35c ec3c 808a 153b 7845 1c3d 95c0 0cbb
00000190: dcfe 833a a6c8 a2bb fe3f da3c e3d9 d9bc
000001a0: 074a 06bc 9de9 96bb f8d8 553c d89d fdbc
000001b0: 0578 f63c f311 ff3a 7e3f b7bc 76f7 083c
000001c0: c9ba cb3c 5267 1c3d a243 353c b211 c13c
000001d0: 4499 663c 4ea9 303c 7a04 12bd fc84 cdbc
000001e0: 6772 f83c 96c4 e7bc 8447 803c b21a de3c
000001f0: ed98 5b3c 488a 153d 5064 653c f9e2 093c
00000200: 97e1 47bb 959e 25bd 238c fabc 50cf e03c
00000210: 7b55 033d d3e4 aabc aafc 073d 4066 0a3d
00000220: 3f5d 343c 8779 41bc 9fa0 013d 915a 22bd
00000230: 7060 ffbc ca87 0a3d efb9 c83c dc96 1c3d
00000240: 7b4f 843c 0083 913c 206b 80bc 0f15 26bb
00000250: 5226 943c 4f9e 7dbc aaee 083c aa75 143d
00000260: 6565 173d 0143 81bb f4fd 213d d0c3 8d3c
00000270: 46c8 59bc 14cd 7c3c ddf7 013c a104 d33c
00000280: 9fa0 23bd 8142 d1bc 639c 17bb bb0e 14bd
00000290: 4e15 debb cb5a b13c 2bff 13bd 045b 12bd
000002a0: 54e0 103d 0908 65bc d9f6 15bd 873d ea3c
000002b0: e825 7f3c 1d3b 7b3c 8c29 bbbc 4c21 73bc
000002c0: 797e 613b 4348 2abd 54d7 d53b 96f1 0bbd
000002d0: 5562 0ebc 2697 0f3d 26ec 933c ff3c a73b
000002e0: 163c 0d3d 80ac 0c3d 6251 84bb dfff 05bd
000002f0: e842 22bd a5e2 1a3d 749b f1bc d272 563c
00000300: 7350 ae3b 72c6 ffbc ab8f eebc 6ac1 193d
00000310: 9f56 e53c 2791 cf3c a62e faba 623f e23c
00000320: 6d52 f73c b551 f4bc 5c1d 01bd 80ae a93c
00000330: a070 21bd a654 b63c a77f 96bc aff1 1a3d
00000340: 825c c3b9 51ac 673c 201b bf3c 263f b83c
00000350: 30b9 8bbb 7e86 90bc 2bbb c33c b318 bfbc
00000360: 6fdc 193d f8dc fc3c 60a0 1d3c 1ea9 1f3d
00000370: 4316 143d 6bbe 7a3a 8462 07bd d46e 013c
00000380: 6844 ed3c d446 0abd 2609 773c 9599 fabc
00000390: 7c80 86bc 3206 10bd 6bda 853c a080 153d
000003a0: 20ed 10bd 7d92 083d 71fa 1cbd 766d 2bbc
000003b0: e001 26bd 89d8 0e3c 127e 853c 7443 b6b8
000003c0: 5602 83bc 6567 8ebc 295f 653a b485 303c
000003d0: efdf 503c 5441 03ba 6c81 583c 9da5 9e3c
000003e0: 88d7 923c 1935 d03c fd6e cbbc 732b 1bbd
000003f0: fc8a bebc 596c 953c c532 e63c 0da6 00bd

field_cnn.8.bias f4 [128]
0.013772209 -0.019577367 -0.014323051 -0.0065237377 -0.015999863 0.00374909 0.0042101047 0.005191563
0.038648807 0.03982333 0.02784218 -0.033767708 0.010536997 0.017816244 -0.023874637 -0.023770377
0.029007053 -0.01848136 0.008301335 -0.0041699815 -0.0055546784 0.03835632 0.022417435 -0.011897113
-0.023803273 -0.03804531 0.030204782 0.03797389 -0.03484909 0.013925692 0.02113635 -0.038408335
0.040462993 0.009304622 -0.019570386 0.007428681 0.01616116 -0.025525846 -0.012511123 -0.008528467
0.0145352 -0.012699213 0.026290571 0.016130289 0.007555407 0.0034537707 -0.037437085 0.036602225
0.02882095 -0.0004507876 -0.041278925 0.01744037 -0.018877551 -0.010018948 0.02893628 -0.0132697355
-0.03315961 0.04162015 -0.012811742 -0.007765995 0.029480547 0.026309874 0.0063628177 0.009905029
0.018450357 0.03771477 0.015776942 -0.025289942 -0.016972192 0.027044304 -0.009019856 0.027364006
-0.036071554 0.017284198 -0.015002986 -0.0011251967 -0.003770992 0.008236478 0.01133426 0.010668766
-0.02747329 0.015833845 -0.0072369915 -0.019984696 0.0060191886 -0.031266175 -0.0010878242 0.009906032
0.011884131 0.0043364274 0.037384134 0.031438593 0.008055558 -0.00857357 0.03290738 -0.00045068815
-0.0077293413 0.006719485 0.022407562 -0.033464324 0.035192803 -0.00479848 0.019348558 -0.005786013
0.04002304 0.007698613 -0.020376613 -0.017486203 0.0116160195 -0.032722887 0.0019680613 0.038968958
0.014336901 -0.032166887 -0.022114238 -0.020766497 -0.029822635 -0.040962413 0.002329782 0.018130379
-0.03325947 0.03794093 0.016358605 -0.035266083 -0.020334978 -0.008324316 0.025308823 0.014454429
00000000: d5a4 613c b760 a0bc 3bab 6abc 14c5 d5bb
00000010: 2512 83bc 4bb3 753b ebf4 893b fd1d aa3b
00000020: 364e 1e3d ca1d 233d 4915 e43c 0250 0abd
00000030: 5ea3 2c3c 5ff3 913c be94 c3bc 18ba c2bc
00000040: 33a0 ed3c 3966 97bc 5302 083c 57a4 88bb
00000050: 0504 b6bb 841b 1d3d c5a4 b73c 1cec 42bc
00000060: 15ff c2bc 66d5 1bbd 0570 f73c 828a 1b3d
00000070: ebbd 0ebd 9628 643c 2426 ad3c 0f52 1dbd
00000080: 86bc 253d 6a72 183c 1352 a0bc 4b6c f33b
00000090: 6964 843c 941b d1bc 74fb 4cbc fcba 0bbc
000000a0: 0c25 6e3c 5c10 50bc 535f d73c ab23 843c
000000b0: 5993 f73b a858 623b a157 19bd 37ec 153d
000000c0: ea19 ec3c b057 ecb9 1714 29bd 1bdf 8e3c
000000d0: 18a5 9abc 8426 24bc c70b ed3c 4e69 59bc
000000e0: 5fd2 07bd e479 2a3d 57e8 51bc e379 febb
000000f0: 3081 f13c ce87 d73c 2f7f d03b b448 223c
00000100: 3425 973c cd7a 1a3d a53e 813c da2c cfbc
00000110: 4409 8bbc 048c dd3c 05c8 13bc 7b2a e03c
00000120: c4bf 13bd 9797 8d3c 16cf 75bc 567b 93ba
00000130: bf22 77bb 4bf2 063c 55b3 393c 0ccc 2e3c
00000140: aa0f e1bc fbb5 813c 4924 edbb f2b6 a3bc
00000150: 9d3c c53b f610 00bd 5395 8eba e94c 223c
00000160: a8b5 423c 9718 8e3b 1b20 193d c1c5 003d
00000170: 76fb 033c 2978 0cbc e4c9 063d 574a ecb9
00000180: 6a46 fdbb 202f dc3b 1090 b73c e311 09bd
00000190: 5426 103d 913c 9dbb de80 9e3c 9898 bdbb
000001a0: 33ef 233d a644 fc3b dbec a6bc 3a3f 8fbc
000001b0: 1e51 3e3c 6f08 06bd 97fa 003b ea9d 1f3d
000001c0: 52e5 6a3c 6dc1 03bd eb28 b5bc 801e aabc
000001d0: 994e f4bc 34c8 27bd 41af 183b 2986 943c
000001e0: 153b 08bd f367 1b3d 7b02 863c 2b73 10bd
000001f0: 8a95 a6bc b662 08bc 7354 cf3c 45d2 6c3c

field_cnn.9.weight f4 [128]
0.99784726 0.9969536 0.9985145 0.9999199 0.9996934 1.0041238 0.999038 1.0014716
1.0008863 0.9996937 1.0000292 0.99932224 1.0023831 1.001459 1.0024265 0.99787086
0.99880904 1.0025951 0.9981396 0.99779147 0.999305 0.9990088 1.000546 1.001777
1.0003942 1.000623 1.0001364 1.0012311 1.0012561 0.9992882 1.0025533 0.99958456
0.9977138 0.99887717 0.9997893 0.9996998 0.9974332 1.0058781 0.9989176 1.0020995
1.0004358 1.0027928 0.999252 1.0017378 0.99906594 1.0023454 0.9986377 0.99917513
0.9995948 0.9972057 0.9989708 0.99805456 0.9982706 1.0044738 1.0011475 0.99978364
0.9995125 1.0031813 1.0024843 0.99893874 0.99577314 1.0013132 1.0021449 0.9964568
1.0033882 1.0017462 1.002038 0.99707204 1.0018768 1.001356 0.99827254 0.996806
1.000896 0.9967837 1.0005652 1.0019562 1.0008131 1.0042155 1.0028468 0.9996703
0.99992377 1.0001733 1.0009737 0.9992601 1.0017816 1.0020747 0.997125 0.9975297
0.9979217 0.99978215 0.99868166 1.0012898 0.99751127 1.0039603 1.0021415 0.99783325
0.9993977 1.0013733 0.9983283 0.99818766 1.0028921 0.99906224 0.9962439 1.0010659
0.9978413 1.001952 0.9984969 1.0000882 1.0021238 1.0016875 0.99865746 0.99915737
1.0001583 1.0006336 0.9994477 0.9986707 1.0015026 0.9989881 0.9980197 0.9990292
0.99988765 1.0020069 1.0033598 0.99928755 0.9991068 1.0000923 1.0008358 0.9994543
00000000: eb72 7f3f 5a38 7f3f a59e 7f3f c0fa 7f3f
00000010: e8eb 7f3f 2187 803f f4c0 7f3f 3930 803f
00000020: 0b1d 803f edeb 7f3f f500 803f 95d3 7f3f
00000030: 174e 803f cf2f 803f 834f 803f 7774 7f3f
00000040: f3b1 7f3f 0955 803f 1486 7f3f 436f 7f3f
00000050: 74d2 7f3f 0abf 7f3f e411 803f 3b3a 803f
00000060: eb0c 803f 6a14 803f 7804 803f 5728 803f
00000070: 2929 803f 5ad1 7f3f ab53 803f c6e4 7f3f
00000080: 2c6a 7f3f 6ab6 7f3f 31f2 7f3f 53ec 7f3f
00000090: c857 7f3f 9dc0 803f 10b9 7f3f cc44 803f
000000a0: 480e 803f 845b 803f fbce 7f3f f238 803f
000000b0: c9c2 7f3f db4c 803f b8a6 7f3f f1c9 7f3f
000000c0: 72e5 7f3f df48 7f3f 8dbc 7f3f 8180 7f3f
000000d0: a98e 7f3f 9992 803f 9a25 803f d2f1 7f3f
000000e0: 0de0 7f3f 3f68 803f 6851 803f 73ba 7f3f
000000f0: fdea 7e3f 082b 803f 4946 803f cb17 7f3f
00000100: 066f 803f 3839 803f c842 803f 1d40 7f3f
00000110: 803d 803f 6f2c 803f ca8e 7f3f ae2e 7f3f
00000120: 5c1d 803f 372d 7f3f 8512 803f 1a40 803f
00000130: a51a 803f 228a 803f 495d 803f 65ea 7f3f
00000140: 01fb 7f3f ae05 803f e81f 803f 83cf 7f3f
00000150: 613a 803f fc43 803f 9643 7f3f 1b5e 7f3f
00000160: cc77 7f3f b9f1 7f3f 9aa9 7f3f 442a 803f
00000170: e65c 7f3f c581 803f 2c46 803f 0072 7f3f
00000180: 87d8 7f3f 002d 803f 7292 7f3f 3a89 7f3f
00000190: c55e 803f 8bc2 7f3f d709 7f3f ed22 803f
000001a0: 8772 7f3f f73f 803f 7e9d 7f3f e402 803f
000001b0: 9845 803f 4c37 803f 04a8 7f3f c7c8 7f3f
000001c0: 3005 803f c314 803f cedb 7f3f e2a8 7f3f
000001d0: 3d31 803f afbd 7f3f 387e 7f3f 61c0 7f3f
000001e0: a3f8 7f3f c341 803f 186e 803f 4fd1 7f3f
000001f0: 77c5 7f3f 0603 803f 631b 803f 3ddc 7f3f

field_cnn.9.bias f4 [128]
-0.0017236464 -0.0040916693 -0.00051673455 0.0013959961 -0.00020980602 0.0014392737 0.0028293014 0.0019649088
-0.0003909286 0.0010611702 -0.00049350417 -0.00020055225 0.0021063224 0.0023234456 0.0013831253 -0.00064624427
0.0014860315 0.0013139748 0.002306057 -0.0018650582 -0.00073168735 0.0014813232 0.0012891694 0.0008365738
0.0015769341 0.00016827657 -0.0009697885 0.0015487035 0.0020601738 0.00097352837 0.0015904729 0.00019826388
0.0015754459 0.0007841227 -0.0015522154 0.0008614761 -0.0011485649 0.0039977124 0.0016991297 0.0016025584
-5.1776777e-05 0.0019231107 -0.0014110275 0.0018008683 0.0011223224 0.001961095 0.00013888965 0.0003804409
-0.00070326217 -0.001039842 -9.230772e-05 -0.001695029 -0.0004638165 0.0020500263 0.0032871899 0.0018367975
0.0010804101 0.0030701598 0.0003015031 0.001616607 -0.0012854032 0.002263891 0.0012652903 -0.0016308671
0.0021924817 0.0009657651 0.0014953935 0.0006118438 -0.00041222473 0.0017130204 -9.021764e-05 0.0014345245
0.002413714 -0.00132827 0.0012759999 0.0015325526 0.0014377905 0.00017308448 0.0010490224 0.0014137304
0.0013586313 0.0017612334 0.00072133885 0.0002005441 0.0011282539 0.0006828458 -0.001268982 -0.00020647919
-0.0002795646 0.00023606076 0.00047690584 0.001902968 -0.0021287673 0.0022734322 0.0015728017 -0.0014375045
-0.00024255933 0.0012029771 0.0018045309 4.220879e-05 0.00075720856 -0.00091021904 -0.00029062983 0.0009972673
0.0014837489 0.0013249788 0.0010804156 -0.0013544689 0.0014991835 0.001064047 0.0015669317 -0.0014886833
0.0012637967 0.001323462 0.0012579809 -0.00083795557 0.0005676523 0.00073282054 0.00033043663 0.0010855233
0.00086926075 0.0013878891 0.0012658366 0.00021169134 -0.0022081824 0.00076555833 0.0010898659 0.00054255576
00000000: faeb e1ba 6913 86bb 7875 07ba dbf9 b63a
00000010: 60ff 5bb9 03a6 bc3a cd6b 393b b3c5 003b
00000020: 8cf5 ccb9 f716 8b3a 815e 01ba 564b 52b9
00000030: 3a0a 0a3b f344 183b fc49 b53a b868 29ba
00000040: f1c6 c23a ae39 ac3a 3721 173b f874 f4ba
00000050: b5ce 3fba f528 c23a 59f9 a83a 844d 5b3a
00000060: 21b1 ce3a 6673 3039 6839 7eba defd ca3a
00000070: fb03 073b 6234 7f3a 6a77 d03a 0ee5 4f39
00000080: 317f ce3a 958d 4d3a b573 cbba afd4 613a
00000090: 718b 96ba 3eff 823b 55b5 de3a f00c d23a
000000a0: e42a 59b8 e310 fc3a 3af2 b8ba 1d0b ec3a
000000b0: e41a 933a b785 003b e8a2 1139 ea75 c739
000000c0: 205b 38ba 4f4b 88ba 5495 c1b8 bc2b deba
000000d0: 662c f3b9 bc59 063b e56d 573b b2c0 f03a
000000e0: 8c9c 8d3a bc34 493b 1013 9e39 54e4 d33a
000000f0: f97a a8ba ca5d 143b 19d8 a53a d2c2 d5ba
00000100: bdaf 0f3b 662b 7d3a 1401 c43a 2464 203a
00000110: de1f d8b9 6d87 e03a 3a33 bdb8 a806 bc3a
00000120: 672f 1e3b 5819 aeba 743f a73a efdf c83a
00000130: 3e74 bc3a 037e 3539 5a7f 893a ec4c b93a
00000140: 1a14 b23a 30d9 e63a 3b18 3d3a 2649 5239
00000150: ebe1 933a 0201 333a f853 a6ba 5682 58b9
00000160: 8792 92b9 1487 7739 3809 fa39 036d f93a
00000170: ca82 0bbb ddfd 143b 7826 ce3a a66a bcba
00000180: 8657 7eb9 37ad 9d3a 0286 ec3a 5809 3138
00000190: 687f 463a c49b 6eba ad5f 98b9 bdb6 823a
000001a0: 5a7a c23a e9aa ad3a bb9c 8d3a 6f88 b1ba
000001b0: 4080 c43a 7e77 8b3a 8161 cd3a ec1f c3ba
000001c0: fba5 a53a 0478 ad3a d6e2 a43a 3faa 5bba
000001d0: 80ce 143a c11a 403a 743e ad39 1e48 8e3a
000001e0: 1adf 633a d5e9 b53a 6eea a53a 76f9 5d39
000001f0: 27b7 10bb c0af 483a d5d9 8e3a 4d3a 0e3a

field_cnn.9.running_mean f4 [128]
-0.11503238 -0.23955408 0.3375811 -0.057511367 -0.25448644 -0.39004093 -0.43293694 -0.28799325
0.041413732 -0.07197704 -0.2863712 -0.5103602 -0.53007984 -0.42771196 -0.19523773 0.15100843
-0.4014538 -0.41068643 0.15799583 -0.56864107 -0.27892357 0.22885884 0.025333835 -0.098770864
-0.19730802 -0.39441782 0.055251993 -0.26144356 -0.27008778 -0.6369257 -0.5181604 -0.46308923
-0.25669047 -0.17123696 -0.8667192 -0.41652393 0.25418168 -0.4743477 -0.063339084 -0.28531435
-0.14860956 -0.81223166 -0.2756228 -0.25607342 -0.06940624 -0.31123623 -0.30281138 0.279992
0.058002222 -0.11204735 -0.32516816 0.012207499 -0.20567814 -0.3482059 -0.13021518 -0.28932476
-0.2885076 -0.24352503 -0.44384378 -0.52659 0.035511233 -0.6733307 -0.60493785 0.82873285
-0.38078642 -0.3369288 -0.28400367 0.35299253 -0.47241053 -0.2749295 0.23353171 -0.041206278
0.081484765 0.24742809 -0.51488054 -0.34241283 -0.4325198 -0.33721563 -0.7318932 -0.16101906
-0.25863573 0.020195944 -0.25819272 -0.3656801 -0.1275531 -0.4093478 0.22503918 -0.42459694
-0.1063231 -0.1741889 -0.013348595 -0.16545624 0.22425795 -0.27987123 -0.17318898 -0.2666934
-0.54146516 -0.5572218 -0.026669323 -0.16280033 -0.4002287 0.56420505 -0.23046519 -0.57409215
0.096937984 -0.22161624 -0.2856093 0.17133668 -0.5256535 -0.15111071 0.20292054 -0.21067397
-0.49802858 -0.24882731 -0.2233733 -0.30912897 -0.54002523 -0.20728654 0.17287678 -0.46343133
-0.42409757 -0.42528957 -0.5644566 0.20748721 -0.15440366 -0.39074403 -0.25086957 -0.2048844
00000000: 1996 ebbd aa4d 75be 6ed7 ac3e 0a91 6bbd
00000010: 0c4c 82be 72b3 c7be e9a9 ddbe da73 93be
00000020: 72a1 293d b368 93bd 3f9f 92be f7a6 02bf
00000030: 50b3 07bf 10fd dabe 66ec 47be f4a1 1a3e
00000040: 5a8b cdbe 7e45 d2be a9c9 213e 7692 11bf
00000050: 12cf 8ebe f959 6a3e e788 cf3c 6148 cabd
00000060: 1d0b 4abe 22f1 c9be ea4f 623d eedb 85be
00000070: f248 8abe 900d 23bf 29a6 04bf 081a edbe
00000080: ef6c 83be be58 2fbe 4fe1 5dbf a042 d5be
00000090: 1a24 823e b4dd f2be ecb7 81bd b914 92be
000000a0: 1b2d 18be 6aee 4fbf 6f1e 8dbe 0e1c 83be
000000b0: dc24 8ebd 5b5a 9fbe 180a 9bbe 1d5b 8f3e
000000c0: bd93 6d3d 1579 e5bd 717c a6be f601 483c
000000d0: 4a9d 52be 0b48 b2be 2157 05be 6022 94be
000000e0: 45b7 93be a05e 79be 7e3f e3be 9ace 06bf
000000f0: 3a74 113d 675f 2cbf 35dd 1abf d627 543f
00000100: 70f6 c2be ef81 acbe ee68 91be 70bb b43e
00000110: cbdf f1be 8fc3 8cbe f022 6f3e eac7 28bd
00000120: 7ce1 a63d ca5d 7d3e 36cf 03bf bc50 afbe
00000130: 3c73 ddbe 87a7 acbe 5a5d 3bbf 2ee2 24be
00000140: e76b 84be f771 a53c d631 84be 6c3a bbbe
00000150: 489d 02be 0996 d1be ac70 663e c564 d9be
00000160: edbf d9bd 935e 32be 11b4 5abc 5c6d 29be
00000170: e0a3 653e 484b 8fbe 7458 31be 0a8c 88be
00000180: 769d 0abf 16a6 0ebf a079 dabc 21b5 26be
00000190: c7ea ccbe be6f 103f 11ff 6bbe b4f7 12bf
000001a0: 6c87 c63d 5eef 62be 623b 92be e272 2f3e
000001b0: 3a91 06bf c4bc 1abe 67ca 4f3e ebba 57be
000001c0: 9afd febe 96cc 7ebe f8bb 64be 2746 9ebe
000001d0: 183f 0abf ec42 54be 9c06 313e df46 edbe
000001e0: 5123 d9be 8ebf d9be 3a80 10bf 8777 543e
000001f0: fe1b 1ebe 9a0f c8be fa71 80be 37cd 51be

field_cnn.9.running_var f4 [128]
0.44819492 0.17350058 0.23626567 0.17164291 0.25623405 0.28532782 0.17255557 0.1618847
0.13840604 0.1880764 0.18029644 0.44942313 0.37581497 0.15215015 0.18169051 0.2632888
0.21939993 0.45107925 0.18734866 0.35445 0.64463705 0.24175358 0.1517958 0.25002116
0.18250257 0.26620236 0.24718775 0.29517874 0.23341475 0.20116797 0.2288627 0.30987275
0.28623593 0.38425413 0.42919248 0.23325099 0.3880132 0.22778599 0.17795956 0.17869994
0.34889764 0.21240246 0.40864006 0.29939157 0.20418525 0.2230926 0.18744777 0.37021688
0.44969913 0.17631951 0.15698586 0.17822541 0.2896317 0.14928283 0.10285962 0.22495572
0.21054275 0.26049712 0.23230489 0.2582695 0.29476678 0.2355457 0.3345771 0.8579892
0.23592354 0.28087437 0.31758913 0.21625696 0.20150949 0.35211512 0.2803693 0.20822316
0.30042222 0.60570306 0.2089103 0.21650645 0.27116486 0.16315357 0.29140547 0.19987987
0.11898618 0.13957423 0.15953349 0.23291908 0.1771333 0.19174221 0.40908805 0.26628134
0.1532747 0.13632482 0.15480149 0.16089067 0.39224738 0.35227787 0.17091382 0.39543402
0.5737275 0.2681377 0.1697483 0.2126915 0.20640045 0.86424 0.14167944 0.2679214
0.23797439 0.20471472 0.22083609 0.16369633 0.2038475 0.15133297 0.10863513 0.34576795
0.34204423 0.18726772 0.1863721 0.48188707 0.20623823 0.12563239 0.38367936 0.193709
0.15921873 0.16079421 0.23925935 0.22383177 0.33652094 0.1797979 0.2686623 0.2224644
00000000: ce79 e53e 23aa 313e a1ef 713e 29c3 2f3e
00000010: 1c31 833e 7d16 923e 68b2 303e 1ac5 253e
00000020: 50ba 0d3e 1a97 403e a19f 383e ca1a e63e
00000030: d26a c03e 40cd 1b3e 140d 3a3e cacd 863e
00000040: 60aa 603e dcf3 e63e 54d8 3f3e 787a b53e
00000050: ef06 253f 408e 773e 5c70 1b3e c602 803e
00000060: f4e1 3a3e ad4b 883e c91e 7d3e ab21 973e
00000070: 4704 6f3e fafe 4d3e fc5a 6a3e a4a7 9e3e
00000080: 848d 923e f5bc c43e 1ebf db3e 59d9 6e3e
00000090: aba9 c63e bb40 693e 083b 363e 1efd 363e
000000a0: b6a2 b23e 0880 593e 4539 d13e da49 993e
000000b0: f015 513e 6372 643e 4ff2 3f3e 118d bd3e
000000c0: f73e e63e 1a8d 343e e7c0 203e b980 363e
000000d0: 9b4a 943e 99dd 183e 10a8 d23d cb5a 663e
000000e0: 8598 573e e15f 853e 55e1 6d3e e63b 843e
000000f0: aceb 963e e432 713e b14d ab3e 2ea5 5b3f
00000100: f195 713e c4ce 8f3e 0b9b a23e 7772 5d3e
00000110: 8158 4e3e 6f48 b43e 918c 8f3e 7438 553e
00000120: f1d0 993e 5b0f 1b3f 95ec 553e deb3 5d3e
00000130: 1fd6 8a3e bb11 273e 1933 953e 4fad 4c3e
00000140: 07af f33d 8cec 0e3e bf5c 233e 5782 6e3e
00000150: 6f62 353e 1258 443e fd73 d13e 0756 883e
00000160: 0bf4 1c3e bc98 0b3e 4884 1e3e 86c0 243e
00000170: a6d4 c83e c45d b43e 0804 2f3e 5476 ca3e
00000180: cedf 123f 5849 893e 80d2 2d3e cdcb 593e
00000190: a45a 533e d53e 5d3f 6a14 113e fe2c 893e
000001a0: 8faf 733e bca0 513e db22 623e 03a0 273e
000001b0: 66bd 503e 08f7 1a3e 187c de3d 7f08 b13e
000001c0: 6c20 af3e 1cc3 3f3e 54d8 3e3e e7b9 f63e
000001d0: 1d30 533e c7a5 003e 9f71 c43e a75b 463e
000001e0: 3c0a 233e 3da7 243e 6700 753e 2834 653e
000001f0: 794c ac3e f11c 383e 1b8e 893e b5cd 633e
